OpenRDW/Assets/OpenRDW/Resources/SRLNet_10.onnx (onnx, 167857 bytes, 12 tensors)

39 f4 [1, 3]
000000 36 08 d6 be 06 af 98 be 47 81 76 bf
       -0.4180314 -0.29821032 -0.9629101

base.actor.0.bias f4 [128]
000000 58 6b 8d be 71 7e 9c bd 8b e1 25 3d a6 6f b8 bc
       -0.2762096 -0.07641304 0.040498298 -0.022514176
000010 bb ff 26 3e 02 6d c3 3d a9 71 c1 be 6b af df bd
       0.16308491 0.09542276 -0.37782028 -0.1092213
000020 7e ee e1 be c2 61 e4 be cb b9 f0 bc e0 fe 96 3e
       -0.44127268 -0.44605833 -0.029385468 0.2949133
000030 de 0d 15 3e fe 8f aa bd 7f ce cf 3d 4d bb c6 bc
       0.14556071 -0.083282456 0.10146808 -0.024259234
000040 9f 2e 09 bd 55 61 f1 3e 58 ff 28 be 09 f7 12 3f
       -0.033491727 0.4714457 -0.16503656 0.57408196
000050 49 9e 15 be 64 a0 83 3e 6d ff a9 3d 6d 8d e1 3d
       -0.14611162 0.25708306 0.08300672 0.11013303
000060 00 00 00 00 09 6d ae bd 54 f7 42 be 14 e8 aa 3d
       0.0 -0.085168906 -0.1903966 0.08345047
000070 75 7e ea 3d 30 cc b0 3e 04 19 e0 bd 1a be da 3e
       0.11449901 0.34530783 -0.10942271 0.4272316
000080 0b f6 86 bd ff d7 72 3b 01 de 39 3e 9d 4b fe 3e
       -0.06589898 0.0037055013 0.18151094 0.49667063
000090 6d 2a dc be 65 54 ba be 4b ae 4b 3f 49 06 05 bf
       -0.43001118 -0.36392513 0.79562825 -0.51962715
0000a0 b2 71 b4 bd 68 ad 7a 3e 5f b0 12 bf e1 54 39 3e
       -0.08810748 0.24480212 -0.5730037 0.18098785
0000b0 8c b7 54 31 10 28 d5 bd 70 03 c3 3d 0d 76 e9 bc
       3.0954395e-09 -0.10408032 0.0952214 -0.028498674
0000c0 8a 0e 53 3c 48 38 f8 3b 1e 41 16 3e 96 67 23 be
       0.012881884 0.0075750686 0.14673278 -0.15957484
0000d0 53 fd a4 bd 25 a5 01 3f be 75 af bc d4 d9 c3 bd
       -0.0805613 0.50642616 -0.021418449 -0.09563032
0000e0 40 e5 70 be d2 17 6d 3e c7 33 b1 be 40 f7 1c 3e
       -0.23524952 0.23153618 -0.34609815 0.15328693
0000f0 f0 17 bb bd a2 04 ab 3e 7a eb 06 be 49 dc fb 3d
       -0.09135425 0.33401972 -0.13175765 0.122978754
000100 38 32 c5 be 5a dd 2b 3f 21 6d e4 be d9 a2 68 bd
       -0.38514876 0.6713463 -0.4461451 -0.05679593
000110 cd bf 16 bd 05 ff 34 bd d4 d2 d8 bc 78 98 d8 bd
       -0.03680401 -0.044188518 -0.026467718 -0.10575956
000120 fc 94 2d 3f 98 e8 81 bc 4a 3b 62 bd 16 5c 1d 3d
       0.6780546 -0.01585798 -0.055232324 0.038417898
000130 d3 b7 a2 3e e7 d6 0b bd a7 db 84 be 1f 51 18 3d
       0.31780872 -0.034140494 -0.2594883 0.037186738
000140 e4 5f 86 bc 3c 22 01 3f 99 63 cd 3e 4c 60 cb 3e
       -0.016403146 0.5044286 0.4011505 0.39721906
000150 8f 93 be 3d d2 d6 90 3e 89 07 0d 3f 2a b9 f0 be
       0.09305488 0.28288895 0.5508962 -0.4701627
000160 93 8a 0e be a5 ff a2 bc b2 cf 90 be 02 ae 4a be
       -0.1392005 -0.019897291 -0.2828346 -0.19792941
000170 fd 30 fe 3b 97 df ba bb cb e9 b2 be 1c 65 d2 3d
       0.0077573047 -0.0057029235 -0.34943995 0.10273191
000180 d1 4d 30 be cc a5 94 be d2 24 8b be 0e e3 43 be
       -0.17217185 -0.29032743 -0.2717653 -0.19129583
000190 d8 89 fc 3b 6e 93 40 be 8a f7 20 be af 24 ad 3d
       0.007706862 -0.1880624 -0.15719429 0.084542625
0001a0 84 f6 fe bd ab 43 bb 3e 57 2f f7 bd d7 91 04 bf
       -0.12449363 0.36575064 -0.12069576 -0.51785034
0001b0 54 38 a6 bc 0a cf 72 bc 4c 3b ec 3c 01 c7 50 be
       -0.020290531 -0.01481987 0.028836869 -0.20388414
0001c0 58 9f 1b bd 4c af a6 3e df 0e bc be a3 29 5e be
       -0.03799376 0.32555616 -0.36730096 -0.2169557
0001d0 6e 61 69 3c e7 22 98 3d 56 34 d2 be a0 31 77 bd
       0.01424442 0.07428532 -0.41055554 -0.06035006
0001e0 5c 93 07 3e 99 3f f2 bc e1 bd f5 3e 15 e3 37 be
       0.13239807 -0.029571341 0.4799643 -0.17957719
0001f0 8c 5f 9b bc ef 6b 17 3d 83 f8 52 be f2 83 20 3e
       -0.018966459 0.036968168 -0.20602612 0.15675333

base.actor.0.weight f4 [128, 30]
000000 78 4d 67 bd fd ec c5 bd ac 71 9e be b9 32 c0 bd
       -0.056470364 -0.096643426 -0.309461 -0.093846746
000010 0b d2 4d bd 9c 24 21 be c7 97 6a be 27 3f 11 3e
       -0.05024914 -0.15736622 -0.22909461 0.14184247
000020 3d 16 06 3b a5 ab 88 be 11 dd 9e bd df a5 89 bc
       0.0020460032 -0.26693454 -0.07757009 -0.016802726
000030 bf 2e 33 bd 39 e8 9e 3d bf 4f 4d be 6e a0 b2 bd
       -0.043745752 0.07759137 -0.20049952 -0.08722006
000040 79 a2 21 3e 03 6a 16 be fc f7 67 3d 61 8b 78 bd
       0.15784635 -0.14688878 0.05663298 -0.060679797
000050 3c 8b a9 3e 31 e4 58 be 5d 90 93 bd 0c cb 69 3d
       0.3311404 -0.21180798 -0.072052695 0.057078406
000060 3f 17 80 bc ac 1e 99 3d 7f 3a 6f 3e 52 1d 59 be
       -0.015636085 0.07476553 0.23362158 -0.21202591
000070 ce 7b dc 3a d9 39 b3 3c 94 52 13 3e ab f9 4f 3e
       0.0016821565 0.02187817 0.1438697 0.20310085
000080 0b 24 e4 3c 49 dd a9 3c 51 dd 10 3c 53 74 a9 bd
       0.027849218 0.0207354 0.008841828 -0.0827414
000090 cc bc 16 bd 47 5c ac 3d b2 71 68 3a 0d 16 b3 bd
       -0.036801144 0.08416038 0.00088670396 -0.0874444
0000a0 51 a3 23 be c3 87 83 3d 31 51 89 bb e2 e2 03 be
       -0.15980269 0.06422379 -0.004190587 -0.12879518
0000b0 47 42 a8 3e 26 d3 8a bd f0 62 63 3d 7f 70 b3 3e
       0.32863066 -0.067785546 0.055514276 0.35046765
0000c0 ba bd 25 be ae d8 81 be e3 5e a5 3e 73 d2 89 be
       -0.16185656 -0.25360626 0.32298955 -0.26918373
0000d0 fb b6 ec bd 34 eb 17 3f 78 67 52 be a1 6d 20 bd
       -0.11558338 0.59343266 -0.20547283 -0.03916705
0000e0 62 ef a2 3d 6d 99 a8 be c5 a3 e3 bc 0f 0a 83 3e
       0.07955815 -0.32929555 -0.027788052 0.25593612
0000f0 67 b9 6b 3a 8f 77 4d 3e 86 f5 d1 bc d2 e0 13 be
       0.00089921657 0.20065139 -0.02562977 -0.14441231
000100 d5 17 24 be 30 cf 9b 3c 11 24 a0 3d 96 b6 c7 bd
       -0.16024716 0.019019693 0.07819379 -0.097516224
000110 c8 e2 a8 3e 9d c4 a1 bd 1c 2b 6c be 50 2b 5d 3e
       0.3298552 -0.07898829 -0.2306332 0.21598554
000120 4a 64 2f 3e ae 69 4e bd 6e c4 3a 3d 6e 91 00 3d
       0.17128101 -0.050393753 0.045597486 0.031388693
000130 44 11 87 be 7a a5 c9 3e cf 92 1c be 2d 14 ea bd
       -0.2638036 0.3938406 -0.15290378 -0.114296295
000140 77 5c 32 be fa b4 fa bc ed a2 8c be dc 4a c5 3e
       -0.17418085 -0.030603874 -0.27468053 0.38533676
000150 37 ca 17 3e b5 e5 14 bf d7 94 73 3e 25 ad 8c be
       0.14823233 -0.58163005 0.23787247 -0.2747585
000160 2e 3e f5 be c3 d2 d0 3e 80 15 a6 bc f0 67 09 bb
       -0.47899002 0.40785798 -0.020273924 -0.0020966493
000170 ad 52 c2 bd 3d ce 6b be 56 b2 cb bd c7 f7 24 be
       -0.094884254 -0.23027892 -0.09946124 -0.16110145
000180 e4 b2 ee 3b b1 b7 9e 3d 44 ea 41 3d 65 a4 94 bd
       0.007284509 0.0774988 0.047342554 -0.07257918
000190 7f 5a 8e bd ba 78 45 bd f9 da 28 bd cd 3e 4d 3e
       -0.069508545 -0.048210837 -0.041224454 0.20043488
0001a0 81 9d 74 bd 25 ee 47 3e d0 0f cc bd f0 75 dd bc
       -0.05972052 0.19524439 -0.099639535 -0.027033776
0001b0 41 41 4d bd e0 f5 4d 3d 13 03 d1 3d b0 85 14 3d
       -0.05011106 0.050283313 0.102056645 0.036260307
0001c0 a3 06 39 be 1e 67 16 bd 2d b5 51 bd ec 07 3d 3e
       -0.18068938 -0.036719434 -0.051198173 0.18460053
0001d0 92 c4 51 be bb 1a 38 be 24 75 01 be d2 3c 82 3d
       -0.20485142 -0.17978947 -0.12642342 0.06359257
0001e0 53 2b 82 3b 83 55 b2 3e 27 11 aa be 7d 25 48 3e
       0.00397245 0.34830865 -0.3321621 0.1954555
0001f0 46 44 a6 bc b6 51 01 bf d5 73 8c bd d5 0b 97 3e
       -0.020296227 -0.50515306 -0.06858031 0.29501215
000200 8d 7c 1c bf c7 43 7b 3c 5c b5 8a 3d 95 4e 4a bf
       -0.6112755 0.015335984 0.06772873 -0.79026157
000210 48 40 19 3c bc 6a 71 bd 7e 5a eb be 9d cc 9e 3d
       0.009353705 -0.05893968 -0.45967478 0.07753871
000220 e6 e2 93 3d c0 c2 47 be a1 a9 16 be 47 80 1f be
       0.07221012 -0.19507885 -0.14713146 -0.15576278
000230 01 c6 90 bc 2d 1d 85 3d a0 eb 95 bc 6f fc 2b bf
       -0.01767254 0.064997055 -0.018300831 -0.6718206
000240 8f 38 b7 be 32 ee 20 3e 89 46 82 bd f5 86 23 bf
       -0.35785338 0.15715864 -0.0636111 -0.63877803
000250 73 58 72 3e 89 8a ea be 08 28 93 3d 87 dd 89 be
       0.23666553 -0.4580882 0.0718537 -0.26926824
000260 73 78 8a 3d 1d 18 30 bb 15 d0 61 be c3 fa 91 3c
       0.06761255 -0.0026869841 -0.22052033 0.017819768
000270 24 d8 40 3d 08 84 96 3b 87 c6 22 be 38 6c b9 3c
       0.047081128 0.004593376 -0.15896045 0.02263461
000280 7d cf 84 3d 29 d6 89 3e 8b 39 44 be ff 32 85 3e
       0.06484888 0.26921204 -0.19162576 0.2601547
000290 18 c0 a6 be 43 96 dc bd 1f 8d fb 3c 76 d4 26 be
       -0.3256843 -0.10770848 0.03070694 -0.16291985
0002a0 6c 04 58 be ce 03 c7 bd 24 0a ba be 83 36 c6 bd
       -0.21095437 -0.097175226 -0.36335862 -0.09678366
0002b0 78 3c b8 bd a2 62 c7 3d b2 de 8a be 25 c8 34 be
       -0.089959085 0.097356096 -0.27123028 -0.17654474
0002c0 85 8c 38 3e ff 53 af be b7 64 4d bd 21 65 c4 bd
       0.18022354 -0.3424377 -0.050144877 -0.09589601
0002d0 c2 76 6a be ea f6 36 be 57 1e 80 3d 10 eb ea 3c
       -0.22896865 -0.17867628 0.06255787 0.02867654
0002e0 f6 2f 04 bc b0 a4 d0 bd d4 3b 33 be d0 ab 90 39
       -0.008068075 -0.10187662 -0.17503291 0.0002759383
0002f0 49 52 51 be 18 9a b4 bd 55 f4 ad bb f5 1c 4b be
       -0.20441546 -0.088184536 -0.0053086677 -0.19835265
000300 6e 1e 3e bd ae 06 a3 3d 51 69 c4 bd 90 b3 e8 bd
       -0.04641574 0.079602584 -0.095904 -0.11362374
000310 65 84 35 3e 5d e2 9d 3d 01 c5 1d be 8a 47 4f bd
       0.17726286 0.07709191 -0.15407182 -0.050605334
000320 5f 76 0c bd 53 1d 28 bc 33 b6 53 3e 22 24 2d be
       -0.034292575 -0.010260898 0.20674972 -0.16908315
000330 e9 79 82 be e3 99 ab 3b ed e7 ed 3d 7b 9b 81 be
       -0.25483635 0.0052368506 0.11616502 -0.25313935
000340 04 3f 3a 3e bb db 49 bd a7 b7 83 3b b3 54 d5 3d
       0.18188101 -0.049281817 0.004019696 0.10416546
000350 f0 f6 57 3e 78 df 18 be b4 aa f8 bd 39 ed 3e be
       0.21090293 -0.14928997 -0.12141934 -0.18645181
000360 52 7b 1b be 85 d3 0f bd 38 83 b2 3c c8 ea 3a be
       -0.15183762 -0.03511383 0.021791086 -0.18253624
000370 e9 fa 38 3e 50 0a 16 be f1 68 0c be 49 d7 5a 3e
       0.18064465 -0.14652371 -0.13711907 0.21371187
000380 47 01 b9 be c0 73 fa bd fd 4f b6 3d 41 3a 8a bc
       -0.36133787 -0.12229109 0.08901975 -0.01687348
000390 5f 0a 95 3d 73 9b 37 3e 10 b1 7b bd d0 aa 09 bd
       0.07277369 0.17930393 -0.061448157 -0.033610165
0003a0 59 1a 19 3d 83 5a e3 3c fe 2a 9c 3c 02 4d 8c 3e
       0.037378643 0.02775312 0.019063469 0.27402502
0003b0 ab 62 84 3e 80 00 d7 be 27 1a 35 3e 89 4b 87 3f
       0.25856528 -0.4199257 0.17685758 1.0569927
0003c0 15 af a1 bd a7 c3 e8 bc 8e 4b bf 3d 70 c4 95 3c
       -0.07894722 -0.028413607 0.09340583 0.018282145
0003d0 71 2f 85 be 90 b9 2b be 54 c2 7f bd ec 77 c2 3d
       -0.26012757 -0.16770005 -0.062441185 0.094955295
0003e0 cf b2 83 be 4d 43 2a be 9e 17 6f 3e 51 33 db bc
       -0.25722358 -0.16627236 0.23348853 -0.026757868
0003f0 17 3f 75 be 81 e1 24 3e 6b 49 9e 3e b0 a3 51 3e
       -0.23949848 0.16101648 0.30915388 0.20472598

base.actor.2.bias f4 [128]
000000 b4 b9 c0 3c b4 81 45 be 53 81 85 be 40 ac 10 be
       0.02352605 -0.19287759 -0.2607523 -0.14128208
000010 8c 4e 02 3e d6 81 f7 3c 92 3d 5d bd 9b d7 4f 3d
       0.12725276 0.030213278 -0.054013796 0.050742727
000020 0b eb 23 be 85 69 70 bd 6b ba eb bd 60 a4 86 be
       -0.1600763 -0.05869438 -0.11510166 -0.26297283
000030 b0 02 00 3e 41 45 50 bd 2f d4 88 bc 51 f2 6e be
       0.12501025 -0.050847296 -0.01670274 -0.23334624
000040 03 c1 3b be a9 38 99 bd c7 84 93 be 7f 06 ab bd
       -0.18335347 -0.0748151 -0.2881224 -0.083508484
000050 e8 be 37 3e 28 5f 8e bb 7d 13 72 bd 58 38 8a be
       0.17943919 -0.0043448396 -0.059100617 -0.26996112
000060 da 24 a7 bd 3b b3 e9 3d 37 9c 52 be b4 63 a7 bc
       -0.08161326 0.114111386 -0.20567404 -0.020433284
000070 28 12 96 3e 2a 23 1f be 6a 0e 96 3d 49 1b 25 bd
       0.29310727 -0.15540758 0.07326968 -0.040309224
000080 66 89 da bd 18 40 60 3d 72 97 cf 3d cd ad fb 3d
       -0.10670738 0.054748625 0.10136308 0.12289009
000090 b4 ac 1e be 54 47 75 be 4e 99 4b bd 3c f5 38 3e
       -0.15495569 -0.23952991 -0.04970675 0.180623
0000a0 27 39 0d 3e 94 a6 2b bd 8a d3 4a 3e 45 1e c8 bc
       0.13791333 -0.04190691 0.19807258 -0.024428496
0000b0 d8 44 8d 3d 4a b0 58 3d b1 14 5b 3b 19 6b 9d bd
       0.068978965 0.052902497 0.003342908 -0.07686443
0000c0 ad 08 93 bd c7 0a 2a be 36 e6 d5 bd 9a 13 d1 3e
       -0.07179389 -0.16605674 -0.104443 0.40835267
0000d0 f8 2b 13 be c1 d8 ca bd d0 76 bc bd 16 c4 fd bc
       -0.14372241 -0.09904624 -0.09202349 -0.03097729
0000e0 d1 cc 06 bf 5f 9f b5 bd 23 23 ba bd 26 79 ea bd
       -0.52656275 -0.08868288 -0.09088733 -0.114488885
0000f0 77 15 16 bf 45 c4 d5 bd ae 87 08 bd 1e 33 79 3d
       -0.586265 -0.10437826 -0.03333252 0.060839765
000100 2d 24 c0 bd b6 aa d0 3d 25 d8 c7 be 62 b1 2d be
       -0.093819 0.101888105 -0.39032093 -0.16962197
000110 1d 2b 82 3d 0c 2a 9e 3b f7 0f 76 3d 95 f3 0d be
       0.063558795 0.0048267897 0.06007382 -0.1386245
000120 a6 1c 31 be a0 e3 70 bd d9 27 86 3d 25 2c 21 be
       -0.17296085 -0.05881083 0.06550569 -0.15739496
000130 33 de 96 bd 17 7d 18 3e eb 2f 55 3e 3b 75 93 3e
       -0.073666 0.14891468 0.2081906 0.28800377
000140 85 86 ef 3d 41 05 08 be 52 7b 9f bd 56 54 99 bd
       0.116955794 -0.13283254 -0.07787193 -0.07486789
000150 8e 51 cb 3d 77 ea 02 3e 92 2b 1c 3e 6e ca b1 bc
       0.09927665 0.12784754 0.15250996 -0.021702971
000160 37 31 17 be f2 94 a2 bc 32 58 00 be ab a6 ae bc
       -0.14764868 -0.019846413 -0.12533644 -0.021319708
000170 22 0f 8a be 45 6b 31 be 34 c4 65 bd cc 2c b4 bd
       -0.2696467 -0.17326076 -0.056095317 -0.08797607
000180 77 24 e0 3d 55 17 0a bf ed 2a 5a 3e db 6a 3d 3d
       0.10944455 -0.5394185 0.21305437 0.046244483
000190 a1 4b be bd 1f db 55 bd 2e cf 9d bd 4e fa 83 3d
       -0.09291769 -0.052210923 -0.07705532 0.06444226
0001a0 69 fc 9c bd b8 f4 fb 3b 19 ae 3e 3e d6 9c 1a be
       -0.07665331 0.007689085 0.186211 -0.1509889
0001b0 42 b9 96 bd cb 6b 07 bd c7 f6 e6 3b 02 8a 62 bd
       -0.07359554 -0.033061784 0.007048461 -0.055307396
0001c0 ee d4 e0 bd b6 79 0e be cb e5 7c bd ee e4 8b bc
       -0.10978113 -0.13913617 -0.061742585 -0.017076936
0001d0 77 cf e4 bd 73 42 4f be 73 f4 87 3d f2 69 f7 3c
       -0.11172383 -0.20240192 0.06638422 0.030201886
0001e0 d2 f5 08 3e df d4 8c bd e8 df 79 3e fd c2 b8 bc
       0.13375023 -0.068765394 0.2440182 -0.022553915
0001f0 49 9f 06 3d 02 50 68 bd 66 90 38 bd 96 be 97 3e
       0.03286675 -0.056716926 -0.045059584 0.29637593

base.actor.2.weight f4 [128, 128]
000000 c9 01 73 bd fb 62 52 bd f9 bf f1 bd 01 64 19 3e
       -0.059327874 -0.051363926 -0.11804194 0.14979555
000010 97 ab 24 3e 5b eb 19 bd f9 ba 62 bd b0 dd 3c 3e
       0.16081081 -0.037577968 -0.055354092 0.18443942
000020 4c 97 70 bd 16 2c e3 3c 4e d5 47 be ff 8a 27 be
       -0.058738038 0.027730983 -0.19514963 -0.16361617
000030 83 02 4a be 71 e3 45 be 84 bd 37 3e 3d 29 aa 3d
       -0.1972752 -0.19325043 0.17943388 0.08308647
000040 be 7d 8a bd 3b f1 d8 3d 95 48 75 be 0f 5d 06 be
       -0.06762265 0.10592886 -0.23953469 -0.13121437
000050 7b 5a 14 3e fb 68 ad bd fa 80 0a 3e 53 1c d4 bc
       0.1448764 -0.08467289 0.13525763 -0.025892412
000060 df 89 1b 3d 49 88 02 bf 4f 54 83 bd 4e c3 db be
       0.03797328 -0.50989205 -0.06412565 -0.42922443
000070 44 47 4f ba 15 b6 f4 3d 44 d1 6a 3d 6b bf c6 3d
       -0.0007907043 0.11948792 0.057328478 0.09704479
000080 3b 09 87 be da 87 a1 bb c1 2a 81 3d d3 bb cd bd
       -0.2637423 -0.004929525 0.06306983 -0.1004559
000090 d1 84 92 bb c8 d3 fe bd 00 de 47 3e 2b 37 65 be
       -0.0044713994 -0.12442738 0.1951828 -0.22384326
0000a0 34 ee e2 3e 18 fe 01 bf 7a a4 ef 3d 77 12 df 3d
       0.4432236 -0.5077834 0.11701293 0.10892194
0000b0 8d 52 e8 bd 96 cd 98 3e d4 08 1f bf 60 fc 94 3d
       -0.1134387 0.2984435 -0.62122846 0.07274699
0000c0 ee 3b 40 3c b1 60 32 bd b6 ce 8d be 8b 20 7e bd
       0.011733038 -0.043549243 -0.2769677 -0.062042754
0000d0 54 12 2e be 8d 06 ae 3d 33 6e 18 bd b2 9e 68 3e
       -0.16999179 0.08497343 -0.03721447 0.22716787
0000e0 7e 0a a8 bc 17 00 2a bf 16 56 dd bd d7 41 ea 3e
       -0.020512816 -0.6640639 -0.10807435 0.45753357
0000f0 47 e5 3c be 1d 0f 6f 3e 45 a1 1b 3e 91 93 9a be
       -0.18446837 0.23345609 0.15198238 -0.3019071
000100 63 8b 90 be ba 84 39 be e8 b3 a8 be 30 7d ab be
       -0.28231344 -0.18117037 -0.32949758 -0.33493948
000110 ec 8e 31 3e bc f9 9d bd 07 70 23 3d 57 8e e9 be
       0.17339677 -0.07713649 0.03990176 -0.4561641
000120 45 fb 8a bd 4d 45 28 3d 3b a5 95 bd ed cb b1 be
       -0.06786207 0.041081715 -0.07306906 -0.34725896
000130 db d1 26 3e f8 2a bc bd 27 ab 85 be d0 69 25 3b
       0.16290991 -0.09187883 -0.2610714 0.002524007
000140 df a9 db bc 07 8a 11 bf 03 e1 19 be 54 51 aa bd
       -0.0268144 -0.5685124 -0.15027241 -0.08316293
000150 50 95 32 be 26 23 ca bd cb d1 d6 be 74 d6 c2 bd
       -0.1743977 -0.09869985 -0.41956934 -0.0951356
000160 07 e9 51 3e 42 97 b4 3d 20 21 91 be 23 ef 2e bc
       0.20499049 0.08817913 -0.28345585 -0.010677132
000170 f3 f5 0d 3e 3d 83 6c 3c 8b bb 7b 3e 85 18 81 bd
       0.13863353 0.0144355865 0.2458326 -0.06303505
000180 b7 64 ac be 00 08 cb be df 0c 49 3e 17 d9 48 3e
       -0.3367059 -0.3965454 0.19633816 0.19614063
000190 78 aa d7 bd 60 73 a4 3d f1 66 74 3d d1 bf 27 3d
       -0.10530561 0.080298185 0.059668485 0.040954415
0001a0 0f 64 82 bd 17 16 2d bd 45 a3 0b bc 8f 2b 70 3c
       -0.06366741 -0.042257395 -0.008522813 0.014658823
0001b0 40 57 e2 3c a4 b1 98 be 82 ef c9 be e5 a6 58 3d
       0.027629495 -0.2982303 -0.39440542 0.052893538
0001c0 e4 2e 84 be bb 31 da 3d 4b 10 6c 3d bc 26 97 bd
       -0.25817025 0.106540166 0.057632726 -0.07380435
0001d0 39 c3 b2 3e 31 fc 23 be 3e 84 88 bd 61 b5 ce be
       0.34914568 -0.16014172 -0.06665848 -0.40372756
0001e0 49 e2 ba 3c 56 5a 83 bd 1d f9 51 3c db f5 5f 3d
       0.02281298 -0.064137146 0.012815741 0.054677825
0001f0 b4 9c 5f bd b0 04 a5 3e 19 46 09 bd 4e 06 ae 3d
       -0.054592803 0.3223014 -0.033514116 0.08497296
000200 12 33 28 3e 6e 06 6a 3d 53 a5 c2 be 27 49 09 bb
       0.16425732 0.057135038 -0.38016757 -0.0020948143
000210 ae d7 97 3d ea 7c f4 bd 4b ef b3 3d 7a 6e af 3e
       0.074141845 -0.11937888 0.08785876 0.34263974
000220 d3 18 6d 3d b3 64 07 be a5 4b cb 3d 68 c2 66 be
       0.057885002 -0.13222007 0.099265374 -0.22535098
000230 26 0d 95 3d 9d 61 0f be b7 07 b6 bd f8 8f 94 3e
       0.072778985 -0.1400208 -0.0888819 0.2901609
000240 de f7 8b be 13 98 a3 3d 7f bc 82 bd c5 57 d1 3d
       -0.27337545 0.0798799 -0.06383609 0.10221819
000250 69 8f e3 bd ee 7e 9b 3d 67 fd 66 bd 9e 53 3c be
       -0.11111338 0.07592569 -0.056394007 -0.18391272
000260 6e e4 0b be 2c ca 9c bc fb 73 dc bd 65 66 b1 3e
       -0.13661358 -0.019139372 -0.10764309 0.34648433
000270 b0 d9 c0 bc 60 66 b7 3b 2b 96 ac 3e 32 25 4b be
       -0.023541301 0.005596921 0.3370832 -0.19838408
000280 c4 34 ea be 46 7f 8f 3d d5 cb 2a 3d 86 1d f6 bd
       -0.45743382 0.07006697 0.041698296 -0.1201735
000290 16 af 94 3d 0b a5 66 bd 6b 04 9f bd 8e ac 18 3d
       0.072599575 -0.05630974 -0.077645145 0.037273936
0002a0 4a 0e e2 be b4 61 fe 3c 41 45 d2 3d 3b 01 c9 be
       -0.44151527 0.031052448 0.102671154 -0.3925875
0002b0 6a 57 45 3d f6 88 2d 3e 30 fa 3a be 42 f4 50 3d
       0.048179068 0.16946778 -0.18259501 0.051014192
0002c0 1b 4e 8f 3d 5e 05 7e 3d 73 7f 80 3d a5 21 8b 3d
       0.06997319 0.062016837 0.06274309 0.067935266
0002d0 d6 b4 99 be ed 24 0c bf c6 62 d8 3e c3 37 6e 3e
       -0.3002078 -0.54743844 0.42262858 0.23263459
0002e0 ec 9e 40 3d 8f 32 76 be a0 9f af bd b6 86 58 3e
       0.04702656 -0.24042724 -0.08575368 0.21145138
0002f0 da 28 66 3d 02 30 f3 be d4 7d d3 3d ed aa 97 be
       0.056191303 -0.47497565 0.10326734 -0.29622594
000300 4e 94 6e bd 24 d7 13 bc 94 fb 6b 3d 33 70 87 bd
       -0.058246903 -0.0090234615 0.05761297 -0.06613197
000310 c2 01 b7 bc 6f 34 35 3d 1b 60 db bc 3a bf 0a be
       -0.022339705 0.044239458 -0.026779225 -0.1354951
000320 e3 f7 e3 be ce 7d 01 3e f7 7c 8a bd 4d 0c a5 be
       -0.4452506 0.12645647 -0.067621164 -0.32235947
000330 99 77 4f be bf 4e fd 3d 0d 58 28 be 47 53 79 be
       -0.20260467 0.12368535 -0.16439839 -0.24348174
000340 8a 5c d3 bd 69 b7 1e 3e e1 e1 11 be d7 62 59 be
       -0.10320385 0.15499653 -0.14246322 -0.2122911
000350 82 30 7a bd db 31 d3 bc 57 53 cb be 38 da c3 3d
       -0.061081417 -0.025780609 -0.3971202 0.09563106
000360 85 ef 17 3e ff 09 33 3e b3 00 8b be 1f 80 58 bd
       0.14837463 0.17484282 -0.2714897 -0.05285656
000370 30 e0 a1 3d 1e a5 92 3c d7 9e ce bd 86 34 38 be
       0.079040885 0.017901 -0.1008889 -0.17988786
000380 21 8e 1d be 53 ff 11 3e 2f 37 bf bc dc c8 9a 3c
       -0.15386249 0.14257555 -0.023341743 0.018894605
000390 6d 96 98 bd 31 89 7e 3e 9f 72 d2 bd 32 c0 ff 3d
       -0.074505664 0.24857022 -0.102757685 0.1248783
0003a0 57 c6 35 bf 80 27 eb bd 54 7c 94 bc dc a8 c5 bd
       -0.7100577 -0.114821434 -0.01812569 -0.09651348
0003b0 45 27 2e be 53 fd 2e be c4 f4 b0 be ab 8d e7 bd
       -0.17007168 -0.17088823 -0.3456174 -0.11306318
0003c0 78 70 04 3d 31 d1 b8 be 4f af 6e be dd 9d 23 3d
       0.03233382 -0.360971 -0.23309062 0.039945472
0003d0 5a 7c aa 3e bb 20 5e be 36 77 2e be c6 29 9e 3c
       0.33297998 -0.21692173 -0.17037663 0.019307029
0003e0 ff a5 f0 be ab ab 06 be e1 ec da be ad 55 79 bd
       -0.47001645 -0.13151424 -0.4275885 -0.060872722
0003f0 8a 23 ce bc db d8 b6 bc 20 21 b7 bd 33 9b c1 3e
       -0.02516343 -0.022320202 -0.08941865 0.3781372

base.critic.0.bias f4 [128]
000000 c1 e3 42 bd 95 a7 1d 3e 69 53 99 bd 17 f8 75 bf
       -0.047580484 0.15395959 -0.07486612 -0.9608168
000010 ff e9 c7 bd 01 72 ea 3f 2a 37 29 be be 3c 18 bd
       -0.09761428 1.8316041 -0.1652495 -0.037167303
000020 ac 04 71 bc 40 e5 91 3c 04 6b 78 bd de 5e 2b 3f
       -0.0147105865 0.01780951 -0.060648933 0.6694163
000030 0f 9d 13 be 61 e3 ba 3f c3 5a d3 bd a2 a1 aa 3f
       -0.14415382 1.460064 -0.10320046 1.3330576
000040 96 5f a8 3f e1 9a b2 3f 29 d1 1a 3d 3a fd 4a bf
       1.315417 1.3953515 0.037797127 -0.79292643
000050 d2 69 69 3f f3 1c ed bd cd ad 11 bc e9 f0 82 bc
       0.91177094 -0.11577787 -0.008891535 -0.015984016
000060 1a 0a 19 bd 5c 2b 1f 3c 24 fa 85 be 22 70 12 bc
       -0.03736315 0.0097149275 -0.26167405 -0.008937867
000070 b6 f1 80 3f 59 fc 2b bc bf 54 37 bd 9b 92 65 3f
       1.0073764 -0.010497176 -0.044758555 0.8967683
000080 a5 99 78 3f e0 3c a2 3f 6b b4 bd bf 00 00 00 00
       0.9710944 1.2674828 -1.4820684 0.0
000090 6e dd 4e 3f 92 a8 99 3d 6c e1 b6 3f 6a 6e b6 bd
       0.80806625 0.07502855 1.4287543 -0.089077786
0000a0 a9 a0 9e 3f ee 0f 19 bf 58 26 ff bc 00 00 00 00
       1.239278 -0.5978993 -0.031146213 0.0
0000b0 07 62 7e 3f 65 a8 10 3f bf 49 a9 bd 72 95 41 bf
       0.9936833 0.5650695 -0.08266019 -0.7561866
0000c0 4f cb 94 3f b3 27 c9 bc 75 0e 86 bc 54 02 7b 3f
       1.1624545 -0.024555063 -0.016364316 0.9805043
0000d0 df b3 b6 bd cd cb 1b bd 77 38 ac bd 8c 49 b8 3f
       -0.089210264 -0.038036156 -0.08409207 1.4397445
0000e0 76 e1 2e bf c4 9a 99 3f c5 d2 de 3d ae ed 29 3f
       -0.68312776 1.2000356 0.10880045 0.66378295
0000f0 24 c1 8d bd 4c 36 a8 3f 43 5a 82 3f db 18 dd bc
       -0.06921604 1.314157 1.0183796 -0.026989391
000100 74 22 4e bf 1c 97 7d 3f e6 8b 66 bd 49 91 19 bd
       -0.8052132 0.990587 -0.05628576 -0.03749207
000110 7e 1d c3 bd 9c 53 80 bd 4d 31 54 3f 62 8e 50 3f
       -0.095271096 -0.06265947 0.8288773 0.8146726
000120 c0 05 f3 3e 4a 10 6e bf 50 ba 2e 3f 89 75 9e 3f
       0.47465324 -0.92993605 0.6825304 1.2379619
000130 56 b5 5d bd 56 7e b0 bd ba e9 33 bf 25 43 ab 3f
       -0.054128014 -0.08617847 -0.70278513 1.3379866
000140 47 5a 10 3f c9 a0 2f 3d 5f fc 1f 3f 41 bb 3b 3f
       0.5638775 0.042877946 0.6249446 0.733326
000150 20 b1 a9 bd c0 b6 6f 3f ce 56 db be d0 ba e6 ba
       -0.08285737 0.9363823 -0.42839664 -0.0017603282
000160 6e f2 95 3f 08 b9 b8 3f 9a b7 b6 3f 0a b0 ae 3f
       1.1714609 1.4431467 1.4274781 1.3647473
000170 68 ea 49 3f b3 43 99 3f 9e a8 c8 be 87 a8 8b 3f
       0.788733 1.1973785 -0.39191145 1.0910805
000180 47 a7 83 bd b5 e3 8a 3f c2 a5 9f 3f ae c5 9f 3f
       -0.0642839 1.0850741 1.247246 1.2482202
000190 0a 27 3a bf 4c 6f a9 bd 2b 83 bb 3f 83 79 22 3f
       -0.7271582 -0.08273181 1.4649404 0.6346666
0001a0 66 93 22 be 30 bb 92 bc 2b c5 20 bd 40 17 3a 3f
       -0.1587654 -0.017911524 -0.039250534 0.72691727
0001b0 f9 76 10 3e a5 2d d0 3d d3 6a 82 3f 9e e9 e9 3e
       0.14107884 0.10164956 1.018885 0.45686048
0001c0 5a bc 9f bd 33 3e 39 bd 03 e4 da 3e b4 83 0d bd
       -0.07799597 -0.045225333 0.42752084 -0.03454943
0001d0 27 0c b5 bd 7b e8 fe 3e 44 67 56 bd ff 24 d8 be
       -0.088402085 0.49786744 -0.052344576 -0.42215726
0001e0 7b 7b b4 be 00 00 00 00 48 73 24 bd 21 9a 8d bd
       -0.35250458 0.0 -0.040149003 -0.069141634
0001f0 38 54 24 bc 6e da 08 3f 89 c7 aa 3e f5 2c 7d 3f
       -0.010029845 0.534583 0.33355358 0.98896724

base.critic.0.weight f4 [128, 30]
000000 56 29 1a 3e 40 dd d1 3d 35 13 cb bd 90 a0 0f be
       0.15054831 0.10247278 -0.09915773 -0.14026093
000010 95 fa fa 3c 49 d8 5c be 69 e5 0a be 04 77 d1 3d
       0.030637065 -0.21566881 -0.13564076 0.102277786
000020 ce 78 92 bd e9 ba 8f bd 38 fb 9c bd c0 26 91 bc
       -0.07151948 -0.07018072 -0.07665104 -0.017718673
000030 32 b5 75 be b0 04 d1 bc 7e 10 bf bd 83 1b c2 3d
       -0.23994902 -0.02551493 -0.093293175 0.09477904
000040 3c 88 b2 bd 83 9d a4 3d eb b6 dc 3d ef 46 78 be
       -0.08717391 0.080378555 0.10777076 -0.24245809
000050 b3 f1 5d bd 92 03 0e 3c 4f 68 47 be 7b 5a 52 be
       -0.05418558 0.008667843 -0.19473384 -0.20542328
000060 66 20 98 bc 12 6e 3a 3e 44 bd ba be 97 48 05 3e
       -0.018570136 0.18206051 -0.36472523 0.13015972
000070 c7 8b 15 bc d7 93 a2 3d b7 35 81 3e 1c 56 60 3f
       -0.009127564 0.079383545 0.25236294 0.8763139
000080 25 28 18 3e a4 69 07 3e d3 ae 09 3f 0d 20 ac 3e
       0.14859064 0.13223892 0.53782386 0.33618203
000090 da 5a 4b 3e 5f 3d 0d 3f 3c b0 c2 3d a0 e5 b2 3c
       0.19858876 0.5517177 0.0950627 0.02183801
0000a0 f7 7e 6c 3e d5 d1 63 3e 9d 27 2e 3e ec a6 59 3e
       0.23095308 0.22248013 0.17007299 0.21255082
0000b0 bb 77 21 bd 1d c4 15 3e 79 e7 9b 3c bd d8 b0 3d
       -0.039420824 0.14625593 0.019031273 0.086350895
0000c0 32 7f 7c 3e 54 f8 e2 be 73 a7 cf 3d 50 d1 30 3e
       0.24657896 -0.44330084 0.1013936 0.17267346
0000d0 ce 86 2e bf 6d 71 51 3c 6b 13 87 3e 97 dd cb bf
       -0.68174446 0.0127833905 0.26382002 -1.5926999
0000e0 63 bf a2 be a0 9f 25 3e 77 3c 3a c0 46 dd 25 3e
       -0.3178664 0.16174173 -2.9099405 0.1619769
0000f0 55 05 2f be ec 34 52 bd 9d 6d 97 bd 88 ea a5 bd
       -0.17091878 -0.05132 -0.07393954 -0.08101374
000100 38 00 8e bc 29 25 00 be 29 55 ba 3d 0e 8a 84 be
       -0.017334089 -0.12514175 0.09098274 -0.25886577
000110 57 c8 5a be 68 3f ee bd b9 15 cf 3d f4 6c 96 be
       -0.21365486 -0.116331875 0.10111565 -0.2938
000120 77 97 5c 3d 49 d1 da bc 78 9e 88 be a1 b3 fe bd
       0.053855386 -0.026711123 -0.26683402 -0.12436605
000130 4d e4 7b bd 04 81 5a be 37 a6 a3 3c 82 a1 d5 be
       -0.06149702 -0.21338278 0.019976718 -0.41724783
000140 05 94 77 3c f2 1c 96 be 18 fd 90 3d bd 9c 89 bd
       0.015110974 -0.2931896 0.07079524 -0.067193486
000150 2a 28 e8 be 62 e6 3d be df ac 84 be 19 14 de be
       -0.45343143 -0.18544915 -0.2591314 -0.43374708
000160 ea 7c 25 be 04 44 84 3e 04 66 97 be b0 8f 8e 3d
       -0.16160932 0.25833142 -0.2957002 0.06961
000170 19 37 86 bd 13 00 e2 bd 7b f0 94 3c 1d bd a0 3d
       -0.06553478 -0.110351704 0.018181076 0.078485705
000180 2f 55 df bd 84 13 c3 3c 47 1e 45 3e a3 4b 4e 3d
       -0.10904919 0.023813017 0.19249831 0.0503651
000190 cb 52 92 bd fd 55 2f 3d 41 72 46 be 31 4a f8 3d
       -0.07144698 0.042806614 -0.19379522 0.12123526
0001a0 58 ea bb be e9 58 52 3e 5e c9 81 bd 52 b4 e1 3d
       -0.36702228 0.20541729 -0.06337236 0.110207215
0001b0 5e 02 a2 3e 1a d6 47 3e 18 b3 8f 3d 7d fd ae 3e
       0.3164243 0.19515267 0.07016581 0.3417777
0001c0 38 1a 82 3e 45 e8 82 bc 4c d0 c9 3e 81 68 c2 3e
       0.25410628 -0.015979895 0.3941673 0.37970355
0001d0 e4 ec 18 bb 30 36 be 3d e8 3e a3 3c d4 9c 44 c0
       -0.0023334557 0.09287679 0.019927457 -3.072072
0001e0 83 ca 7b be d7 42 16 be eb 38 13 be 4e 88 d9 3d
       -0.24588971 -0.14673935 -0.14377181 0.10621701
0001f0 21 e3 23 bd 97 ce bd 3d 7a 6d fe bd 69 e6 3d be
       -0.04001153 0.092679195 -0.12423225 -0.18544926
000200 91 a5 bd 3c 27 ff aa be 4c d8 a1 bd d9 a3 b6 3d
       0.023150237 -0.3339779 -0.079025835 0.0891797
000210 37 7c 3d bd 99 85 fd 3b da ed 68 3e e2 1d a7 3d
       -0.04626104 0.0077368733 0.22746983 0.081599966
000220 02 20 75 be b1 d6 3e be 78 35 29 be ad de 19 be
       -0.23937991 -0.18636586 -0.16524303 -0.1502635
000230 1e 50 76 bd 41 4c dc bd cd 54 d7 bd e2 b8 8f be
       -0.060135 -0.10756732 -0.10514221 -0.28070742
000240 09 b9 7a bd c0 7c 27 be 8d a0 af bc 4e 1d b0 3d
       -0.06121162 -0.16356182 -0.021438861 0.085993394
000250 9c bd 09 be bf b4 7a be d9 d3 99 3b b8 e5 e5 3c
       -0.13451236 -0.24483012 0.0046944437 0.02806364
000260 7e f6 39 bd ab 78 c4 bd 1e 2c 7a 3d 3d 2e 4a bd
       -0.04540109 -0.09593328 0.06107723 -0.049360503
000270 ca 52 f7 bd bc d4 b5 3d 07 ec 4d 3c a5 51 58 be
       -0.12076338 0.088784665 0.01256848 -0.21124895
000280 91 16 92 3d c2 1c 6b 3c 0f bf 18 3d b2 7b 33 be
       0.071332105 0.014350118 0.037291583 -0.17527655
000290 60 b0 6c bc ba 37 09 be bf fb 78 bd 42 45 dd 3c
       -0.014446348 -0.13400164 -0.06078696 0.027010564
0002a0 1b 81 7f bd fe f6 0d 3d 77 28 d2 3d 39 25 47 3e
       -0.062378984 0.03465938 0.10261624 0.19447793
0002b0 be 1f 28 be 62 40 0d bd ff e5 2c 3e 28 8b d2 be
       -0.16418359 -0.03448523 0.16884612 -0.41121793
0002c0 a7 36 88 bc cb 81 03 3e ec 3b 5e bf c0 70 89 bf
       -0.016627623 0.12842481 -0.86810184 -1.0737534
0002d0 4f f6 53 be 76 28 ab bd 25 d9 64 bd 00 f1 0f 3e
       -0.20699428 -0.08357327 -0.055871148 0.14056778
0002e0 fd 4e 11 3b 46 57 72 3d 31 51 0c bc f3 04 fe bd
       0.0022172325 0.05916526 -0.008564279 -0.12403288
0002f0 a0 3c 05 3d 21 08 5f bd 73 1b 14 be 59 7a 22 bd
       0.03252852 -0.05445111 -0.14463596 -0.03966746
000300 bc e0 e4 3c 1d 4b 23 3e e4 8d 08 be 77 9b b5 be
       0.027939193 0.15946622 -0.13335377 -0.35470173
000310 94 e4 d0 bd 2f ea 5f 3d 5b 94 d9 bb 94 58 8f bd
       -0.10199848 0.054666694 -0.00664 -0.06999317
000320 2c e3 f1 bd 3d 67 05 3e 39 b4 c8 bc 35 3d b9 3d
       -0.11810908 0.13027664 -0.0245 0.090448774
000330 37 aa fa bb f1 45 74 3d 1c bb d6 bd ba f7 ff 3d
       -0.0076496857 0.059637014 -0.10484907 0.12498422
000340 2d d8 13 3e 65 d7 95 3d 69 d0 4b bd 5e e5 25 be
       0.14437933 0.07316474 -0.049759302 -0.16200778
000350 13 ce 85 bc 12 a2 a1 3d e5 e0 8a bd b5 ba 96 3d
       -0.016333615 0.078922406 -0.067811765 0.0735983
000360 82 58 dd bd 8f eb 1a be 6e dd e4 3c 12 56 42 be
       -0.10807897 -0.15128921 0.027937617 -0.18978146
000370 29 17 40 3c 51 92 2f bd da 72 e9 bd 75 8a 90 3d
       0.011724272 -0.042864148 -0.11398859 0.070576586
000380 b9 57 1c be 69 1e 46 3d df a9 32 bd 15 ad 4f be
       -0.15267839 0.048368845 -0.043619033 -0.2028087
000390 d6 1d a7 be b7 bf 69 bd db 0e 53 bd 36 eb 9f be
       -0.3263995 -0.0570676 -0.05152784 -0.3123414
0003a0 36 a9 e0 bd 29 10 83 3d df 2b cf bc 89 82 54 3c
       -0.109697744 0.06399567 -0.025289474 0.012970575
0003b0 ba 70 ef 3b aa 2a cd 3c 6a 4d f5 bc 8b cd 2b be
       0.007307139 0.025044758 -0.02994414 -0.16777627
0003c0 c6 ef fe 3d 4c 1f 0e 3b 6b 19 3d bd df 84 c1 3d
       0.12448077 0.0021686135 -0.04616682 0.09449171
0003d0 57 ee 04 bd 87 e1 e4 3d fb f0 4f b9 7a c8 2c be
       -0.03245386 0.111758284 -0.0001983083 -0.1687335
0003e0 a6 59 ca 3d e8 c4 d2 3e cb 7e b3 3d 0e e0 3c 3c
       0.0988038 0.41165853 0.08764418 0.011528028
0003f0 d7 20 b1 bb 9e 78 da bc 4f 67 ce bd a8 b4 7a 3e
       -0.005405526 -0.026668843 -0.10078298 0.24482977

base.critic.2.bias f4 [128]
000000 22 ff e6 3d f3 69 62 bf 8b 6a e6 bc 36 03 5c bd
       0.112791315 -0.88442916 -0.028126976 -0.053714
000010 a1 ab 6a bf d2 81 c3 3f 59 93 52 3f 48 f8 ce bd
       -0.91668135 1.5273993 0.82256085 -0.1010595
000020 b4 3e 9a bd d6 49 c0 3f 2f 34 c3 3f 9b 79 3b bd
       -0.07531491 1.5022533 1.52503 -0.04577027
000030 c4 dc 48 bd 9d 4f ba 3f bc dd bc 3f 27 12 2b bd
       -0.049038664 1.4555546 1.4755168 -0.04176536
000040 1b c0 55 bd 6b 58 09 be 83 3a 54 bf 73 f5 15 3f
       -0.05218516 -0.13412635 -0.8290178 0.5857765
000050 4c 44 bb 3f 42 94 c3 3f 44 a3 ba 3f ff 64 99 3f
       1.4630218 1.527962 1.4581075 1.1983947
000060 4a ab c4 3f e0 79 8c 3f f5 11 c3 3f 73 81 ef 3e
       1.5364773 1.0974693 1.5239855 0.4677845
000070 31 51 b7 3f a0 3c 77 be c7 23 c3 3f 8c 14 3f bd
       1.4321653 -0.2414422 1.5245293 -0.046650454
000080 ad 62 c3 3f 5c b3 e8 bb 8d 75 8b bd 3a 84 8b bf
       1.5264488 -0.0071014594 -0.068095304 -1.0899727
000090 07 50 63 bd a6 06 68 bf 34 1d c5 3f 6f e2 d9 3d
       -0.055496242 -0.90635145 1.5399537 0.10638892
0000a0 44 57 6c bf 87 bf 17 bb 1f 97 fd bc a0 90 ae 3d
       -0.92320657 -0.002315493 -0.03095585 0.08523679
0000b0 8f b1 c2 3f 3e 46 bc 3e 69 8b 80 bf 8b ab c5 3e
       1.5210437 0.3677234 -1.0042545 0.3860744
0000c0 81 83 b9 3f aa 0a c4 3f 19 87 27 bd 54 08 e9 be
       1.4493257 1.5315754 -0.040900324 -0.45514166
0000d0 35 21 2e bf 14 13 9c bd da 09 a8 3f 2f c4 c2 3f
       -0.6801942 -0.07620826 1.3128006 1.521612
0000e0 fb 10 9e 3f d3 3e a9 bd 7c d9 77 bd f8 2e 7a be
       1.2348932 -0.08263936 -0.060510144 -0.2443198
0000f0 04 08 82 bc 92 ed ae 3f 4d 9a 3b bd 6d b4 c3 3f
       -0.015872963 1.3666251 -0.04580145 1.5289437
000100 e8 57 c3 3f 3c ad c3 3f 01 f8 a5 bd 8b 33 b3 3f
       1.5261202 1.5287242 -0.081039436 1.4000105
000110 1c 68 b6 3f a3 24 24 bf 88 8b 95 3d f3 ff a0 be
       1.4250522 -0.64118403 0.07302004 -0.31445274
000120 0a 84 bf 3f 83 6c 05 be 7b 1f 25 3f ad a1 0b 3f
       1.496217 -0.13029675 0.6450116 0.5454357
000130 1c 68 c4 3f f6 65 c4 3f 93 88 4d bf 3c ca 00 bd
       1.5344272 1.5343616 -0.8028652 -0.031442866
000140 6f 5a f2 bc 35 7d 56 bd c0 4c 03 bf 06 25 3e bd
       -0.029584138 -0.0523655 -0.51288986 -0.046422027
000150 af a5 4b bd 7a 0e c1 bc 75 52 db bc e0 1c 9e bd
       -0.049718555 -0.023566473 -0.026772717 -0.07720351
000160 ea 9b a8 3b 9a 28 37 be 3a e3 7d 3f 91 b8 45 bd
       0.0051455395 -0.17886582 0.99174845 -0.04827172
000170 46 ef 8e bd e8 37 c4 3f dd 55 c3 3f 96 66 cd 3d
       -0.069792315 1.5329561 1.5260578 0.10029332
000180 24 3c 6a 3b c6 44 00 be 6e db 22 bd 2d f5 bf 3f
       0.0035741413 -0.12526235 -0.039760046 1.4996697
000190 60 28 0e be 47 54 c3 3f 3c 10 b3 3c 3b 54 98 bd
       -0.1388259 1.5260094 0.021858327 -0.07437941
0001a0 06 6c c0 3f 57 1d cf bb ac 3b 80 3f 0f 49 8a 3f
       1.5032966 -0.0063206363 1.001821 1.0803546
0001b0 1b 50 2a 3f b3 9f b2 3f af 43 be 3e f5 b5 fb bc
       0.6652848 1.3954986 0.37161013 -0.030726412
0001c0 5d 39 3c 3f 96 d1 db 3a 50 82 8e bd d4 8e bf 3f
       0.7352503 0.0016770836 -0.06958449 1.4965463
0001d0 df 0b c3 3f 9f 99 b8 3f c3 20 b3 bd 0c 88 76 3f
       1.5237998 1.4421881 -0.08746483 0.9630134
0001e0 fe 69 22 3c d0 b4 2b be da 1d 45 bd ab 87 61 bc
       0.009912966 -0.16768193 -0.04812417 -0.013765256
0001f0 fe cb c5 3f c0 8f c4 3f 2f 36 21 bd 0c a8 77 bd
       1.5452878 1.5356369 -0.039358314 -0.060462996

base.critic.2.weight f4 [128, 128]
000000 25 52 51 3d c9 12 9c bf a1 d6 e1 be 27 06 88 bf
       0.05110373 -1.2193233 -0.4410906 -1.0626878
000010 5e b9 f4 bd 22 3b 6b 3f cb de ad 3b 7d 70 db 3d
       -0.119494185 0.91887105 0.0053061 0.10714815
000020 45 b7 e2 be 69 91 16 3e 11 d6 4d be 2a 4f 16 3f
       -0.4428045 0.14703907 -0.20101191 0.58714545
000030 58 ad d6 ba 22 ea 89 3f ac 24 74 3e ce 55 47 be
       -0.0016378565 1.0774577 0.23842114 -0.19466326
000040 6a d5 35 be 2b d2 35 3e d5 69 f1 bd 59 e2 29 c0
       -0.17757192 0.17755954 -0.11787764 -2.6544402
000050 b1 ae 29 bf 3e 2e 0d be d1 72 7d bc ea 21 94 3e
       -0.6628218 -0.13787171 -0.015469269 0.28932124
000060 08 b0 5c 3d 9a bd 8d be 1b f7 85 3e 9f 30 25 be
       0.053878814 -0.27683717 0.2616509 -0.16131829
000070 01 a2 95 be 08 72 11 3e 0a 66 6d bd 53 75 35 3f
       -0.29225162 0.14203656 -0.05795864 0.7088215
000080 e5 78 71 3f 25 ff 43 3e e4 94 25 c0 02 87 5c 3d
       0.94325095 0.19140299 -2.5872126 0.05383969
000090 de aa 65 3f 53 3f 6a 3f ce c9 87 3f 53 a9 0d bd
       0.8971385 0.91502875 1.0608461 -0.03458531
0000a0 91 5d fd 3e b9 49 d0 bf 85 9e d5 3d 1b b9 86 bd
       0.49485448 -1.6272498 0.10430626 -0.06578275
0000b0 84 2a 06 3f 99 1e 7a be 82 b5 cd bc 00 a3 eb be
       0.52408624 -0.24425735 -0.025110964 -0.46022797
0000c0 f4 a1 15 bf dc 80 3e be c1 10 5c 3c 53 56 93 3e
       -0.58450246 -0.18603843 0.013431729 0.28776798
0000d0 19 7e 67 3e bd fd b5 3d be 73 c1 3d 46 e5 d0 3e
       0.22606696 0.08886287 0.09445904 0.40799922
0000e0 e2 57 33 be 1b fa 23 3f ed 7f 69 3e 42 9d f9 bd
       -0.17513993 0.64053506 0.22802706 -0.12188198
0000f0 f0 49 a4 bd 44 c8 40 3f 2d 5d b8 bf b0 1e 79 3d
       -0.08021915 0.7530558 -1.4403435 0.06082028
000100 c3 d2 37 be 1e 0e a7 be 45 41 a1 bd 03 4c 97 3d
       -0.17951493 -0.32627958 -0.07873777 0.07387545
000110 5e 07 0d 3e d4 3b 04 3d cc 4e 3d bf 21 fb 94 3e
       0.13772342 0.03228362 -0.7394836 0.29097846
000120 93 f2 51 be f5 d4 9c 3e 42 ce 26 3f 07 57 23 be
       -0.20502691 0.30631223 0.65158474 -0.15951167
000130 79 61 41 bc 2e 5e 37 be 08 0e 6c bf b3 d2 99 bc
       -0.011803024 -0.1790702 -0.9220891 -0.018777227
000140 90 33 4d bf aa 50 d1 be b5 b3 b7 3e 1b 98 8c 3f
       -0.80156803 -0.40881854 0.35879293 1.0983919
000150 26 ae 8a 3d 9c 44 b0 be 62 0c 16 bf b6 7b ac bd
       0.067714974 -0.34427345 -0.58612645 -0.084220335
000160 19 8f 6f 3f 06 9a 41 3f 8b c5 94 be 9b c2 df 3e
       0.93577725 0.75625646 -0.29056963 0.4370316
000170 5e c4 33 be bc ef 8d bd 25 5c fe bf b1 63 70 be
       -0.17555377 -0.06930491 -1.987187 -0.23475529
000180 1b c3 53 bd 23 1d eb 3e 45 bd 2c be cb 5d 9c be
       -0.05169974 0.45920667 -0.16869076 -0.30540308
000190 be 8c cb be 5a 03 b5 3c c1 37 42 3f 61 10 8a bf
       -0.39755815 0.022096325 0.75866324 -1.0786248
0001a0 97 8a 69 be da 3b b9 bd ca fd 5f 3b 5f 95 05 3f
       -0.22806774 -0.09044619 0.003417837 0.5218105
0001b0 4d bc d1 bd 1f 1b 07 3f 10 ae f1 3e bc 89 4e 3f
       -0.10240994 0.5277576 0.47203112 0.80678916
0001c0 00 b4 99 be 70 88 d3 3d e4 08 b0 be ab fa b6 bb
       -0.30020142 0.10328758 -0.34381783 -0.005584081
0001d0 bf 83 67 3e ed 63 14 bf f2 07 73 bd 3e 24 71 bf
       0.22608851 -0.57964975 -0.05933375 -0.94195926
0001e0 06 f3 7e be ec 8f ac 3d 95 71 1b 3e 4d 8a 0b 3c
       -0.24897394 0.084258884 0.15180047 0.00851686
0001f0 6e e9 15 3d 76 3b 1a be 01 3f 14 3e c1 8d d4 3e
       0.03659957 -0.15061745 0.14477159 0.415144
000200 d7 1d e6 3c c3 07 f3 bf fd cd 90 3e 10 a7 a0 3e
       0.0280904 -1.8986744 0.28282157 0.3137746
000210 6a a7 b4 bc db e0 1b c0 11 aa 9c 3d fd 2e 0d 3e
       -0.022052485 -2.435599 0.07649625 0.13787456
000220 6f a2 05 c0 36 04 a1 bc 87 a5 ef 3d 23 f9 54 bd
       -2.0880392 -0.019655328 0.11701494 -0.051995408
000230 d9 03 30 bd 02 ac 56 bf b2 0a 6a bb ba 24 fe 3e
       -0.04297242 -0.83856213 -0.0035711941 0.49637395
000240 cd bd 9d 3e 63 9f 8d 3d 0d be 02 bb b3 57 7a bf
       0.3080887 0.06915166 -0.0019949705 -0.9779007
000250 cc 62 91 bf b6 c5 97 bc 82 b3 3b 3d 5f 34 0d be
       -1.1358275 -0.018526893 0.04582549 -0.13789509
000260 89 06 1e 3c 7f 58 f1 bd 8d 50 85 3f ff 42 25 bc
       0.009645113 -0.117844574 1.0415207 -0.010086774
000270 14 89 0d bf 60 d6 23 3e 59 2c 3b be 30 4f d7 bf
       -0.5528729 0.15999746 -0.18278636 -1.6821041
000280 16 e4 64 be 78 a2 86 3e c3 5a f9 3e 5a a1 06 bd
       -0.22352633 0.2629583 0.48702058 -0.03286872
000290 1f b2 53 c0 4a 12 d4 3d d6 46 13 bf f1 b1 8a 3c
       -3.3077466 0.10355051 -0.5752996 0.016930552
0002a0 8e 62 15 3f 9b 1e a0 be a1 c5 cf bd 81 34 2d 3d
       0.5835351 -0.3127335 -0.101451166 0.0422864
0002b0 81 1c 13 bf e5 37 a4 3f 93 05 55 bb 10 b3 67 bf
       -0.5746537 1.2829558 -0.0032504543 -0.905076
0002c0 f6 b6 37 bd 4e f6 17 3e 32 2a 85 3d 71 4f 3c 3f
       -0.04485222 0.14840052 0.06502189 0.7355872
0002d0 72 2b 54 3e ee 09 a8 3d 74 78 a8 3f a5 78 1a bf
       0.20719698 0.08205019 1.3161759 -0.6034034
0002e0 6a 9c 46 be 6c 5a fa bf 84 18 bc bf 3f 11 b2 bb
       -0.19395605 -1.9558845 -1.4694982 -0.005434185
0002f0 c6 b3 9f 3d 23 7e 04 bf 76 ee 3a 3d e4 6b b8 be
       0.07797961 -0.5175497 0.04563757 -0.36019814
000300 75 20 57 3f b3 42 95 3f 57 e3 90 3e 20 03 0a be
       0.840339 1.166098 0.28298447 -0.13477755
000310 80 14 86 3d 95 ec df 3d c8 ad b2 3c 0a 45 8a 3f
       0.06546879 0.10933796 0.021811381 1.0802319
000320 b9 0b 14 be 22 5b ee 3e f8 d6 c6 3e 46 7c 7f 3e
       -0.14457597 0.46553904 0.38835883 0.2494975
000330 ae b4 16 3e 61 98 e7 3d d5 a8 ea 3e b6 0d 92 3d
       0.14717361 0.11308361 0.45831934 0.071315214
000340 5b 67 c3 3e 16 c0 f3 3d 4b c9 65 bf 30 39 dd bf
       0.3816479 0.11901872 -0.89760274 -1.7283077
000350 15 1d ab bd 2c 8a 6d 3e bc 0c 68 3e e7 a2 9b 3d
       -0.08355156 0.2319724 0.22661108 0.075994305
000360 b4 9a b4 bf a1 d5 2a be c9 5c f9 be 9e 75 10 be
       -1.4109712 -0.16683055 -0.48703602 -0.14107367
000370 bb a9 50 be 1e ea d3 3e d4 4c 1c bf 47 d8 39 be
       -0.20377247 0.41389555 -0.6105473 -0.1814891
000380 61 81 88 3d 90 5f b5 bf 42 11 0a be 19 34 af 3d
       0.06665302 -1.4169788 -0.13483146 0.08554859
000390 7f 8e 61 3e c6 99 2d 3b c0 cc 5a bf 32 ef 05 3e
       0.22027014 0.0026489361 -0.85468674 0.13079527
0003a0 e7 f5 63 be aa 00 8b 3d 61 8a ba bd d0 fe f4 3e
       -0.22261773 0.06787236 -0.09108425 0.47850657
0003b0 f2 4e 11 bd 29 38 3a bf c2 49 17 c0 05 0b d6 bf
       -0.03547568 -0.72741944 -2.3638768 -1.6722113
0003c0 72 0b 81 bd 15 3b ab 3c 46 d8 fd be 83 ce c4 3d
       -0.06301011 0.020902196 -0.49579066 0.096097015
0003d0 05 f1 fb ba ec b1 4f bf 6e 3c a2 bd cb f8 94 be
       -0.001922161 -0.8113086 -0.07921682 -0.29096064
0003e0 9e b0 84 3e 06 ad 7c 3e 15 ce 86 bd 79 8e f9 bd
       0.25915998 0.24675378 -0.06582276 -0.12185378
0003f0 95 2e 74 be e0 68 fe 3e c1 aa e1 bd 09 5c 1c c0
       -0.23845895 0.49689388 -0.11018897 -2.4431174

base.critic_linear.weight f4 [1, 128]
000000 14 f0 2b c0 36 a8 4c c0 17 13 6c 3d c0 9e 25 3c
       -2.6865282 -3.1977668 0.057635393 0.01010865
000010 35 e6 51 c0 f7 1c 43 3f 02 01 3c 40 d7 73 55 be
       -3.2796757 0.7621607 2.9375615 -0.2084497
000020 9a 17 90 bd 21 ef 4b 3f a6 db 44 3f cd 91 56 3b
       -0.07035752 0.79661757 0.76897657 0.0032740713
000030 48 22 d9 3b b8 c2 28 3f 1e 7d 57 3f f5 4e 0d be
       0.006626401 0.6592212 0.8417529 -0.13799651
000040 e2 b3 08 3c bb 02 79 bd e8 e4 61 c0 97 a7 06 40
       0.008343669 -0.06079362 -3.5295963 2.1039789
000050 f3 d5 29 3f d8 9a 3b 3f c8 c3 7f 3f 9f 9f bf 3f
       0.66342086 0.7328315 0.99908113 1.4970587
000060 e5 ff 5e 3f 88 3a 89 3f d6 42 4d 3f b3 65 47 40
       0.87109214 1.0720987 0.8018011 3.1155822
000070 35 c4 9c 3f 40 1a f5 bf da 7e 57 3f a9 08 10 be
       1.2247378 -1.9148636 0.84177935 -0.14065804
000080 84 6e 40 3f 26 c4 e6 bd f5 0d 86 bb 36 9d 46 c0
       0.75168633 -0.11267881 -0.0040910193 -3.1033454
000090 9b ec 2a bd 64 4a 8b c0 be 59 36 3f d6 69 3c c0
       -0.04172955 -4.352831 0.71230686 -2.9439597
0000a0 cf 96 30 c0 7b cd 90 bd 53 bd 25 bd 5c b2 1d bb
       -2.7592046 -0.07070442 -0.040463757 -0.002406261
0000b0 22 9d 30 3f f1 d6 b3 3f 01 15 44 c0 75 54 f1 3f
       0.68989766 1.404997 -3.063782 1.8853899
0000c0 51 21 56 3f 75 fb 49 3f 16 a4 ee bd 04 88 f5 bf
       0.83644587 0.7889932 -0.11652391 -1.9182134
0000d0 9c 51 1f c0 31 4a 7f be df fe 9a 3f 38 ea 51 3f
       -2.489356 -0.24930646 1.210903 0.81998014
0000e0 2c e8 91 3f 34 93 c7 bd c1 40 c9 bd 39 85 e8 bf
       1.1398978 -0.09744874 -0.09826804 -1.8165656
0000f0 64 7d 3a 3e 4f 7f 87 3f 08 87 e8 bd 17 b3 39 3f
       0.18211895 1.0585726 -0.1135388 0.72538894
000100 2e 34 36 3f b7 13 4a 3f 39 46 64 bc cf 80 aa 3f
       0.7117337 0.7893633 -0.013932758 1.3320559
000110 11 83 c4 3f 31 5c 0c c0 15 8e 76 3c e2 f9 e3 bf
       1.5352498 -2.193127 0.015048523 -1.7810633
000120 a5 17 3b 3f da 73 3e bd 90 4d 1d 40 de 3b f0 3f
       0.73082954 -0.046497203 2.457859 1.876827
000130 b2 45 35 3f 6f 17 73 3f e4 ec 15 c0 b3 2a 23 3e
       0.7080947 0.9495763 -2.3425837 0.15934257
000140 64 2c b0 bd 26 83 c1 bd a3 d6 d9 bf c6 d4 9a bd
       -0.08602217 -0.09448843 -1.7018627 -0.075601146
000150 53 09 2f be 94 b2 a8 bd 09 b1 5d be ae 7a c4 bc
       -0.170934 -0.08237186 -0.21649565 -0.02398428
000160 88 69 97 3d 58 6b f0 bf 60 3e b5 3f 78 89 01 be
       0.07393175 -1.8782759 1.415966 -0.12650096
000170 c3 90 3f bd 87 b2 54 3f 26 11 44 3f 19 5e a7 3b
       -0.046768915 0.8308491 0.76588666 0.005107653
000180 5a 39 d0 bd f0 40 5e 3d 53 04 c7 bd 70 c2 42 3f
       -0.10167189 0.054261148 -0.09717622 0.7607794
000190 e0 90 2f be 1c a0 3e 3f 0d 07 35 3d a6 a0 2e bd
       -0.17145109 0.7446306 0.044196177 -0.042633675
0001a0 19 06 32 3f 60 75 7f bc 4a 4d d9 3f 14 5e ce 3f
       0.69540554 -0.015591949 1.6976712 1.612246
0001b0 b2 23 12 40 e2 71 71 3f 60 c2 ff 3f 3e 8a 27 be
       2.2834287 0.94314396 1.9981194 -0.16361329
0001c0 1e 74 dd 3f 8f 36 f9 3c f7 a9 54 3a fa 88 4f 3f
       1.7301061 0.030421523 0.0008112485 0.81068385
0001d0 dc 1e 31 3f 01 73 58 3f d1 70 47 bd c5 55 4a 40
       0.6918771 0.8455048 -0.048691574 3.161485
0001e0 e1 10 b2 3c 34 75 bf bf 16 f5 e9 3b 8e ef ba bd
       0.021736564 -1.4957643 0.007139812 -0.09127723
0001f0 4d f9 39 3f 4f cf 7a 3f e4 f4 39 be cb 8a 94 bc
       0.7264603 0.9797258 -0.18159825 -0.018132588

dist.fc_mean.0.bias f4 [3]
000000 55 bf f9 bd 33 91 7b 3e c0 8e 39 bb
       -0.12194697 0.24567108 -0.0028313845
