OpenRDW/Assets/OpenRDW/Resources/SRLNet_50.onnx (onnx, 167857 bytes, 12 tensors)

39 f4 [1, 3]
-0.18266419 -0.38391244 -0.22546443
00000000: 520c 3bbe 2c90 c4be 26e0 66be

base.actor.0.bias f4 [128]
-0.107005455 0.5661422 -0.5369615 1.1591156 -0.07089815 0.7941331 0.5625228 -0.03201425
-0.10002577 -0.18704793 0.21339016 0.024570256 -0.14047961 -0.17325518 0.080964714 -0.03950705
-0.21893823 -0.030393703 -0.3193133 -0.35279998 0.08367613 0.26485652 -0.42904708 -0.39411375
0.0 -0.16224733 -0.014535604 -0.008352756 -0.53926486 0.14562078 0.34816334 -0.16964503
-0.41898865 -0.007938963 0.05998 -0.0389385 0.29789287 -0.50759715 -0.08534475 -0.48418173
0.095020615 -0.084202506 -0.62465405 -0.20445544 0.0 -0.23278266 -0.31644815 0.3748269
0.04669111 -0.18480974 0.051058877 0.022242868 -0.17438959 -0.61955893 0.16352314 -0.9545933
-0.4233471 0.03570572 -0.041705612 0.39475897 -0.059615016 -0.18377693 -0.85820985 -0.5269201
-0.5236631 0.10215531 -0.0839963 -0.9226975 0.03701915 -0.13299622 0.47858763 -0.057037454
-0.10353228 0.17378378 0.10562281 -0.35424942 -0.6599124 -0.08536116 0.7020482 -0.27678344
0.42077336 0.11412461 0.17181447 -0.07469347 -0.13897666 -0.05978799 0.3051772 0.19916196
0.013319036 -0.058401473 0.16312563 -0.16148695 -0.16329332 -0.019694738 -0.8249124 0.07615604
0.08611498 0.12676738 -0.042895928 0.41531578 0.4538161 0.011433907 -0.37575266 0.0045168726
0.168995 -0.0596175 0.028318662 -0.38937575 -0.003984941 -0.0035287368 -0.23647064 -0.17431043
0.19597344 -0.015199681 -0.09427035 -0.42165297 0.15521625 0.26823294 -0.014453765 0.8356041
-0.024055917 0.6344193 -0.22558008 -0.40315685 -0.07615518 -0.18367855 -0.07550557 0.069893144
00000000: ad25 dbbd b2ee 103f 4f76 09bf e65d 943f
00000010: 0d33 91bd 4f4c 4b3f 7f01 103f 6021 03bd
00000020: 50da ccbd 7e89 3fbe f382 5a3e 9047 c93c
00000030: e3d9 0fbe ce69 31be d4d0 a53d 25d2 21bd
00000040: 5831 60be 37fc f8bc 087d a3be 33a2 b4be
00000050: 645e ab3d 469b 873e 0fac dbbe 47c9 c9be
00000060: 0000 0000 2a24 26be be26 6ebc ffd9 08bc
00000070: 430d 0abf 9d1d 153e 7742 b23e 6db7 2dbe
00000080: ae85 d6be 6d12 02bc 97ad 753d fa7d 1fbd
00000090: 6a85 983e e3f1 01bf 3ac9 aebd abe6 f7be
000000a0: 2b9a c23d 5d72 acbd 54e9 1fbf c45c 51be
000000b0: 0000 0000 945e 6ebe 7e05 a2be 50e9 bf3e
000000c0: 2d3f 3f3d c43e 3dbe 1d23 513d ad36 b63c
000000d0: 2f93 32be 6a9b 1ebf 9c72 273e 3a60 74bf
000000e0: f3c0 d8be 2940 123d 81d3 2abd d91d ca3e
000000f0: e02e 74bd 0530 3cbe a4b3 5bbf 3ce4 06bf
00000100: c90e 06bf ce36 d13d 4106 acbd e735 6cbf
00000110: 64a1 173d 2930 08be 7009 f53e 1ba0 69bd
00000120: bb08 d4bd 60f4 313e c650 d83d 2e60 b5be
00000130: 05f0 28bf d5d1 aebd 6eb9 333f 8fb6 8dbe
00000140: 9b6f d73e 2aba e93d 22f0 2f3e e4f8 98bd
00000150: e64f 0ebe 40e4 74bd 3040 9c3e 1df1 4b3e
00000160: 1638 5a3c 6236 6fbd 680a 273e d65c 25be
00000170: 5d36 27be dc56 a1bc 762d 53bf b3f7 9b3d
00000180: 0d5d b03d 4fcf 013e a4b3 2fbd 45a4 d43e
00000190: 955a e83e 4855 3b3c a762 c0be 4602 943b
000001a0: 060d 2d3e 7b31 74bd 8afc e73c 425c c7be
000001b0: 1c94 82bb 6142 67bb 5c25 72be 6f7e 32be
000001c0: 43ad 483e 1508 79bc d010 c1bd e6e2 d7be
000001d0: 02f1 1e3e d455 893e 7ccf 6cbc 26ea 553f
000001e0: ea10 c5bc 4e69 223f 77fe 66be 936a cebe
000001f0: 3ff7 9bbd 3b16 3cbe aaa2 9abd 2324 8f3d

base.actor.0.weight f4 [128, 30]
-0.047322538 -0.10572815 -0.57189256 -0.1144768 -0.06843111 -0.249075 -0.2823055 0.12128706
0.03340028 -0.35243547 -0.101838715 0.060282987 -0.15244201 0.051908176 -0.13884026 -0.22101805
0.1218987 -0.016249686 -0.10453749 -0.10814205 0.4728099 -0.38347763 -0.13827989 0.1174447
-0.17470658 -0.02425492 0.31223652 -0.34841096 -0.14287154 -0.21071967 -0.10114746 0.11017913
0.101363316 -0.20519103 -0.067935556 0.13712685 -0.23807013 0.041776467 0.08412121 -0.26142907
-0.18379782 0.07782863 -0.13233863 -0.12967016 0.34195256 -0.14229445 0.07324701 0.21256319
-0.16510601 -0.24787648 0.13439527 -0.18574812 -0.12029787 0.43226892 -0.022730628 -0.07415596
-0.1073466 -0.019361138 -0.10649567 -0.05670643 0.021356013 0.16499658 -0.08765988 -0.17549819
-0.16822651 -0.16112122 0.0012440733 -0.07297459 0.19307764 -0.20188287 -0.18824343 0.12056141
-0.0019235876 0.013927052 -0.09207886 -0.19865379 -0.15667573 0.33282736 -0.44546115 0.025266312
-0.122031055 -0.37486333 -0.04988473 0.30437806 -0.23340553 -0.2679559 0.03227826 -0.6546954
-0.0824371 0.23835802 -0.037259378 0.19813198 -0.09479722 -0.23919222 0.07710813 -0.15709192
0.0068916855 0.22954684 -0.029245965 -0.060737297 0.05847744 0.05107082 -0.015902823 0.3065431
-0.048719704 0.2346155 -0.016330127 0.08008153 0.006531201 0.11284141 0.11974931 0.10787324
-0.13875638 -0.15993577 0.031599008 0.20559129 -0.317435 -0.08819691 -0.12282889 0.2148234
-0.18773691 0.30612218 -0.005307109 -0.01692086 -0.053225666 -0.27185112 -0.2964097 0.2672247
-0.5330385 -0.23061651 0.039983004 -0.5674181 -0.25378615 -0.09359998 -0.27688777 -0.1939532
0.028977146 0.009214101 -0.4106838 -0.20856754 0.20057292 -0.16060518 -0.078005075 -0.1572696
-0.50907946 0.092348 0.24218795 -0.6758263 0.16816528 0.27202153 0.08822843 -0.03557921
0.23902172 0.027851123 -0.022155868 -0.077146254 0.09938942 0.1586956 -0.20668456 0.10452788
0.16582626 0.08033625 -0.08178565 0.29965046 -0.08007399 0.044232067 0.018683773 -0.14355241
-0.01715507 -0.15830675 -0.1872278 0.1342057 -0.22109358 0.103503354 -0.011338624 -0.4180215
-0.15890747 -0.04503157 -0.39789632 -0.59418756 -0.06335565 -0.007105855 0.05577538 0.19689296
0.13767488 -0.25728104 -0.012163088 0.122870356 -0.43516248 0.06570334 0.0937083 -0.57048005
0.09668891 0.1504573 -0.12486699 0.01633429 0.21779804 -0.0029237776 -0.037206903 -0.0477113
-0.19911471 0.09328317 0.17057782 -0.36208412 -0.15426366 -0.078311965 -0.133448 -0.15234943
0.032380234 -0.3796114 -0.037252877 0.025893869 0.522406 -0.15895893 -0.191648 -0.08430911
-0.17664893 -0.10186667 -0.20083341 -0.21772805 0.10846449 -0.62948143 -0.20179528 0.1364651
-0.89359164 -0.20378609 0.009528668 -0.2854561 -0.046159778 0.09356335 -0.28387424 -0.14568326
-0.06625296 -0.13735805 -0.05675232 0.14328422 0.3095362 -0.40834147 -0.012126079 0.52676123
-0.16604826 -0.14952344 0.10547818 -0.05237408 -0.41210178 -0.05806868 -0.1328753 -0.08889405
-0.111103915 -0.25320998 0.027359305 0.0040353416 -0.34814197 -0.07290871 0.32459128 0.0457813
00000000: 47d5 41bd 0088 d8bd 8d67 12bf d072 eabd
00000010: 9c25 8cbd 840d 7fbe 598a 90be 5a65 f83d
00000020: bbce 083d 6c72 b4be d190 d0bd 4beb 763d
00000030: c219 1cbe ab9d 543d 242c 0ebe 8e52 62be
00000040: 07a6 f93d 101e 85bc c017 d6bd 9479 ddbd
00000050: 2414 f23e 2e57 c4be 3e99 0dbe d986 f03d
00000060: 48e6 32be 41b2 c6bc 77dd 9f3e ec62 b2be
00000070: eb4c 12be e6c6 57be 6626 cfbd 99a5 e13d
00000080: 9297 cf3d 991d 52be cc21 8bbd fb6a 0c3e
00000090: a8c8 73be cd1d 2b3d be47 ac3d 08da 85be
000000a0: 7f35 3cbe 9e64 9f3d c783 07be 41c8 04be
000000b0: 6814 af3e a3b5 11be 8702 963d 2aaa 593e
000000c0: 8d11 29be 55d3 7dbe ea9e 093e c134 3ebe
000000d0: bb5e f6bd 5a52 dd3e 9535 babc 14df 97bd
000000e0: 89d8 dbbd 409b 9ebc 671a dabd 0045 68bd
000000f0: cef2 ae3c ddf4 283e 0687 b3bd ccb5 33be
00000100: 9243 2cbe f6fc 24be 2c10 a33a b473 95bd
00000110: 25b6 453e 62ba 4ebe e3c2 40be e7e8 f63d
00000120: e420 fcba 4a2e 643c d793 bcbd e66b 4bbe
00000130: 9a6f 20be 5968 aa3e 7c13 e4be 4cfb ce3c
00000140: 6beb f9bd 16ee bfbe ee53 4cbd 71d7 9b3e
00000150: dc01 6fbe 8431 89be 3536 043d 1e9a 27bf
00000160: c8d4 a8bd 2014 743e 4a9d 18bd 1ce3 4a3e
00000170: 0b25 c2bd ceee 74be deea 9d3d b4dc 20be
00000180: a6d3 e13b 540e 6b3e 3c95 efbc acc7 78bd
00000190: 0a86 6f3d a32f 513d a346 82bc 38f3 9c3e
000001a0: 508e 47bd 0c3f 703e c2c6 85bc c901 a43d
000001b0: af03 d63b 6619 e73d 203f f53d a5ec dc3d
000001c0: 2716 0ebe 34c6 23be f66d 013d 8686 523e
000001d0: d786 a2be 95a0 b4bd b78d fbbd aafa 5b3e
000001e0: 1b3e 40be 0cbc 9c3e 42e7 adbb 9e9d 8abc
000001f0: 2803 5abd 1230 8bbe 03c3 97be add1 883e
00000200: 3675 08bf bc26 6cbe 38c5 233d 5042 11bf
00000210: 42f0 81be 59b1 bfbd 3cc4 8dbe ab9b 46be
00000220: 7b61 ed3c bef6 163c 2645 d2be bb92 55be
00000230: fd62 4d3e af75 24be 20c1 9fbd 480b 21be
00000240: 0853 02bf f320 bd3d 1e00 783e f402 2dbf
00000250: 8533 2c3e 6846 8b3e 1bb1 b43d 81bb 11bd
00000260: 1cc2 743e 0a28 e43c 3980 b5bc dbfe 9dbd
00000270: ae8c cb3d 1981 223e 1ea5 53be b712 d63d
00000280: 5cce 293e 5587 a43d 3c7f a7bd c96b 993e
00000290: d5fd a3bd af2c 353d b60e 993c 67ff 12be
000002a0: ca88 8cbc 2a1b 22be a5b8 3fbe 386d 093e
000002b0: 5b66 62be 91f9 d33d a3c5 39bc ea06 d6be
000002c0: a4b8 22be 0673 38bd 11b9 cbbe ad1c 18bf
000002d0: 9bc0 81bd 3bd8 e8bb ba74 643d 4f9e 493e
000002e0: a5fa 0c3e 57ba 83be b047 47bc 74a3 fb3d
000002f0: 9ecd debe 798f 863d 23ea bf3d fb0a 12bf
00000300: d604 c63d 7a11 1a3e 44ba ffbd 7dcf 853c
00000310: 7306 5f3e d99c 3fbb 4466 18bd ed6c 43bd
00000320: bae4 4bbe 3f0b bf3d f4ab 2e3e 1763 b9be
00000330: 4bf7 1dbe 0662 a0bd 98a6 08be 7d01 1cbe
00000340: 23a1 043d 6d5c c2be 7996 18bd 611f d43c
00000350: 66bc 053f 21c6 22be 603f 44be 41aa acbd
00000360: 75e3 34be 799f d0bd 46a7 4dbe 1af4 5ebe
00000370: a122 de3d b225 21bf 6ca3 4ebe 82bd 0b3e
00000380: 6cc2 64bf 4dad 50be 211e 1c3c 4d27 92be
00000390: 0912 3dbd 249e bf3d f757 91be fe2d 15be
000003a0: a2af 87bd 97a7 0cbe 1f75 68bd 19b9 123e
000003b0: 877b 9e3e 2212 d1be 76ac 46bc d3d9 063f
000003c0: 8e08 2abe ac1c 19be f204 d83d 3486 56bd
000003d0: 01ff d2be 6dd9 6dbd 7610 08be 150e b6bd
000003e0: 738a e3bd bda4 81be 9f20 e03c e63a 843b
000003f0: aa3f b2be 2951 95bd d430 a63e 2c85 3b3d

base.actor.2.bias f4 [128]
0.032478925 -0.06306541 -0.47189826 -0.08779729 -0.25222874 -0.045370445 -0.019886674 -0.15546618
-0.5655634 -0.23633279 -0.17932902 -0.16082896 -0.14476329 -0.12880622 -0.0069382363 -0.18990964
-0.00517408 5.583036e-05 -0.07595482 -0.36433247 -0.29493955 -0.40984643 -0.1513747 0.017365033
-0.09302345 -0.05976977 -0.21339956 -0.21713667 -0.12015613 -0.08557295 -0.2095815 -0.020360578
-0.0044150543 0.17997055 -0.20696 -0.3533537 -0.35593408 -0.02702323 -0.0037805992 -0.018429067
-0.022242282 0.1509127 -0.164628 -0.15146045 -0.05934912 -0.37761053 -0.22962266 -0.3598851
-0.024225231 -0.11057315 0.007043933 -0.14585419 -0.13097978 -0.3730853 0.07086408 -0.044851214
0.11379242 -0.020457637 0.006012653 -0.41400915 -0.112854674 -0.37637338 -0.19061287 -0.10358615
-0.08067813 0.3332591 0.34459645 -0.339146 0.09907075 0.12119628 -0.053825624 -0.27519372
0.23582795 -0.035729133 -0.25859874 -0.19975895 -0.09398363 0.030136827 0.20422618 -0.55224425
-0.1777882 0.047502495 0.009930719 -0.1372115 -0.32006136 -0.19699182 -0.15279806 -0.49276793
-0.0030668164 -0.07032837 -0.1387897 -0.6517416 -0.2553348 -0.1001556 -0.118428044 -0.15563843
-0.19118108 -0.11102437 0.09879777 -0.16861148 -0.040209204 -0.5148385 0.041273408 -0.21140589
-0.35831058 -0.1986804 -0.3299288 0.08404097 -0.04869615 -0.2857675 -0.033340607 0.052189987
-0.16440427 -0.21620218 -0.047369912 -0.25889227 -0.17333958 0.08078229 -0.20199734 -0.16350816
-0.19552106 0.20299317 -0.17308588 -0.092830464 -0.015774835 -0.24842858 -0.38557044 -0.03780498
00000000: 9f08 053d 7028 81bd a69c f1be 11cf b3bd
00000010: 2024 81be 5cd6 39bd 61e9 a2bc 8732 1fbe
00000020: c3c8 10bf 3901 72be 07a2 37be 59b0 24be
00000030: d43c 14be c7e5 03be 255a e3bb ac77 42be
00000040: 548b a9bb 652b 6a38 338e 9bbd c989 babe
00000050: 5102 97be 64d7 d1be f801 1bbe 1d41 8e3c
00000060: 1483 bebd 25d1 74bd 6a85 5abe 1359 5ebe
00000070: 6b14 f6bd df40 afbd 889c 56be 3acb a6bc
00000080: 29ac 90bb 334a 383e 52ed 53be c7ea b4be
00000090: fe3c b6be d25f ddbc eec3 77bb 8ef8 96bc
000000a0: 7235 b6bc dc88 1a3e 3e94 28be 7318 1bbe
000000b0: 1018 73bd 2b56 c1be 3422 6bbe dc42 b8be
000000c0: fe73 c6bc 2d74 e2bd cbd0 e63b cd5a 15be
000000d0: 901f 06be 0905 bfbe 3021 913d e8b5 37bd
000000e0: 000c e93d c696 a7bc ca05 c53b 02f9 d3be
000000f0: 5a20 e7bd 03b4 c0be 0530 43be fa24 d4bd
00000100: 933a a5bd f0a0 aa3e f26e b03e 8ba4 adbe
00000110: 9be5 ca3d c135 f83d 4278 5cbd 31e6 8cbe
00000120: e27c 713e b658 12bd 0e67 84be 9c8d 4cbe
00000130: 7d7a c0bd 82e1 f63c ab20 513e e15f 0dbf
00000140: 1c0e 36be fa91 423d 74b4 223c 2c81 0cbe
00000150: 15df a3be 39b8 49be 1877 1cbe 144c fcbe
00000160: a4fc 48bb 5208 90bd e31e 0ebe 8ad8 26bf
00000170: 3ebb 82be 611e cdbd 678a f2bd ae5f 1fbe
00000180: f9c4 43be bf60 e3bd 7c56 ca3d 7da8 2cbe
00000190: 68b2 24bd 75cc 03bf 4e0e 293d c97a 58be
000001a0: 7c74 b7be e072 4bbe 6dec a8be ac1d ac3d
000001b0: 9d75 47bd 1e50 92be 2990 08bd 2bc5 553d
000001c0: 9859 28be 1b64 5dbe f406 42bd 878d 84be
000001d0: ee7f 31be 2f71 a53d 64d8 4ebe af6e 27be
000001e0: ac36 48be 71dd 4f3e 6d3d 31be e61d bebd
000001f0: 3a3a 81bc 1064 7ebe 7d69 c5be 65d9 1abd

base.actor.2.weight f4 [128, 128]
-0.07726685 -0.07507166 0.017003518 0.2679458 0.16017051 0.22536881 0.19535351 0.278574
-0.02256355 -0.3436731 -0.16744126 -0.056656625 0.0636478 -0.048426654 0.41232672 0.08252117
-0.045956533 0.36166835 -0.013316256 -0.10364533 0.2950598 -0.1089293 0.39854947 0.11706497
0.03797328 -0.028647007 -0.27705908 -0.12581907 0.13153301 0.16259456 0.069283284 0.12504685
-0.42919874 0.023121396 0.11463667 0.09133899 -0.11140542 -0.109712586 0.01245691 -0.18542674
0.2555475 -0.05890065 0.024798559 0.18185556 -0.1134387 -0.14735387 -0.5044003 0.17217718
0.0867676 0.15770513 0.010211591 -0.10609336 -0.18481705 0.09374945 -0.15030263 0.19815454
0.07633976 -0.3810495 0.07974174 0.36313248 -0.27568036 0.32322535 -0.0368341 -0.22102879
0.029300034 -0.0524455 -0.10165806 0.14041634 -0.4919829 -0.19887003 0.0030245273 -0.42536166
-0.014410941 0.10085821 -0.22464554 -0.105692945 0.050815266 -0.12746927 -0.0216677 0.24821225
0.19813809 -0.16423036 -0.20049495 -0.0504318 -0.030780645 -0.15963836 0.21942633 -0.38668108
0.08944515 0.13488732 -0.053733725 -0.27612624 -0.14157689 0.015134288 0.28108695 0.02940863
-0.26914108 -0.039493892 -0.07891958 0.28276864 -0.0042621843 0.016037697 0.26769596 0.0688193
0.2215527 -0.06499015 -0.012096777 -0.058804102 0.0276381 -0.036298987 -0.34850028 -0.17827515
-0.34916136 0.06578749 0.2263042 0.029822968 0.13162921 -0.19340284 -0.1210954 -0.40273255
0.085487075 0.11439814 -0.09001936 -0.056826003 -0.002135103 0.09163695 -0.18708141 0.031657252
0.19209148 -0.18620792 -0.26586446 -0.063880675 0.16659424 -0.23057504 0.32748598 0.92501557
-0.0927744 0.18331212 -0.22194484 0.072779424 -0.12704673 -0.010288504 0.14335509 0.2978448
-0.0022765333 0.29128549 -0.4124124 0.116087504 0.06219 -0.21774687 -0.11957748 -0.1917451
-0.13661358 -0.059368536 -0.15665221 0.4042746 -0.23337261 0.17899005 0.29802218 -0.040477224
-0.7185524 0.46182573 0.039554022 0.11265388 -0.09965995 -0.57798564 -0.3382472 -0.0039860443
0.047593098 0.10985979 -0.0016770096 -0.44398057 0.048179068 0.14074758 -0.22131468 0.20111585
0.22429399 0.17837292 0.3520122 0.109342255 -0.35956186 -0.37705478 0.5439227 0.09878774
-0.13816349 0.43916765 -0.098119244 0.091523424 0.62362266 -0.372497 -0.33052963 -0.46593904
0.1674182 0.028632402 -0.08228437 -0.1777091 0.19981368 -0.34997037 0.3979441 0.2123991
-0.14104109 0.21360931 -0.017437236 -0.34719798 -0.13073799 0.12217293 0.11074158 0.11999954
-0.32530245 0.120837525 0.39543492 -0.13780548 -0.0624145 0.04928117 0.012486097 0.813549
0.36785805 0.14933282 -0.55711913 -0.07448383 0.33883667 0.017901 -0.09940751 0.059122253
0.2579974 0.019573651 -0.13785787 -0.14288536 -0.2755581 -0.2630075 -0.33288848 0.14867073
-0.31972152 0.23907347 -0.34366637 -0.31554216 -0.17007168 -0.18620431 -0.538585 -0.14936724
-0.2819045 -0.2564089 -0.0876582 0.05900599 0.09604685 0.032703783 0.13081676 -0.41410753
-0.20776345 -0.472503 -0.42382386 -0.28134915 -0.089437984 0.20394546 -0.019299243 0.327877
00000000: 153e 9ebd 2cbf 99bd f64a 8b3c 3130 893e
00000010: bd03 243e 15c7 663e c00a 483e 40a1 8e3e
00000020: 32d7 b8bc ecf5 afbe b975 2bbe c710 68bd
00000030: c759 823d 075b 46bd 7d1c d33e dc00 a93d
00000040: eb3c 3cbd 982c b93e 6d2c 5abc 0144 d4bd
00000050: 1412 973e 5316 dfbd ad0e cc3e c2bf ef3d
00000060: df89 1b3d 21ad eabc b0da 8dbe b7d6 00be
00000070: 97b0 063e 307f 263e 65e4 8d3d 480c 003e
00000080: f0bf dbbe 1569 bd3c a1c6 ea3d f00f bb3d
00000090: 8628 e4bd feb0 e0bd 1118 4c3c 82e0 3dbe
000000a0: 1fd7 823e cf41 71bd 5926 cb3c 5838 3a3e
000000b0: 8d52 e8bd efe3 16be 6120 01bf 374f 303e
000000c0: 36b3 b13d 747d 213e 844e 273c 7a47 d9bd
000000d0: ae40 3dbe b6ff bf3d efe8 19be 06e9 4a3e
000000e0: 0558 9c3d ec18 c3be a34f a33d 80ec b93e
000000f0: fa25 8dbe cb7d a53e 5adf 16bd 5f55 62be
00000100: a006 f03c 18d1 56bd 1a32 d0bd 4dc9 0f3e
00000110: 2fe5 fbbe 96a4 4bbe 2637 463b 01c9 d9be
00000120: de1b 6cbc c08e ce3d 7b09 66be 8b75 d8bd
00000130: ab23 503d 4e87 02be 7680 b1bc 5a2b 7e3e
00000140: b6e4 4a3e 012c 28be 8c4e 4dbe 9391 4ebd
00000150: b127 fcbc 3d78 23be 4cb1 603e 10fb c5be
00000160: 052f b73d e71f 0a3e e517 5cbd 6b60 8dbe
00000170: 88f9 10be cef5 773c a1ea 8f3e 5eea f03c
00000180: dccc 89be 59c4 21bd 97a0 a1bd 0dc7 903e
00000190: cba9 8bbb 7d61 833c 720f 893e 22f1 8c3d
000001a0: b6de 623e 8e19 85bd 8f31 46bc 92dc 70bd
000001b0: 4c69 e23c 3fae 14bd a16e b2be c38d 36be
000001c0: 47c5 b2be 97bb 863d 4abc 673e 4c4f f43c
000001d0: cfc9 063e 650b 46be dd00 f8bd f632 cebe
000001e0: d913 af3d 9249 ea3d 125c b8bd 62c2 68bd
000001f0: 16ed 0bbb 27ac bb3d 4592 3fbe 09ab 013d
00000200: a1b3 443e 4aad 3ebe 631f 88be dfd3 82bd
00000210: ae97 2a3e dd1b 6cbe 3eac a73e d2cd 6c3f
00000220: 8100 bebd 2cb6 3b3e 8245 63be 610d 953d
00000230: 8a18 02be 1d91 28bc adcb 123e 1d7f 983e
00000240: e431 15bb 5f23 953e b827 d3be 49bf ed3d
00000250: f1ba 7e3d 09f9 5ebe 0ae5 f4bd d458 44be
00000260: 6ee4 0bbe 6c2c 73bd 7069 20be 15fd ce3e
00000270: 3bf9 6ebe 2b49 373e 5d96 983e 72cb 25bd
00000280: 0df3 37bf 6c74 ec3e 6603 223d 14b7 e63d
00000290: 841a ccbd def6 13bf bd2e adbe 5d9d 82bb
000002a0: fbf0 423d 2bfe e03d 1bcf dbba 6c51 e3be
000002b0: 6a57 453d 2220 103e 51a0 62be 50f1 4d3e
000002c0: 53ad 653e 64a7 363e f13a b43e d5ee df3d
000002d0: 7e18 b8be 530d c1be 853e 0b3f 3a51 ca3d
000002e0: bb7a 0dbe 95da e03e bef2 c8bd a270 bb3d
000002f0: bca5 1f3f edb7 bebe 2e3b a9be 908f eebe
00000300: ad6f 2b3e 808e ea3c b584 a8bd 60f9 35be
00000310: f59b 4c3e 512f b3be 54bf cb3e 267f 593e
00000320: 136d 10be 66bc 5a3e 89d8 8ebc efc3 b1be
00000330: 2ee0 05be cd35 fa3d 7bcc e23d 52c2 f53d
00000340: 0b8e a6be aa79 f73d 7276 ca3e e11c 0dbe
00000350: 59a6 7fbd 0ddb 493d 7d92 4c3c bf44 503f
00000360: e457 bc3e b4ea 183e 5c9f 0ebf fa8a 98bd
00000370: 007c ad3e 1ea5 923c 2a96 cbbd 2d2a 723d
00000380: 3c18 843e ec58 a03c 9d2a 0dbe 8a50 12be
00000390: f415 8dbe eba8 86be 5c70 aabe 243d 183e
000003a0: 8ab2 a3be adcf 743e 0af5 afbe be8e a1be
000003b0: 4527 2ebe 58ac 3ebe b5e0 09bf baf3 18be
000003c0: c955 90be 0748 83be 2486 b3bd 44b0 713d
000003d0: 36b4 c43d 67f4 053d d4f4 053e e705 d4be
000003e0: f1bf 54be eaeb f1be 71ff d8be ff0c 90be
000003f0: 432b b7bd 14d7 503e 7219 9ebc 7fdf a73e

base.critic.0.bias f4 [128]
-0.055740338 1.2466346 -0.31371096 0.3446364 0.03888852 1.0968523 -0.09016276 -0.012575021
0.96472204 0.0055825934 0.10543424 -0.056908924 -0.15383795 1.2323018 -0.105207264 1.241885
1.1786615 1.3089719 -0.023521617 -0.15017073 0.34691635 0.11019072 -0.003862499 -0.022022583
0.88548934 -0.01844085 0.013307912 -0.046365272 0.49857396 0.0016836752 -0.056808755 0.91139424
1.3145074 -0.7463951 0.011835893 0.6096071 0.3775609 -0.06589783 1.197987 0.08663082
-0.10134429 1.3961366 -0.0030552743 0.0 1.2763925 0.94932324 0.4291481 0.5091168
1.1617732 0.43299076 0.16771242 0.7007453 -0.108865134 0.18420297 0.058627404 1.2816484
-0.2512914 -0.06657825 0.7596778 -0.074687265 0.5906047 1.1461924 -0.08941964 0.009975998
0.34105492 -1.3378934 0.65760857 0.0011948515 -0.71002185 -0.6648906 1.1852707 -0.06099164
-0.007705659 1.2083764 1.0844383 1.2676314 0.30940247 0.34880802 0.2395102 1.2438976
-0.070593864 -0.037206706 0.7272175 0.4336389 1.0988382 1.1827815 1.3507104 -0.12758885
0.50749713 0.8082317 1.007084 1.2269282 0.3128955 1.1895202 0.945812 0.5251448
-0.93553734 1.2114762 1.2530198 1.2732209 0.034105405 0.41421947 0.3540032 0.23768595
-0.450701 -0.014358592 -0.037400864 0.49067858 0.7054255 0.6241937 -0.06374451 0.19696702
-0.002850215 1.0059612 1.0864975 -0.029470272 0.22301702 0.5254256 -0.16946809 -0.37179232
0.24070495 0.0 -0.054654993 0.61410016 -0.042397007 -0.07806276 -0.12976724 0.9871943
00000000: fb4f 64bd b991 9f3f b99e a0be 2f74 b03e
00000010: 9249 1f3d a865 8c3f 41a7 b8bd 7607 4ebc
00000020: 06f8 763f 30ee b63b e8ed d73d 5519 69bd
00000030: b287 1dbe 11bc 9d3f e876 d7bd 16f6 9e3f
00000040: 61de 963f 648c a73f 68b0 c0bc 5bc6 19be
00000050: 059f b13e acab e13d fb21 7dbb b468 b4bc
00000060: 6eaf 623f 4411 97bc 6e09 5a3c 83e9 3dbd
00000070: 1645 ff3e c4ae dc3a 4cb0 68bd 2251 693f
00000080: c741 a83f c013 3fbf 55eb 413c 360f 1c3f
00000090: aa4f c13e 71f5 86bd a357 993f 806b b13d
000000a0: 988d cfbd 9bb4 b23f ff3a 48bb 0000 0000
000000b0: d460 a33f d906 733f 4db9 db3e 7b55 023f
000000c0: fcb4 943f f7b0 dd3e cebc 2b3e 0b64 333f
000000d0: aff4 debd b49f 3c3e 4a23 703d 0e0d a43f
000000e0: 44a9 80be 2d5a 88bd 3f7a 423f a3f5 98bd
000000f0: df31 173f 6fb6 923f a521 b7bd 5e72 233c
00000100: c09e ae3e 1740 abbf 0959 283f 909c 9c3a
00000110: fec3 35bf 4536 2abf f3b6 973f 5fd2 79bd
00000120: c17f fcbb 14ac 9a3f e0ce 8a3f bf41 a23f
00000130: 006a 9e3e f796 b23e 2942 753e 0938 9f3f
00000140: 8493 90bd 0f66 18bd ed2a 3a3f eb05 de3e
00000150: bba6 8c3f 6265 973f 14e4 ac3f a7a6 02be
00000160: 55eb 013f 46e8 4e3f 21e8 803f fc0b 9d3f
00000170: d733 a03e 3342 983f bc20 723f e46f 063f
00000180: 607f 6fbf a711 9b3f f462 a03f e7f8 a23f
00000190: 1cb2 0b3d 9314 d43e e83f b53e f263 733e
000001a0: 48c2 e6be 4d40 6bbc a631 19bd 393a fb3e
000001b0: c496 343f 29cb 1f3f 7b8c 82bd b9b1 493e
000001c0: acca 3abb 56c3 803f 5a12 8b3f a46b f1bc
000001d0: 935e 643e 4b82 063f 0b89 2dbe 905b bebe
000001e0: 5c7b 763e 0000 0000 eadd 5fbd ab35 1d3f
000001f0: 7ca8 2dbd 5edf 9fbd b4e1 04be c4b8 7c3f

base.critic.0.weight f4 [128, 30]
0.15356216 0.026929965 -0.21808112 -0.13932844 -0.04416174 -0.33538046 -0.1376768 0.026863016
-0.107114404 -0.07544299 -0.15187554 0.015634142 -0.24777643 -0.10137943 -0.034561913 0.08392836
-0.1618522 0.20057568 0.09428226 -0.31657964 -0.015682941 -0.0046545654 -0.2688137 -0.3748237
-0.028309777 0.110908434 -0.5176854 0.1239025 -0.0762507 0.02810518 0.1530782 0.28983295
0.18271442 0.05525502 -0.029330269 0.33886904 0.14631659 0.07287063 0.023788385 -0.01786249
-0.13387173 0.27254584 0.135216 0.014380515 -0.020783558 0.09294401 0.005298125 0.15582982
0.15770842 -0.22069332 0.23795308 0.023957854 -0.06259272 0.21754149 0.093541734 -0.30198804
-0.07157717 0.14142013 -0.09092065 0.22279556 1.0090791 0.2404383 0.23279122 0.89982593
0.27234873 0.36479738 0.863121 0.024309035 0.22611499 0.42376646 0.37923038 0.111841835
0.313183 0.24346401 0.14361167 -0.19398376 0.1919481 0.32044467 -0.4692847 -0.18192127
0.3432261 -1.3643186 0.2873315 0.29941106 -2.277264 0.009068932 0.25478768 -3.140838
-0.0013059212 0.45402163 -1.1904547 0.40245506 -0.06048991 -0.87565196 0.3094664 0.18512322
-0.8022563 0.27652624 0.3161773 -0.63185203 0.14676186 -0.19943464 -0.89161247 0.3016683
-0.09168437 -0.5073801 0.08773999 0.13134441 -0.40051493 0.31557545 -0.03164399 -0.33631158
0.34159544 0.15720229 -0.18497372 0.42703986 0.09075495 -0.0024782184 0.05300016 -0.29259115
0.52301776 0.082350194 0.051615447 0.68545073 0.19661403 0.15821518 0.12181007 0.058916353
0.15271564 -0.56066144 0.16974732 0.26328656 -0.8236337 0.25666684 0.41977775 -1.2712657
0.0039569326 0.119262636 -2.0157092 0.09216841 -0.013475067 -2.3177934 0.13786675 -0.16427717
-2.416781 0.0916236 -0.15482892 -2.0089216 0.12212183 -0.36071992 0.05406669 -0.06001838
0.14470755 -0.04166489 -0.026564892 0.15789667 -0.057797123 -0.021503044 0.10973227 -0.16271038
-0.07624443 0.09128816 0.069110155 -0.36701167 0.041845467 -0.11770428 -0.2447522 0.0646746
-0.054955997 -0.06519996 0.15239961 0.20692933 -0.109038375 0.07316056 0.1827751 -0.13510947
0.14855184 0.12345077 -0.23329692 0.08303548 -0.2263265 -0.068529785 -0.05462486 0.1180494
0.0150821265 0.09205726 -0.033711925 -0.114647195 0.020138247 -0.08259425 -0.13907029 -0.06621334
-0.0009414015 0.16043146 -0.1478338 -0.38473472 -0.10772787 0.04495895 -0.039725345 -0.08448478
-0.110705405 0.098644115 -0.049776625 0.096082635 -0.03734658 0.022866856 -0.15570547 0.09621752
0.091356345 0.072836615 -0.04738067 -0.18287818 0.03291876 0.08309554 -0.083160445 0.10926071
-0.10277956 -0.16335881 -0.07264075 -0.18117617 0.000100766345 -0.09696002 -0.1022925 0.059410997
-0.10231104 0.060596265 -0.055445373 -0.1873762 -0.31607786 -0.0702773 -0.039308753 -0.30716863
-0.12411299 0.061223652 -0.030158794 -0.0023199932 -0.011783564 0.010273359 -0.045369815 -0.17343509
0.030955784 -0.018594163 -0.013002593 0.00029460026 -0.064852454 0.24948286 -0.09671655 -0.23685725
0.12878947 0.31746256 -0.014032935 0.014766437 -0.08721112 -0.11241372 -0.11733332 0.20824793
00000000: 663f 1d3e 3b9c dc3c a850 5fbe 1dac 0ebe
00000010: f1e2 34bd fdb6 abbe 26fb 0cbe d40f dc3c
00000020: cc5e dbbd db81 9abd 4385 1bbe 2c13 803c
00000030: 1bb9 7dbe 05a0 cfbd cb90 0dbd a2e2 ab3d
00000040: 95bc 25be b663 4d3e 0f17 c13d ba16 a2be
00000050: 8379 80bc 5385 98bb f3a1 89be e4e8 bfbe
00000060: e8e9 e7bc f623 e33d 0887 04bf 98c0 fd3d
00000070: 5429 9cbd d63c e63c 88c0 1c3e fc64 943e
00000080: 7d19 3b3e 1653 623d 0846 f0bc 3e80 ad3e
00000090: 04d4 153e 323d 953d dcdf c23c 5b54 92bc
000000a0: ac15 09be 218b 8b3e 1076 0a3e 409c 6b3c
000000b0: 4842 aabc 6e59 be3d e59b ad3b da91 1f3e
000000c0: 517e 213e 6efd 61be f9a9 733e 4343 c43c
000000d0: 9d30 80bd 32c3 5e3e cf92 bf3d 2d9e 9abe
000000e0: 0d97 92bd 70d0 103e 9b34 babd 8524 643e
000000f0: 8129 813f 7535 763e d260 6e3e fe5a 663f
00000100: 4b71 8b3e b9c6 ba3e 7ff5 5c3f be23 c73c
00000110: b08a 673e ebf7 d83e 7c2a c23e 550d e53d
00000120: 8659 a03e a14e 793e f00e 133e aea3 46be
00000130: 0b8e 443e 5311 a43e 1646 f0be 9249 3abe
00000140: 55bb af3e fea1 aebf 1d1d 933e 684c 993e
00000150: b2be 11c0 dc95 143c 8873 823e 7d03 49c0
00000160: 722b abba 8675 e83e d260 98bf 970e ce3e
00000170: 45c4 77bd ba2a 60bf 6172 9e3e f190 3d3e
00000180: ab60 4dbf d994 8d3e fee1 a13e 0ec1 21bf
00000190: be48 163e 9838 4cbe b740 64bf 4474 9a3e
000001a0: 04c5 bbbd aae3 01bf 06b1 b33d 267f 063e
000001b0: 4b10 cdbe 1b93 a13e 219d 01bd 0831 acbe
000001c0: 99e5 ae3e a3f9 203e c069 3dbe f8a4 da3e
000001d0: bbdd b93d 9b69 22bb b216 593d 82ce 95be
000001e0: 7ee4 053f 38a7 a83d b86a 533d b379 2f3f
000001f0: 3055 493e 2903 223e 8f77 f93d 4652 713d
00000200: 7d61 1c3e 8287 0fbf 3ed2 2d3e 7fcd 863e
00000210: a8d9 52bf d669 833e 1ced d63e d6b8 a2bf
00000220: 28a9 813b f83f f43d 6101 01c0 cbc2 bc3d
00000230: 87c6 5cbc ba56 14c0 f12c 0d3e 4638 28be
00000240: 8aac 1ac0 27a5 bb3d 798b 1ebe 2c92 00c0
00000250: 031b fa3d 48b0 b8be 0975 5d3d d5d5 75bd
00000260: 372e 143e cea8 2abd 9e9e d9bc aaaf 213e
00000270: adbc 6cbd 2727 b0bc 50bb e03d 8d9d 26be
00000280: 0a26 9cbd 49f5 ba3d a089 8d3d f4e8 bbbe
00000290: 2766 2b3d f10e f1bd 52a0 7abe 1e74 843d
000002a0: 8a19 61bd 8e87 85bd a50e 1c3e 48e5 533e
000002b0: 834f dfbd 34d5 953d 6529 3b3e 235a 0abe
000002c0: f91d 183e c2d3 fc3d 63e5 6ebe 810e aa3d
000002d0: 22c2 67be 5859 8cbd 51be 5fbd e2c3 f13d
000002e0: 061b 773c 8488 bc3d 8415 0abd 26cc eabd
000002f0: f7f8 a43c 2d27 a9bd 7168 0ebe dc9a 87bd
00000300: 63c8 76ba 2548 243e be61 17be f3fb c4be
00000310: 6ea0 dcbd e026 383d 0bb7 22bd 5b06 adbd
00000320: 84b9 e2bd ed05 ca3d 93e2 4bbd f9c6 c43d
00000330: baf8 18bd 4653 bb3c 4171 1fbe b10d c53d
00000340: 0919 bb3d 5d2b 953d 3c12 42bd 6b44 3bbe
00000350: d2d5 063d ff2d aa3d 0650 aabd 14c4 df3d
00000360: 177e d2bd 8847 27be acc4 94bd 3f86 39be
00000370: 8552 d338 fa92 c6bd bb7e d1bd f258 733d
00000380: 7388 d1bd ca33 783d b01a 63bd 8cdf 3fbe
00000390: f5d4 a1be 8ced 8fbd 3702 21bd 3545 9dbe
000003a0: f42e febd a7c5 7a3d 930f f7bc 070b 18bb
000003b0: da0f 41bc 9751 283c b3d5 39bd f898 31be
000003c0: fc96 fd3c c952 98bc d408 55bc 9474 9a39
000003d0: 5dd1 84bd 6f78 7f3e 5413 c6bd b58a 72be
000003e0: 63e1 033e 748a a23e 65ea 65bc edee 713c
000003f0: be9b b2bd 2a39 e6bd 744c f0bd f23e 553e

base.critic.2.bias f4 [128]
-0.078563005 -0.05634243 1.2279019 -0.040157143 -0.0759701 0.8430972 -0.023104286 -0.052181244
-0.04166181 0.8172846 1.335581 -0.04459052 -0.043516457 1.3065515 1.3179102 -0.08600912
-0.018637279 -0.1483444 -0.18290046 1.0759659 1.2898334 1.314573 1.3028466 1.2299597
1.3190159 1.2988528 1.322021 -0.025123402 -0.02618795 -0.20142262 1.3197467 -0.3699757
1.3158906 -0.020001791 -0.055369824 -0.22039041 -0.05817108 -0.04880957 1.3268397 -0.07369834
-0.07175179 -0.0090642655 -0.008558252 1.3295485 1.3078848 -0.05384837 -0.07037794 -0.018818615
1.330564 1.3140823 -0.22523181 -0.010966343 -0.7730006 -0.845786 1.3227319 1.3207045
1.3281313 -0.11010978 -0.02402056 -0.036311332 0.1597299 1.2815624 -0.76470613 1.3248678
1.3129063 1.3108861 -0.06612561 1.2067462 1.283091 -0.03603281 0.3034415 -0.029192464
1.316671 -0.43731922 0.26408193 -0.05040373 1.3255551 1.3202537 -0.06470748 0.0
-0.15059493 -0.048134975 -0.014591705 -0.07679121 -0.067822546 -0.5462459 -0.023721898 -0.2523891
1.3240253 0.014064395 1.1249495 -0.027228154 -0.06882277 1.3251967 1.3102612 -0.0016587221
-0.025214627 -0.11733784 -0.02493176 1.2566228 -0.66210884 1.31237 0.0043617464 -0.031333495
1.3077445 -0.058269836 1.2609621 1.2974854 1.2777098 1.2995903 -0.06553976 -0.01161894
-0.0073401565 -0.013427785 -0.0653898 1.2569568 1.3221222 1.3231267 -0.07271869 1.1170427
-0.036109224 -0.05550284 -0.05081568 -0.09753855 1.3352712 1.3214302 -0.015318679 0.04159093
00000000: a4e5 a0bd 52c7 66bd e42b 9d3f d17b 24bd
00000010: 3696 9bbd 38d5 573f 3345 bdbc 00bc 55bd
00000020: 93a5 2abd 9039 513f 51f4 aa3f 8da4 36bd
00000030: 503e 32bd 143d a73f 48b1 a83f 8d25 b0bd
00000040: 35ad 98bc 98e7 17be 424a 3bbe 40b9 893f
00000050: 4319 a53f ee43 a83f adc3 a63f 526f 9d3f
00000060: 83d5 a83f cf40 a63f fc37 a93f 98cf cdbc
00000070: 1d88 d6bc bb41 4ebe 76ed a83f 746d bdbe
00000080: 1a6f a83f ccda a3bc 78cb 62bd 06ae 61be
00000090: cc44 6ebd 8bec 47bd e2d5 a93f 28ef 96bd
000000a0: 9af2 92bd 4982 14bc e937 0cbc a52e aa3f
000000b0: c568 a73f 1c90 5cbd 4f22 90bd 7f29 9abc
000000c0: ec4f aa3f d933 a83f 2ba3 66be 2dac 33bc
000000d0: 5ee3 45bf 6e85 58bf 474f a93f d80c a93f
000000e0: 3500 aa3f 3d81 e1bd c4c6 c4bc 31bb 14bd
000000f0: 3c90 233e 3d0a a43f c8c3 43bf 4595 a93f
00000100: 500d a83f 1ecb a73f dd6c 87bd a976 9a3f
00000110: 533c a43f 2497 13bd af5c 9b3e 0925 efbc
00000120: ad88 a83f 4ee8 dfbe bf35 873e 2474 4ebd
00000130: caab a93f 13fe a83f 5b85 84bd 0000 0000
00000140: 8f35 1abe 2e29 45bd 0c12 6fbc b644 9dbd
00000150: 8ce6 8abd c5d6 0bbf 6d54 c2bc 2539 81be
00000160: a979 a93f 596e 663c 58fe 8f3f 940d dfbc
00000170: f4f2 8cbd 0ca0 a93f a4b6 a73f 7a69 d9ba
00000180: e88e cebc d24e f0bd b13d ccbc 04d9 a03f
00000190: f77f 29bf bdfb a73f fbec 8e3b 8d57 00bd
000001a0: 2c64 a73f 5aac 6ebd 3567 a13f 0014 a63f
000001b0: ff8b a33f fa58 a63f b639 86bd 5e5d 3ebc
000001c0: b285 f0bb 3600 5cbc 16eb 85bd f6e3 a03f
000001d0: 4d3b a93f 375c a93f 89ed 94bd 41fb 8e3f
000001e0: 44e7 13bd f256 63bd 1a24 50bd 4bc2 c7bd
000001f0: 2bea aa3f a024 a93f 32fb 7abc 405b 2a3d

base.critic.2.weight f4 [128, 128]
0.055569988 -0.095648885 -0.18526061 -0.086329 -0.13490197 -0.10146495 0.02687464 0.117613584
0.018545818 0.011966637 -0.19753148 0.13274774 0.005051743 0.19679937 0.24304983 -0.14979345
-0.047605347 0.07407832 -0.13438787 -0.19837233 0.032775342 -0.13521746 -0.019090723 0.28956398
0.10026675 -0.16502333 0.12964608 -0.18652138 -0.052323535 0.14341865 -0.061628558 -0.077319846
0.040063504 -0.11846955 -0.04922562 0.05383969 0.0600328 -0.036742996 0.11859578 -0.027780851
0.12456551 0.15298803 0.013972372 -0.06578275 -0.010810612 -0.13823383 -0.024900718 0.15656078
0.11344167 -0.18398917 0.011349002 0.012028726 0.23046714 0.07940214 -0.061816707 0.0821419
0.10787861 -0.096571855 0.03646388 -0.11689711 -0.10293767 0.12684646 0.009730341 0.07950052
-0.1384769 -0.17808747 -0.096823454 0.08920348 0.1673811 0.039243232 -0.22016641 0.029716197
-0.023948867 -0.08039252 0.12794045 -0.16983268 0.019860452 -0.17200089 -0.049144145 0.059993763
-0.13126013 -0.28845808 0.06278913 0.07824457 0.014314497 -0.14085327 -0.023997528 -0.11216063
0.040304612 0.1550809 -0.06383206 0.044451304 0.078945085 -0.13198385 -0.17250109 -0.24501097
-0.036310602 0.0114214355 -0.078360625 -0.14428121 0.07875511 0.042722464 -0.020486796 0.03421161
-0.26393846 -0.09397275 0.0225112 -0.22485629 -0.16271836 -0.15026706 0.08624171 0.11364116
-0.29173243 0.08849593 -0.18141377 -0.014206811 0.20075251 -0.1057965 -0.06731395 0.124234244
-0.29374418 0.084258884 0.14808224 0.0074254754 0.021020617 -0.04021357 -0.2051957 -0.08064475
0.029061468 -0.1152469 0.20112036 -0.023684075 -0.0047483654 0.054948993 0.08509232 0.1321349
-0.0038313933 -0.044532478 0.113601245 0.045734756 -0.054269437 -0.05452103 -0.0030315276 0.251969
0.097303785 -0.04851605 -0.0019983412 0.0066011497 -0.1437672 -0.02870974 0.04582549 -0.13789509
-0.032496665 -0.029267348 0.18419434 -0.014758683 -0.38520083 0.15999746 -0.18275791 -0.17895134
0.065415524 0.05521056 0.1042603 -0.03287335 0.11721102 0.016893253 -0.07687907 0.05295799
-0.026998635 -0.08903796 -0.1118103 0.0422864 0.13367179 -0.11072519 -0.012493054 0.20215619
-0.09537227 0.15741004 0.05468187 -0.022932623 0.2568031 0.07821752 0.032135658 -0.11430353
0.061213046 -0.10679162 -0.010281525 0.005630416 0.053839047 -0.17230849 0.06813376 -0.35378024
0.112128906 0.055536237 0.28834724 -0.16445914 0.052858684 0.11152126 -0.19410805 0.032611072
-0.0861991 -0.26878235 -0.093485855 -0.056976907 0.20635931 0.09851701 -0.06565186 -0.1082636
-0.122875586 0.18218817 0.17167054 -0.066324055 -0.11844193 -0.020667749 0.14308561 0.12874378
0.044664938 0.015882012 -0.0056937933 0.043918263 -0.0721844 0.13607238 0.08988057 -0.06538289
0.10944383 0.21963422 -0.2643412 -0.052268066 -0.13672215 0.030183343 -0.026560452 0.15605515
-0.22918871 0.065263264 -0.07955901 -0.15889592 -0.045674052 -0.12795493 -0.14886488 0.027528493
-0.07820249 0.0060613714 0.0068829563 0.088529065 -0.0041015116 -0.2387273 -0.08405865 -0.13563494
0.045099042 0.24675378 -0.05464057 -0.12908849 -0.23845895 0.0016145834 -0.06925154 -0.006559196
00000000: 5b9d 633d 90e3 c3bd f5b4 3dbe 42cd b0bd
00000010: be23 0abe dbcc cfbd 3428 dc3c 64df f03d
00000020: 66ed 973c b70f 443c b145 4abe 06ef 073e
00000030: 1789 a53b c685 493e 0ee2 783e 7463 19be
00000040: d3fd 42bd 60b6 973d f99c 09be 1e22 4bbe
00000050: 703f 063d 7276 0abe 2664 9cbc bb41 943e
00000060: a758 cd3d e0fb 28be f1c1 043e 76ff 3ebe
00000070: 3451 56bd 57dc 123e 3a6e 7cbd de59 9ebd
00000080: a119 243d 2aa0 f2bd cea0 49bd 0287 5c3d
00000090: f4e4 753d d37f 16bd 58e2 f23d ab94 e3bc
000000a0: 341c ff3d e5a8 1c3e 60ec 643c 1bb9 86bd
000000b0: fe1e 31bc 2b8d 0dbe 97fc cbbc 7851 203e
000000c0: 1b54 e83d a867 3cbe 2af1 393c 2214 453c
000000d0: 94ff 6b3e 979d a23d 8433 7dbd 033a a83d
000000e0: 76ef dc3d 77c7 c5bd 265b 153d c167 efbd
000000f0: fcd0 d2bd 0ae4 013e 026c 1f3c 2bd1 a23d
00000100: e3cc 0dbe 905c 36be 604b c6bd 50b0 b63d
00000110: f365 2b3e 83bd 203d 4e73 61be 626f f33c
00000120: 6a30 c4bc d5a4 a4bd d202 033e 9ee8 2dbe
00000130: 63b2 a23c 0021 30be 5f4b 49bd 05bc 753d
00000140: 0e69 06be c7b0 93be 9697 803d b03e a03d
00000150: 5a87 6a3c d73b 10be 7796 c4bc 79b4 e5bd
00000160: 7316 253d 87cd 1e3e 62ba 82bd 9212 363d
00000170: f6ad a13d c626 07be 20a4 30be 28e4 7abe
00000180: 6dba 14bd f920 3b3c 897b a0bd 74be 13be
00000190: 5c4a a13d c0fd 2e3d edd3 a7bc 7921 0c3d
000001a0: f122 87be c974 c0bd 6869 b83c ba40 66be
000001b0: a49f 26be 9cdf 19be 7e9f b03d b2bc e83d
000001c0: f45d 95be 5b3d b53d 88c4 39be afc3 68bc
000001d0: 1192 4d3e d6ab d8bd e5db 89bd 866e fe3d
000001e0: a365 96be ec8f ac3d dfa2 173e 6751 f33b
000001f0: 6e33 ac3c fcb6 24bd d21e 52be 1329 a5bd
00000200: 5112 ee3c 9106 ecbd 7ff2 4d3e 1b05 c2bc
00000210: 2d98 9bbb 3212 613d e244 ae3d 5f4e 073e
00000220: 1d18 7bbb b067 36bd c5a7 e83d 5e54 3b3d
00000230: a149 5ebd 7251 5fbd 98ac 46bb 1502 813e
00000240: 3547 c73d c4b8 46bd 9af6 02bb 754e d83b
00000250: b537 13be b030 ebbc 82b3 3b3d 5f34 0dbe
00000260: 391b 05bd 14c2 efbc 719d 3c3e 67ce 71bc
00000270: 0b39 c5be 60d6 233e e424 3bbe 053f 37be
00000280: 93f8 853d 7824 623d 6d86 d53d 35a6 06bd
00000290: 550c f03d b863 8a3c c672 9dbd 7aea 583d
000002a0: 3e2c ddbc 8959 b6bd ccfc e4bd 8134 2d3d
000002b0: 42e1 083e e3c3 e2bd abaf 4cbc 0802 4f3e
000002c0: 8952 c3bd 1930 213e 19fa 5f3d 32dd bbbc
000002d0: b27b 833e 8230 a03d aea0 033d f817 eabd
000002e0: 88ba 7a3d 91b5 dabd d773 28bc 5a7f b83b
000002f0: 5586 5c3d a371 30be b689 8b3d af22 b5be
00000300: d7a3 e53d f779 633d 40a2 933e fa67 28be
00000310: 5982 583d 4265 e43d 43c4 46be 3093 053d
00000320: 2789 b0bd d79d 89be 8375 bfbd 9e60 69bd
00000330: db4f 533e 49c3 c93d 7b74 86bd 4eb9 ddbd
00000340: 32a6 fbbd 898f 3a3e 67ca 2f3e e8d4 87bd
00000350: af91 f2bd 694f a9bc 0985 123e 69d5 033e
00000360: 95f2 363d fe1a 823c 0093 babb a3e3 333d
00000370: 6ad5 93bd 8f56 0b3e 4e13 b83d 77e7 85bd
00000380: 1624 e03d cbe7 603e bb57 87be 0a17 56bd
00000390: e400 0cbe 0f43 f73c 4e95 d9bc eccc 1f3e
000003a0: 72b0 6abe bfa8 853d d6ef a2bd 9db5 22be
000003b0: b714 3bbd 9e06 03be 0970 18be 6f83 e13c
000003c0: a128 a0bd 789e c63b 6c8a e13b ba4e b53d
000003d0: f965 86bb ee74 74be f126 acbd e3e3 0abe
000003e0: c6b9 383d 06ad 7c3e cace 5fbd c62f 04be
000003f0: 952e 74be 6ea0 d33a c0d3 8dbd 86ee d6bb

base.critic_linear.weight f4 [1, 128]
-0.0063599832 -0.07915044 0.64369625 -0.0036919306 -0.10088152 0.8340387 -0.00417016 -0.405652
-0.043057237 0.66447115 0.7710241 0.13906886 -0.27639788 0.6058989 0.7237229 -0.47244367
0.0020899442 -0.053341344 -0.75241226 0.76186615 0.6336813 0.66666466 0.7561473 0.86169416
0.79159427 0.6723285 0.70933026 0.07167791 0.12396414 -0.011580363 0.7492202 -2.6109204
0.7311172 -0.13130797 0.19925691 -0.15593837 -0.047253396 -0.04670158 0.64391 -0.24059175
-0.032357976 -0.06879031 -0.04723212 0.6855551 0.6023015 0.013106683 -0.052811254 0.15179463
0.7364776 0.77125514 -0.90046835 0.16580337 -3.165141 -3.9062219 0.98012733 0.7714617
0.78044814 -0.09867361 -0.06358121 -0.2804082 0.33633733 0.6448228 -2.289288 0.68544936
0.65793055 0.7381394 -0.008661494 0.680837 0.7625108 -0.024672989 0.54527766 -0.09632148
0.6617664 -2.324377 0.2932999 0.06495075 0.65173405 0.8804697 -0.049940273 0.16710383
-1.2837809 -0.096402 -0.23809256 -0.06319089 -0.50900966 -2.2780962 -0.20293596 -0.07711522
0.76972944 0.031984165 1.0256472 -0.12321442 -0.06857281 0.7893942 0.6967106 0.034719255
-0.07958368 0.021934422 -0.105765544 0.61901474 -2.1285965 0.6920591 0.036131814 -0.056331564
0.6558459 0.013638809 0.6231623 0.79832923 0.8121744 0.7705954 -0.070417926 -0.15660049
0.08895235 0.017688924 -0.023075929 0.75105286 0.6611083 0.65150726 -0.075044416 0.90013975
-0.01068815 -0.018289767 0.047377042 -0.053537507 0.64343625 0.9116387 -0.19637918 0.36832494
00000000: 6867 d0bb a019 a2bd 47c9 243f 51f4 71bb
00000010: f89a cebd 8f83 553f d6a5 88bb 9eb1 cfbe
00000020: c95c 30bd c81a 2a3f d661 453f 1168 0e3e
00000030: 0684 8dbe 311c 1b3f e745 393f 23e4 f1be
00000040: 72f7 083b 747c 5abd 179e 40bf a909 433f
00000050: f038 223f 89aa 2a3f df92 413f fd97 5c3f
00000060: eca5 4a3f b81d 2c3f ab96 353f decb 923d
00000070: e9e0 fd3d 90bb 3dbc e5cc 3f3f 5219 27c0
00000080: 7f2a 3b3f 9975 06be 010a 4c3e 4fae 1fbe
00000090: c78c 41bd 284a 3fbd 49d7 243f af5d 76be
000000a0: cc89 04bd efe1 8cbd 7876 41bd 8a80 2f3f
000000b0: 6e30 1a3f 6abd 563c 9d50 58bd 0d70 1b3e
000000c0: cc89 3c3f fa70 453f 1885 66bf 5cc8 293e
000000d0: ac91 4ac0 8aff 79c0 a0e9 7a3f 847e 453f
000000e0: 73cb 473f 6415 cabd de36 82bd aa91 8fbe
000000f0: 6834 ac3e 1b13 253f b283 12c0 9c79 2f3f
00000100: 236e 283f b4f6 3c3f f0e8 0dbc 554b 2e3f
00000110: e833 433f 021f cabc 5197 0b3f 3244 c5bd
00000120: 8669 293f 98c2 14c0 682b 963e e604 853d
00000130: 0bd8 263f 7666 613f 2c8e 4cbd 441d 2b3e
00000140: ef52 a4bf 696e c5bd 89ce 73be 3a6a 81bd
00000150: 754e 02bf 54cc 11c0 72ce 4fbe 96ee 9dbd
00000160: fd0c 453f d401 033d 6848 833f d857 fcbd
00000170: e76f 8cbd bd15 4a3f a05b 323f c735 0e3d
00000180: c5fc a2bd d1af b33c 9b9b d8bd c077 1e3f
00000190: ed3a 08c0 c92a 313f f4fe 133d edbb 66bd
000001a0: 84e5 273f 5075 5f3c 9187 1f3f 4e5f 4c3f
000001b0: a9ea 4f3f bd45 453f 4637 90bd e15b 20be
000001c0: a62c b63d 5de8 903c bb09 bdbc 0045 403f
000001d0: 653e 293f 2ec9 263f e3b0 99bd 8f6f 663f
000001e0: 5a1d 2fbc 6cd4 95bc 6e0e 423d 254a 5bbd
000001f0: 3db8 243f 2761 693f a017 49be 1695 bc3e

dist.fc_mean.0.bias f4 [3]
-0.08373648 0.08623759 -0.08370353
00000000: 087e abbd 559d b03d c26c abbd

dist.fc_mean.0.weight f4 [3, 128]
-0.23028208 -0.029848825 0.20987703 0.11234239 -0.09929733 0.11174173 -0.014824062 -0.045771454
-0.49331233 -0.0027121583 -0.26215938 -0.21047798 -0.13820341 0.043296892 -0.061504405 0.03420503
0.27798557 0.044173073 0.10704954 0.46340713 -0.33409923 -0.5807333 -0.31697273 0.25768095
0.14230902 -0.24315433 -0.16173488 0.21655634 -0.24320337 -0.03910295 -0.6485234 -0.236229
0.08615597 -0.21779215 -0.1376941 0.20107687 -0.048865795 -0.102866836 0.055522937 0.42217916
-0.032780293 0.28428108 -0.050643098 -0.07242315 0.026467435 -0.9235149 -0.1831116 0.57361823
0.15839605 -0.16898744 0.0037441712 0.105758816 0.30679625 -0.16445903 0.43664792 0.07688029
-0.313693 -0.06923639 0.61758786 -0.19102901 -0.5917794 -0.5576866 -0.31347457 -0.06716305
-0.049262762 0.34429663 0.35619992 -0.017605985 -0.2251814 -0.110834956 0.0001041014 -0.0740947
0.40335506 -1.0706387 -0.9903705 -0.14915808 -0.1825915 0.44385093 1.0302637 1.1850756
0.043800827 0.5430554 -0.1340326 0.062357377 0.020618957 -0.5645895 -0.28400332 0.6304989
-0.023068236 -0.45121604 -0.12385374 1.6827878 -0.3350981 0.0822956 -0.20017937 -0.23953047
-0.01318288 -0.26593867 0.13464925 0.0914261 0.15738775 -0.3163665 0.5894604 -0.0125217065
-0.379987 0.4102282 -0.7957049 0.137161 -0.083025694 -0.6793605 -0.38545436 -0.2880737
0.013085456 -0.1716728 0.24206966 -0.49504155 0.13691954 -0.22662163 -0.052905418 -0.102468126
0.09585112 0.40107188 0.06395891 -0.1249005 -0.08364633 -0.48872313 0.32764032 0.08898629
0.28213564 -0.8066341 -0.7692558 0.097118 -0.014667602 -0.026245546 -0.07353574 -0.06588657
-0.8237014 0.22876807 0.05620373 0.28493357 -0.1871139 -0.013143233 0.32611743 -0.29446116
-0.09455816 -0.0054492583 0.09888277 -0.35047022 0.1059703 -0.51661485 0.24145852 -0.3038604
0.13958758 0.025836518 -0.63465905 0.036400028 -0.34166053 -0.096819684 0.14215513 0.13326754
0.030785268 -0.36792332 0.027256183 -0.47883794 -0.32059133 -0.0029884418 0.22415622 -0.13063574
-0.13256551 -0.28173795 0.07325938 -0.05898535 0.1279941 -0.15307625 -0.4246855 -0.24881287
-0.0031950532 0.074024 -0.5674175 0.035927285 -0.0953936 0.027789311 -0.5120919 0.25043526
-0.52856004 0.0430066 0.3025024 -0.27105996 -0.7805641 -0.18321034 -0.33538812 -0.13360973
0.06132319 -0.7452577 -0.15600595 -0.10083895 0.16174346 0.41056326 0.2543673 -0.019710425
-0.45092764 0.21226387 0.2911049 0.08659556 0.0003427451 -0.05414 -0.30747828 -1.2821677
0.0295986 -0.7172454 0.26129356 0.014052886 -0.2283738 0.2278145 0.16304423 -0.56651103
-0.032121647 -0.48388898 -0.046463568 -1.569192 -0.31761417 0.09795346 0.120290175 -0.17166945
0.1672542 -0.7000456 0.12537856 -0.15205002 -0.072814934 -0.4844789 -0.12507482 -0.37241447
-0.36452863 0.12732811 -0.49188918 -0.10689014 0.10655358 -0.1377072 0.2050638 -0.77821213
-0.108193696 -0.124009944 0.07571844 0.11107118 -0.12186606 -0.017527554 -0.27623656 0.15118733
0.020218877 -0.6152715 -0.0034022257 -0.0020825977 0.19188923 0.24162011 -0.22156416 0.21093442
00000000: 11cf 6bbe 8685 f4bc 01ea 563e c413 e63d
00000010: 665c cbbd d9d8 e43d 9fe0 72bc d97a 3bbd
00000020: 6f93 fcbe 77be 31bb c139 86be 8a87 57be
00000030: 3285 0dbe 1558 313d 0bec 7bbd 931a 0c3d
00000040: 2054 8e3e d3ee 343d ca3c db3d b343 ed3e
00000050: 0e0f abbe f0aa 14bf 404a a2be c2ee 833e
00000060: 75b9 113e 73fd 78be d49d 25be f2c0 5d3e
00000070: 4e0a 79be 6a2a 20bd a105 26bf 04e6 71be
00000080: 8b72 b03d e804 5fbe afff 0cbe 18e7 4d3e
00000090: 8027 48bd d9ab d2bd 056c 633d de27 d83e
000000a0: a144 06bd 4a8d 913e 236f 4fbd 9752 94bd
000000b0: 3cd2 d83c 796b 6cbf 9b81 3bbe a5d8 123f
000000c0: 9332 223e 0b0b 2dbe c560 753b 1498 d83d
000000d0: 6614 9d3e f367 28be 5190 df3e 6a73 9d3d
000000e0: 5e9c a0be cfcb 8dbd 3d1a 1e3f 1c9d 43be
000000f0: db7e 17bf 8dc4 0ebf bd7f a0be c88c 89bd
00000100: c0c7 49bd a647 b03e d65f b63e 6d3a 90bc
00000110: f495 66be 70fd e2bd 0351 da38 f6be 97bd
00000120: 8e84 ce3e b00a 89bf ec88 7dbf e5bc 18be
00000130: 44f9 3abe 6e40 e33e aedf 833f 8fb0 973f
00000140: 7f68 333d ae05 0b3f d83f 09be 736a 7f3d
00000150: 16e9 a83c f088 10bf e268 91be 6068 213f
00000160: 99f9 bcbc ca05 e7be 08a7 fdbd 9765 d73f
00000170: fa91 abbe 988a a83d d2fb 4cbe 7a47 75be
00000180: 02fd 57bc 1d29 88be 7ee1 093e 9b3d bb3d
00000190: 412a 213e cafa a1be e0e6 163f d827 4dbc
000001a0: a88d c2be 6e09 d23e 51b3 4bbf ef73 0c3e
000001b0: 6009 aabd 92ea 2dbf 465a c5be 657e 93be
000001c0: 6164 563c ffca 2fbe 1ce1 773e 1676 fdbe
000001d0: a334 0c3e 800f 68be 5ab3 58bd cfda d1bd
000001e0: 984d c43d 4b59 cd3e e4fc 823d d5cb ffbd
000001f0: c44e abbd eb39 fabe 79c0 a73e 723e b63d
00000200: 1574 903e 937f 4ebf f3ed 44bf cde5 c63d
00000210: 6250 70bc e600 d7bc e899 96bd 8aef 86bd
00000220: 18de 52bf 2d42 6a3e e235 663d d0e2 913e
00000230: c99a 3fbe b756 57bc ddf8 a63e 9dc3 96be
00000240: b5a7 c1bd b18f b2bb 0d83 ca3d d570 b3be
00000250: f506 d93d df40 04bf e740 773e 9793 9bbe
00000260: 0cf0 0e3e 1ba7 d33c 0479 22bf 3218 153d
00000270: 21ee aebe 6649 c6bd 1d91 113e 4977 083e
00000280: 6331 fc3c 7260 bcbe 5c48 df3c 3f2a f5be
00000290: 8c24 a4be bcd9 43bb 3589 653e 60c5 05be
000002a0: 41bf 07be f53f 90be 0409 963d 9f9a 71bd
000002b0: e310 033e 05c0 1cbe 6170 d9be cdc8 7ebe
000002c0: 1964 51bb e599 973d 4642 11bf 7d28 133d
000002d0: b85d c3bd 69a6 e33c 7418 03bf 0d39 803e
000002e0: b64f 07bf b027 303d 98e1 9a3e 5fc8 8abe
000002f0: 0dd3 47bf 7e9b 3bbe feb7 abbe fdd0 08be
00000300: 062e 7b3d 35c9 3ebf 06c0 1fbe a784 cebd
00000310: 14a0 253e 5935 d23e 6e3c 823e c277 a1bc
00000320: fddf e6be b35b 593e b40b 953e 0359 b13d
00000330: 78b2 b339 e8c1 5dbd cb6d 9dbe 121e a4bf
00000340: c378 f23c 659d 37bf 45c8 853e 133e 663c
00000350: d2da 69be 3448 693e 11f5 263e de06 11bf
00000360: fd91 03bd 4cc0 f7be 9550 3ebd 49db c8bf
00000370: 539e a2be d39b c83d b25a f63d 1eca 2fbe
00000380: af44 2b3e 3036 33bf 3d63 003e 00b3 1bbe
00000390: ff1f 95bd 9e0d f8be 9d13 00be 1cad bebe
000003a0: 7fa3 babe 4d62 023e e6d8 fbbe 38e9 dabd
000003b0: c338 da3d 1e03 0dbe 3ffc 513e e938 47bf
000003c0: a894 ddbd edf8 fdbd 4512 9b3d 4979 e33d
000003d0: ea94 f9bd f295 8fbc e16e 8dbe dad0 1a3e
000003e0: 0fa2 a53c 6f82 1dbf e0f7 5ebb 317c 08bb
000003f0: 9c7e 443e 436b 773e b7e1 62be 31ff 573e
