OpenRDW/Assets/OpenRDW/Resources/SRLNet_30.onnx (onnx, 167857 bytes, 12 tensors)

39 f4 [1, 3]
00000000: 518d 93be 7bc2 f9be a435 dcbe
-0.28818753 -0.4878119 -0.43009675

base.actor.0.bias f4 [128]
00000000: 0eab e73e 3e65 1c3e 6966 ee3c 3e2c 923e
00000010: 0cdf dd3e c37e 8e3e aa34 fb3c ccbe 843c
00000020: cc8d 2bbe 0f81 ebbe 94d9 343e 81b3 f5bd
00000030: a51f 63be 7cf8 d5be 4365 733d 8ebf 90bc
00000040: ff4e 20bf af60 e83e 08f5 d5be 9bbf b5be
00000050: 92bd 37be ba3d 37bd dc5b 82bd 2dd8 813d
00000060: 0000 0000 2b53 fe3c 7f9a 09be 791d 933e
00000070: 05fd 5d3d 0585 9ebd f2e4 1fbe e538 2f3e
00000080: ce4b eebd 3f75 d9be 7739 03bd d4f1 02be
00000090: 0169 5abe 5f77 b1be 75e1 2f3f 112b 01bf
000000a0: 1f27 f33d 862f 1e3f 2a3c 3fbe 1f96 6d3d
000000b0: 58d6 abbb 3d82 85bd 581b 95bd 6309 0e3d
000000c0: 245f 943b e9ff b63d 19f5 5e3e d6c4 b8bc
000000d0: e4b9 3dbf 0d02 21bf b5bd dd3d 2135 1dbf
000000e0: b479 41bf 838b 3bbe 2fea 143d 498f ed3e
000000f0: c646 e53c 07e4 2f3e dedc 5bbe 81e4 f4bd
00000100: 95ea 44bf d5a0 a1bd 8f08 39bd e597 7dbd
00000110: 38a7 183c 4f89 05be 4c7e 643a 6ca2 6cbe
00000120: 3f80 59bd 2754 b33c 0148 88bd 360b 9ebe
00000130: dc2a 903e a210 6f3c c284 f13d 7f87 99bc
00000140: 9b1b 483d f1ff 1cbd 02db b1bc 46dd 57be
00000150: 6f44 f83e 9c98 f63d 80b7 e0bd 901b b2be
00000160: fec9 13bf 3985 ee3b 45b6 0dbe 6f87 de3c
00000170: 8e6c 3cbe b9e4 5fbc 220e 2bbf cda9 16bd
00000180: 295e 20bd daea 093e 26f4 99ba 653e ea3e
00000190: ded2 d2bc 653f 4ebe 9510 53bf 020d b0bc
000001a0: 32cb ef3e de6f e9be 975f 85bd ad61 82be
000001b0: 1a77 a2bc 805a 58be fc76 1f3e 54bb b1be
000001c0: 9102 2f3e 8db8 2a3e ce84 473e d884 c5be
000001d0: e71e fa3e 406b b33e 919e 4cbc 0ba3 bb3d
000001e0: 0c0d a6bd 3716 abbc 910c 7abd 3f72 53bd
000001f0: b47f 2cbf 2be1 8f3d 3b30 ecbe dd0a 30bb
0.45247692 0.15272996 0.029101567 0.2854938 0.43334234 0.27831087 0.03066476 0.01620426
-0.1675331 -0.459969 0.17661124 -0.11997128 -0.2218004 -0.4179114 0.059422743 -0.017669465
-0.6262054 0.45386264 -0.41788507 -0.35497746 -0.17943409 -0.0447366 -0.06365177 0.063400604
0.0 0.031045517 -0.13437842 0.28733423 0.054196376 -0.07740215 -0.1561468 0.17111547
-0.11635552 -0.42472264 -0.032037225 -0.12787563 -0.21329118 -0.34661385 0.68703395 -0.5045634
0.11872696 0.61791265 -0.18675295 0.058004495 -0.0052440576 -0.065189816 -0.07280606 0.03467692
0.004527943 0.0893553 0.21773185 -0.022554796 -0.7411177 -0.62893754 0.10827199 -0.61409193
-0.7557633 -0.18314938 0.036356147 0.4639838 0.027987849 0.1717683 -0.21470973 -0.11957646
-0.76920444 -0.078920044 -0.045174178 -0.061912436 0.009317212 -0.1304066 0.00087163295 -0.23108834
-0.05310082 0.021890713 -0.06654359 -0.30867928 0.281577 0.014591368 0.117929 -0.018741367
0.04885445 -0.038330022 -0.021710876 -0.21080503 0.4848971 0.12040827 -0.109725 -0.34786654
-0.5773009 0.007279065 -0.13839062 0.02716419 -0.18400785 -0.013665372 -0.6681844 -0.03678303
-0.039152298 0.13468495 -0.0011745736 0.45750728 -0.025735315 -0.2014137 -0.8244718 -0.021490578
0.46834713 -0.4559316 -0.06512373 -0.25465146 -0.019832183 -0.21128273 0.15572733 -0.34713233
0.17090823 0.16671963 0.19484255 -0.38577914 0.48851702 0.35042763 -0.012488977 0.09161957
-0.08107957 -0.020884616 -0.06104714 -0.051622625 -0.6738236 0.07025369 -0.46130547 -0.0026861944

base.actor.0.weight f4 [128, 30]
00000000: 791e a6be ebd3 43bd b041 68be 034e b7be
00000010: 8a02 e2bc d896 edbc 3570 f9be 27d0 193e
00000020: b92d c63d 9181 04bf d0cf b8bd 49dc 36bc
00000030: 2b1a 8fbe d1a3 453d df2b 3abe 4b4e 9abe
00000040: 7386 ce3d 59d1 0dbe 5d27 0bbe f3d4 17be
00000050: 4855 923e d171 bebe 4c25 44be 5141 adbe
00000060: 548f fdbd 3e53 c0bd 838b 0ebe 1a0d 86be
00000070: 0c5d 6abe 1025 0bbf 2e79 a63c eb86 463c
00000080: d150 ad3e 9dc2 e3bd 6a4c 15be 5c15 593e
00000090: 11fd 30be 6fb4 c5bc 9564 323e 8f8c 64be
000000a0: 9496 79be 93f1 b03d 63c6 f0bd 24f0 36be
000000b0: d80a ac3e f190 23be 8817 0c3d cbb3 7a3e
000000c0: f9aa 65be a956 8abe 2c4c 4c3e 5eca 91be
000000d0: 25fb 05be 457e f93e c337 29be feeb 90bd
000000e0: d8ad 9bbe cd40 53be 76b1 c6bd c9f1 00be
000000f0: b199 f33c 8e0a 80be 1580 463d d583 0bbe
00000100: 18ca 14bf 4f5c e9bd a422 903d ae1e f7be
00000110: 1716 2f3e 75e4 bdbd 443e 1bbf 7ce9 443d
00000120: 12b5 133e 9aeb cfbe 674e 24be 7f3b 25bc
00000130: e669 12bf 3bdb d23e 7055 53be 482a c2be
00000140: 35b6 c4bd fcf2 afbd 09e1 e4be f275 e83e
00000150: 7240 e13d 8b21 28bf 307c ca3e 80ee 82be
00000160: ad4e e4be 34e0 193f e451 093d 9217 763d
00000170: f1da 79be 3651 54be 05d8 2bbd 5317 bdbe
00000180: 10cf 2a3b fca1 053e ab15 26be e001 d4bd
00000190: a9f3 cbbc 8671 b1be a27b ccbd d0a4 733e
000001a0: ccc4 cabe 8876 e53d 553f 91bd e137 e7be
000001b0: 2548 23be b20d 9a3d e0d3 15be 0b2f d2bd
000001c0: ab3c 26be 9c2b b8be 59f4 5cbe 3276 4c3e
000001d0: 1801 7cbe a971 bcbe 9fd1 e4bd e4e8 a03e
000001e0: 21ce 5f3c 1603 003f efc9 a0be 45d0 413e
000001f0: 631f ea3d 5a72 2dbf 5f6d adbd 1bd0 d23e
00000200: 92fe 4cbf 88ec 76bc fa9c 273e c145 68bf
00000210: 79e2 e5bc 4cdc 063c d93e 1ebf c3f6 303d
00000220: 9c5f ed3d abc5 aabb 4e6a 1fbe 7456 0bbe
00000230: 336b 8cbd 599c dd3d 14ee cebc c30b 0fbf
00000240: bda7 68be 001f f13d 660b 403d 7229 c2be
00000250: a7c3 243e 123e 91bd 6859 553e 9186 1fbe
00000260: 0662 9dbe ebbd 093e c3c3 e2bd 04d7 fcbe
00000270: df2e 423e e2d3 d03d 8ee1 24bf cee0 2b3e
00000280: 0f06 163e de12 aabd 8fcc 31bd 4777 a83e
00000290: 558c 20be 4806 5f3d f461 df3d 05e7 debe
000002a0: 121d 0abd 1b02 d93b 2f63 f6be 670d b93d
000002b0: 9ac9 9b3c 715a e63e 3f3a a0bd fcb3 aebd
000002c0: 9eb6 c33e d65b 04be 53d8 413d 20cd bd3e
000002d0: 6e3b 103d b8a0 1abe 459a 503e 71b0 973e
000002e0: a8fd 083c ec62 51bd cbd7 b03d 6603 1f3c
000002f0: 1f7e 19be 2f5f 283e fb9d a4ba ea99 0bbe
00000300: 51ad 483e 32dd 913d 8444 87bb e11c f63d
00000310: 5114 223e c770 f63d 2335 943d 8722 bbbd
00000320: 2f76 58bd 29d9 5a3e 3584 103e 5430 7dbe
00000330: 416e 98bc e197 bfbd 06a6 53bd 8fc1 2d3b
00000340: 4165 fa3c 4056 20be 3264 27be 6fb3 68bc
00000350: e724 8a3e 3514 91be c340 6ebe b3fb 92be
00000360: 99e4 95be 6746 12be d229 24bd 27b0 a8be
00000370: f26e 893d 0238 febd fa3b 9abe 4f1e c23d
00000380: 5b8d 05bf 8ce9 94be adef 07bd 0934 84be
00000390: 8a17 f0bd 5724 553d b9ff b0be b5eb 56be
000003a0: 80fa e2bd d3fb a2be 9e23 00be 49b2 c03d
000003b0: 2c7c f0bd dc9b f7be 6119 92bd f90e 6fbd
000003c0: 6016 21be baa3 20be 4ba9 b43d ba0e 36bd
000003d0: daa9 d8be 2049 d9bd e1da 02be 41e1 d3bd
000003e0: e2f2 49be 5fc7 80be d314 973b d744 8abd
000003f0: 066e b4be 4963 cdbd 0f66 9a3e cbbd 103d
-0.32445124 -0.047809523 -0.22681308 -0.35801706 -0.027589101 -0.029002592 -0.4871842 0.1502081
0.0967669 -0.517602 -0.09024012 -0.0111609185 -0.27949652 0.04825193 -0.18180798 -0.30137858
0.10084238 -0.13849391 -0.13589235 -0.14827327 0.2858069 -0.3719621 -0.19154853 -0.33838895
-0.12380853 -0.09390877 -0.13920407 -0.2618187 -0.22887057 -0.5435343 0.020321455 0.012117128
0.3385072 -0.11121104 -0.14579931 0.21199554 -0.17284037 -0.024133889 0.17421181 -0.22319244
-0.24373847 0.086398266 -0.11756589 -0.17865044 0.33602023 -0.1597326 0.03420213 0.24482648
-0.22428502 -0.2701924 0.19950932 -0.28474706 -0.13084085 0.48729149 -0.16525178 -0.07076262
-0.3040607 -0.20630188 -0.09701817 -0.12592234 0.029736372 -0.25008053 0.048461992 -0.13624509
-0.5812087 -0.113945596 0.07037857 -0.48265594 0.1709827 -0.0927209 -0.60641885 0.04807423
0.14424542 -0.40609437 -0.16045533 -0.010084986 -0.5719284 0.41182885 -0.2063806 -0.37922883
-0.09605066 -0.085912675 -0.44702938 0.45402485 0.1099862 -0.6567618 0.39547873 -0.25572586
-0.44591275 0.6010773 0.033525363 0.060081072 -0.24399926 -0.20734105 -0.04195406 -0.36931857
0.002606336 0.13050073 -0.16219203 -0.1035192 -0.02489646 -0.34656924 -0.099845186 0.2379334
-0.3960327 0.11204249 -0.07092158 -0.4515982 -0.1594549 0.075221434 -0.14631605 -0.10262879
-0.1623408 -0.3597077 -0.21577586 0.19966963 -0.24609792 -0.36805466 -0.111727946 0.3142768
0.013659985 0.5000471 -0.31404063 0.18927105 0.11431768 -0.6775261 -0.084681265 0.41174397
-0.80075943 -0.015071042 0.16368476 -0.90731436 -0.028062092 0.008231234 -0.6181465 0.04320408
0.11590502 -0.005211552 -0.15567896 -0.13607198 -0.06856384 0.108208366 -0.025260009 -0.5587732
-0.22720237 0.11773491 0.04688587 -0.37922245 0.1609026 -0.07091917 0.20834887 -0.15578677
-0.30738848 0.13451354 -0.11072495 -0.49382794 0.18963192 0.101966634 -0.6440667 0.16784975
0.14650749 -0.0830438 -0.043407973 0.329035 -0.15678532 0.05444935 0.10907355 -0.4353563
-0.03371913 0.0066225654 -0.48122546 0.090357594 0.01901703 0.44990876 -0.078236096 -0.08530423
0.38225263 -0.12925658 0.047325443 0.3707056 0.035212927 -0.15100372 0.20371349 0.29626802
0.008361258 -0.05111973 0.08634909 0.0097054 -0.14989518 0.1644256 -0.0012559289 -0.13632932
0.19597365 0.07122268 -0.0041280407 0.12017227 0.15828063 0.12033229 0.072366975 -0.09137445
-0.052847084 0.21371903 0.14112933 -0.24725467 -0.01860726 -0.093551405 -0.051672004 0.0026513075
0.03056586 -0.15657902 -0.16346815 -0.014202937 0.2698128 -0.2833573 -0.23266892 -0.28707656
-0.2927597 -0.14284669 -0.040078945 -0.32946894 0.06710614 -0.124130264 -0.30123883 0.09478437
-0.52168816 -0.29084432 -0.033187557 -0.2582095 -0.1172324 0.05203661 -0.345701 -0.20988353
-0.11082935 -0.31832752 -0.12513587 0.09409005 -0.11742434 -0.483611 -0.07133747 -0.05836389
-0.15731192 -0.15687457 0.088213526 -0.044447638 -0.42317086 -0.106096506 -0.12778808 -0.10345698
-0.19721559 -0.25152108 0.0046106367 -0.067514114 -0.3524019 -0.10028703 0.3015599 0.03533725

base.actor.2.bias f4 [128]
00000000: 374b 16bd bc8a 4cbe 3ddf 45bf 6a7b 03bc
00000010: 14e4 38be 59f3 9abe 8d5a 1b3e 5e26 96be
00000020: 10d2 a93d 2846 78bc 3506 2b3e 95b6 57bc
00000030: 3d7f 3abd dc4b 20bf 1971 f9bc 79eb 0bbe
00000040: 2a7e 35be 3d19 993e 106f f63c 4338 b73e
00000050: a111 20be 4823 a73d 8ea4 03be 436b 06bd
00000060: bb95 51bc 2505 27be cd8e e2be e6d3 bbbe
00000070: 08fd 8b3e e54c 12be 26ad 473e fe13 85bd
00000080: 8977 acbd 9d50 633e 0544 f9be 5ff1 06be
00000090: 185e f8bd 486e c7be 2684 4a3e 04e9 8b3d
000000a0: c736 9dbd e51b 73be b9d8 933e 82d1 36be
000000b0: c4bf 10bd f59b c2bd 418b 26be 111f 6ebc
000000c0: 9936 04be 70ed 99bd 3824 f03d 5ad3 433e
000000d0: 5999 81bd 5dd7 bcbe 26c0 0e3d b2a9 1a3d
000000e0: 32dd 33bf 6b17 3bbe 6085 b03e 6b2d 333c
000000f0: 4f67 85bc e0d7 23bb ab2e f33d 0335 67be
00000100: 3242 7abe 429f 983e a1dd ecbd 606d 92be
00000110: 119e 123c 2d51 0ebf b2fb 09be 706e 17be
00000120: e412 8bbd 3ac9 0dbe ea69 b83d 4207 2fbe
00000130: 795f a9be d16d 03be db05 a7bd 026a 0b3e
00000140: c62c 273e c848 bebd 6cc8 963d cd72 9f3e
00000150: 02e9 68be 464c 083d a76d bc3d 662d 26be
00000160: 3f07 8abd 91e3 ddbc 9a3f 1dbe 7e06 dbbd
00000170: 0a8b 4bbf f891 23bd 13aa c4bd 466e 4fbe
00000180: eb5a 4dbe 5391 ab3c 6418 48be d07a 45bd
00000190: f18f cfbb 50af 1e3d 7990 d4bd c567 8abe
000001a0: 5f11 16bf 93b9 a7be 5f4b f3be 94bd 5c3e
000001b0: 49d6 37be 3ed3 1b3d 2b33 29be 8682 04be
000001c0: c984 8e3c c9af acbe e036 b4be 1e9e 9bbd
000001d0: bc49 10be ed36 5dbe db31 7fbe 0eb6 8abd
000001e0: 84f5 b33c b256 97be 008d 71be 18e7 b4bc
000001f0: 6f46 babd 9770 d73d 12d2 aa3e b4ed 93bd
-0.036692824 -0.19974798 -0.7729376 -0.00802503 -0.18055755 -0.30263785 0.15171261 -0.29326147
0.08292019 -0.015153445 0.16701587 -0.01316609 -0.0455315 -0.6261575 -0.030449437 -0.13664044
-0.17723909 0.29902068 0.030082256 0.35785112 -0.15631725 0.08161026 -0.12855741 -0.032817136
-0.012792046 -0.16310556 -0.44249573 -0.36685103 0.27341485 -0.14287145 0.19499645 -0.06497954
-0.08421237 0.2219872 -0.48684707 -0.13178013 -0.12127322 -0.38951325 0.19776973 0.068315536
-0.076764636 -0.2374111 0.28876284 -0.17853358 -0.035339132 -0.09502403 -0.16264059 -0.014533774
-0.12911452 -0.07515991 0.11725658 0.19123593 -0.06328077 -0.3688306 0.034851216 0.03775949
-0.7025939 -0.18270652 0.34476757 0.010936121 -0.016284613 -0.0025000498 0.118741356 -0.22578816
-0.24439314 0.29809004 -0.1156571 -0.28599072 0.008948819 -0.55592614 -0.1347492 -0.14788222
-0.067907125 -0.13846293 0.090045765 -0.17092612 -0.33080652 -0.1283486 -0.08155414 0.13614658
0.16325673 -0.09291226 0.07362446 0.31142274 -0.22745135 0.033275865 0.09200602 -0.16228256
-0.06739663 -0.027086051 -0.15356293 -0.10694598 -0.7950903 -0.03993413 -0.096027516 -0.2025691
-0.20054214 0.02094332 -0.19540554 -0.048212826 -0.006334298 0.03874141 -0.103791185 -0.27032295
-0.58620256 -0.3275877 -0.4751844 0.21556693 -0.17952837 0.038043253 -0.16523425 -0.12940416
0.017397301 -0.33727863 -0.35198116 -0.07598518 -0.14090627 -0.21602984 -0.24921362 -0.067730054
0.021967657 -0.2955833 -0.23588943 -0.02208285 -0.090954654 0.10519522 0.33363396 -0.07223073

base.actor.2.weight f4 [128, 128]
00000000: 25b0 68be a435 52be 21a3 14be 8680 393e
00000010: 6615 4a3d a062 0f3d 49c1 d13d 4008 b83d
00000020: c527 943c 49dd 383b 47c6 83be 3095 8fbe
00000030: 1e29 433a d250 a6be 55fb ae3d 1696 c53d
00000040: 7065 0bbe 0329 263e ae2e 41bd 4470 d9bd
00000050: aade 533e a3dc fcbd c8c9 d43e 65d0 a63b
00000060: df89 1b3d d956 083e 449d 31bd 5210 18bd
00000070: ad9d 243e fa49 5d3e 41fa 77bb e37f 5b3e
00000080: 0f08 b1be 5c01 e53d f6b8 9f3d 614f 4d3e
00000090: 3443 79bd a42b 09be fef7 463d ee9c 57be
000000a0: 52b1 863e a122 603e c420 6e3d 0331 053e
000000b0: 974e e8bd a4d3 103c 9f72 ccbe 789e 883d
000000c0: e7e3 5e3d 0606 a0be fa2f a2bd ce90 d8bd
000000d0: 96fe 8dbe 13a2 ec3d 2d81 623e 0bc5 823d
000000e0: 624a 92bb 0645 4cbe f857 40bd 26a2 713d
000000f0: 89e4 78be 1b99 a83e 05fd 1c3e 9171 3ebe
00000100: c2aa 5bbe 474b 7dbd cb35 80be 2fdd 053d
00000110: bb18 53be c3bc 08bd 0a0b ee3c 2c0e b6bd
00000120: c9aa 393d 7864 a73c 24d6 8bbe a202 c0be
00000130: 7d4a 9a3e 8340 b2bd 962c 5e3b 0434 2e3e
00000140: 9de4 9f3a c8a0 bcbe 31a9 9cbd 079e 2cbe
00000150: d53e c0bd f034 9cbd 9db9 26be a57c 88be
00000160: a4ee 3dbe 3a0a bf3d 1ea6 c1bd 69ba c4be
00000170: 3263 583c 7392 853c 5b04 313d 16bd 3bbb
00000180: 1fad 7dbe fc6c 03bd 5715 8dbe 0189 03bd
00000190: 05b3 a6bb b6df fcbd 67d5 c03b a897 ba3d
000001a0: 8a4d 2a3e 3b92 1fbe 3c53 90bc 6103 6dbe
000001b0: 4057 e23c 0e8e acbd a59b b0be 4aab dbbd
000001c0: bb98 69be d8d7 4c3e f99f fa3d 49f9 52bd
000001d0: 547c b63e 03b3 8cbd 6ef6 2cbe dc26 0abe
000001e0: d0ee dd3e 1865 343d 291d 3e3e c8b7 833e
000001f0: 6aee 10bd fa93 703e 7822 37be 14c4 80bd
00000200: 42eb 113c 3f52 733e 3aff e9be e275 3b3c
00000210: 312f aabc d622 6ebd 4775 233e b7dd 113f
00000220: a142 4a3e 5290 6cbe f189 053e 16fb 363e
00000230: dbd4 84bd f1ca 923d eec5 bb3e 1cee 973e
00000240: 44ac e2be 5dc0 acbd aa08 a0be 7ec9 aa3e
00000250: 3989 18bd 5967 fc3c 8677 a7bd 4a16 fbbd
00000260: 6ee4 0bbe 58f3 92be e2b9 833d ac81 ed3e
00000270: ae7a 603e 1921 d53e cf7c fe3e a6bb e7be
00000280: e518 1bbe ebf2 753e ba81 163d 6bfa 473d
00000290: 7a2e d0bc 59a1 aebe 01a7 1cbe 68c2 1f3e
000002a0: e555 40be c699 45bc 3f8d 203e 5e71 9d3d
000002b0: 55c4 453d f44b b1be 556a b1bd 3551 c93d
000002c0: f076 8c3d 63c2 363e 7348 cf3d 4fef ab3d
000002d0: 5ebb a8be 2f66 c8bd 168f 803e 965d 23bd
000002e0: b50b 56bd e6a3 2fbe a8d6 4d3e 97fc a73e
000002f0: d4f8 21be 086c 1d3d 6da2 d6bd f36c 0ebe
00000300: f36c 13bd 12f9 b43d 3aaa 083e 5a09 733d
00000310: 24b1 f2bd 74ec 9d3e 1d5c a8bc 9d7f 25bd
00000320: 736b 6d3d 7006 083e d8ac c23e 3813 ddbe
00000330: 5141 b03e 53c3 dd3d 9dfc 7d3e 86a0 d2bc
00000340: 753f 3b3e 0865 393f 2b88 513c 6e60 77bd
00000350: 8ee8 60bd ab2b b73b ca9f 5abd 7769 cabd
00000360: b9a8 2a3e 1787 3f3e f47a 92be 8904 153e
00000370: fc73 033e 4fc2 8d3c 3f47 60be fac2 c1bd
00000380: b192 713e 780a af3c 8442 193f 978a 653e
00000390: ef5b 1b3b bf1d 503e 1be6 87be 243d 183e
000003a0: bce3 4ebe b046 8c3c 63c2 083e 941e dd3c
000003b0: 8d50 2ebe 53ce abbe 7d51 dabd 8b6c 7fbe
000003c0: 48b3 443d 604f 003f e8b0 82be cc97 54bd
000003d0: 16b2 b53d 15c0 94be 6b89 6fbd 6501 303e
000003e0: 2e46 ed3c a904 07be 128a 15be aa54 043e
000003f0: ad38 9cbe d5f3 f13d 77f7 3abe c073 323d
-0.22723444 -0.20528275 -0.14515354 0.18115434 0.049336813 0.035006166 0.10241944 0.089859486
0.01808537 0.0028208068 -0.2573721 -0.2804351 0.00074447866 -0.32483536 0.085440315 0.09647767
-0.13612914 0.16226582 -0.047163658 -0.10617116 0.20690408 -0.123467706 0.41560197 0.0050907605
0.03797328 0.1331438 -0.04336287 -0.03712494 0.16075774 0.21610251 -0.0037838372 0.21435504
-0.3457646 0.111819 0.077989504 0.20049812 -0.060855106 -0.13395554 0.048576348 -0.21055958
0.2630716 0.2188821 0.058136716 0.13006978 -0.11343115 0.008839522 -0.399312 0.066708505
0.054416563 -0.31254596 -0.07919307 -0.10574494 -0.27733296 0.11554351 0.22119589 0.06385239
-0.0044644335 -0.19948205 -0.046958894 0.058992527 -0.24305929 0.3292931 0.15330894 -0.1859801
-0.21451858 -0.06183937 -0.2504104 0.03268164 -0.20614903 -0.033383142 0.029057998 -0.08889422
0.04532889 0.02043365 -0.27311814 -0.3750201 0.30134955 -0.08703711 0.0033901087 0.1701203
0.0012198869 -0.36841416 -0.07649458 -0.16857158 -0.09386984 -0.076272845 -0.16281743 -0.26657596
-0.18548065 0.093281224 -0.094555125 -0.3842347 0.013207244 0.016305184 0.043217044 -0.002864664
-0.24773072 -0.032086357 -0.27555344 -0.03211308 -0.0050872588 -0.12347357 0.0058848145 0.091109574
0.16631141 -0.15583126 -0.017617814 -0.2314582 0.027629495 -0.08425532 -0.34493747 -0.1072603
-0.22812168 0.20004213 0.122375436 -0.051507268 0.3564173 -0.06870081 -0.1689088 -0.13491386
0.43346262 0.044041723 0.18565811 0.2572615 -0.03538362 0.23493949 -0.17884243 -0.06287399
0.0089061875 0.23761843 -0.45702535 0.01144168 -0.020774456 -0.05813869 0.15962707 0.56978935
0.1975198 -0.23101929 0.13040902 0.17869219 -0.064859115 0.07167614 0.36674446 0.2967385
-0.44272053 -0.08435128 -0.3125661 0.3335685 -0.03724024 0.030810999 -0.08177094 -0.12260111
-0.13661358 -0.28701282 0.06431939 0.46387994 0.21921799 0.41626814 0.49704596 -0.45260352
-0.15146215 0.24018447 0.03674481 0.0488228 -0.025412787 -0.34107473 -0.15298082 0.15601504
-0.18782766 -0.012060588 0.15678881 0.07687639 0.04828294 -0.3462826 -0.08662859 0.09829942
0.06858623 0.1784759 0.101212405 0.08395254 -0.3295545 -0.09785115 0.25109166 -0.039884172
-0.05225726 -0.17152366 0.20101416 0.32809898 -0.15817577 0.038433105 -0.10480199 -0.13908748
-0.035992574 0.08836569 0.13346186 0.05933509 -0.11850193 0.30844462 -0.020551736 -0.040404905
0.0579638 0.13283706 0.38022494 -0.43178725 0.34424832 0.10828271 0.24803396 -0.02571131
0.18285926 0.72419786 0.012788813 -0.060394697 -0.05490928 0.0055899224 -0.053375043 -0.09883397
0.16665925 0.18703876 -0.2860943 0.14552511 0.12837213 0.017304568 -0.21902178 -0.09461017
0.23591115 0.021367297 0.5986712 0.22416149 0.002370592 0.20323847 -0.26542744 0.14867073
-0.20204061 0.01712355 0.13355403 0.02699212 -0.17022915 -0.3355585 -0.10660074 -0.2494375
0.04802254 0.50121117 -0.25525594 -0.051902577 0.08871858 -0.29052797 -0.05848066 0.17188032
0.028964128 -0.13185371 -0.14603451 0.12922922 -0.3051199 0.118140854 -0.18258463 0.04356742

base.critic.0.bias f4 [128]
00000000: 18af 7abc 5bd9 003f 43ef 59bd 9105 2a3f
00000010: 986c 04bf b22d 3c3f e85b 42be 67ca 18bd
00000020: 44e2 4b3f 581b 7fbf 4283 5cbd 3961 90bd
00000030: 926c 56bf b410 f4bd 0f40 083e 48ca b03e
00000040: b407 f73e 0e62 ce3d 3821 2e3e a7ad f13e
00000050: 98e8 2c3f 4367 4e3f 8e4f c2be cc03 f1bb
00000060: 267f eb3e bd67 583f 7519 93bf 82e6 47bd
00000070: f644 f8be 8f55 abba 9493 013f 0f84 b1be
00000080: f350 c13e b843 2e3f 46bb 05bf 78ca c13d
00000090: 5b09 88bf dc01 acbe 30b9 563b ac84 64be
000000a0: a85c 1c3f 987b 0d3f d238 433e 0000 0000
000000b0: 2e0c 083f 5046 18bd 6575 d23e 8752 babd
000000c0: 2c5a 3fbf d86d 89bd 88dc 3e3e 4a7f 233f
000000d0: 2cb5 a53e a11a 42bd ffd2 4ebd eee2 59be
000000e0: 1db9 903e 1da8 0e3d 2521 98be 4d87 43be
000000f0: 6f76 d2be 6186 2d3f 6f91 c93e 2032 97bd
00000100: f033 6cbd 78d3 953f 822d 923c 0e63 f53e
00000110: 5ba0 31bf 4971 e13e 6d80 b2bd b26f 633f
00000120: b036 403e 3d00 cfbd 5d50 983e 6ed5 aebc
00000130: 7250 8fbe eac3 243f 33d6 8fbf 8203 9abe
00000140: 5e63 3a3f 8901 8dbf 3c52 86bd dd32 8fbd
00000150: 9cbc a43e 55d7 08be 5f01 9dbd 0893 113e
00000160: 0894 1c3f c1ae 3c3f 5d0c 203e 27a1 803e
00000170: 37f5 a1be e4e0 22bf 9247 40bf 8ff2 ed3e
00000180: 4b64 b0bd f057 1e3f 91f7 5cbf ea72 c13e
00000190: a5a8 67be 485e 41be 3cdd 37bd 7f72 4c3e
000001a0: ae53 9f3e a535 733e 9ddb f8bd f9d7 593d
000001b0: ab32 2a3e be47 cabd d1d7 dbbe c403 cf3e
000001c0: d6f0 e5be 7205 52be 35e7 6cbc e13b 03bd
000001d0: 1711 8fbe 4a54 c63d 0588 2e3e 56a1 70bd
000001e0: 5785 92be 0000 0000 63b9 303e b6ff 4f3f
000001f0: 11e4 d8bc 6026 a7bd c6fe 5fbf 3382 e73e
-0.015300535 0.5033166 -0.053206693 0.66414744 -0.517282 0.73507226 -0.18980372 -0.0373024
0.7964213 -0.996511 -0.053836115 -0.07049794 -0.83759415 -0.11917248 0.13305686 0.34529328
0.48248065 0.10077296 0.1700486 0.472028 0.6754241 0.80626315 -0.3795132 -0.007355189
0.45995444 0.8453329 -1.1492144 -0.048803814 -0.48490113 -0.0013071763 0.5061581 -0.34671065
0.37757072 0.6807208 -0.5223888 0.09462446 -1.0627855 -0.3359517 0.003276419 -0.22316235
0.6107888 0.55266714 0.19064644 0.0 0.53143585 -0.03717643 0.4110519 -0.09097772
-0.74746966 -0.06710404 0.18638813 0.638661 0.32364786 -0.047388677 -0.05049419 -0.21277973
0.2826623 0.034828294 -0.29712787 -0.19094582 -0.41105983 0.6778317 0.3936877 -0.073826075
-0.05766672 1.170516 0.017843965 0.47927135 -0.6938531 0.44031742 -0.087159015 0.8884231
0.18770862 -0.10107467 0.29748812 -0.021342006 -0.27991062 0.6436144 -1.1237243 -0.300808
0.7280787 -1.1016093 -0.06558654 -0.06992123 0.32175148 -0.13363393 -0.07666277 0.14216244
0.6116338 0.73704153 0.15629716 0.2512295 -0.31632397 -0.63624406 -0.7510921 0.4647412
-0.08612879 0.6185293 -0.86315256 0.37782985 -0.22622927 -0.18883622 -0.04488872 0.19965552
0.3111853 0.23750933 -0.12151263 0.053184483 0.16620891 -0.09876965 -0.42938092 0.4043256
-0.44910306 -0.2050989 -0.014459421 -0.032039527 -0.27942726 0.096840456 0.17044075 -0.058747612
-0.28617355 0.0 0.1725822 0.8124956 -0.026475938 -0.08161616 -0.8749813 0.45216522

base.critic.0.weight f4 [128, 30]
00000000: c1fc d9be 30ec ab3e d2a5 98be 7e5e 37bf
00000010: 4418 793e 1a1d 95be 0d24 31bf 8210 983e
00000020: 0253 f63d db42 19bf e86c cc3d 5c64 6a3e
00000030: 19e6 3bbf 351d 0a3e 9f01 f83d b770 bfbe
00000040: 73a3 663d 947c 873e 39b2 aebe 1e68 e4bd
00000050: f500 333e ab5a e2be dc73 8cbd d343 2b3e
00000060: 300a fdbe 74d5 9d3e e55e 88be 2b4f d4be
00000070: fa15 023e a06a 903d d69c d13e 57b4 a33e
00000080: b9ea 94bd 5484 873e fef5 a4ba 473a 97bb
00000090: 1431 a13e 2d9f da3d d0f7 c2bd 046c ec3d
000000a0: b95d b2bd 240b 2bbd fd65 6e3e 15ed a13d
000000b0: 210e cabe 972c 183e aab2 b23d 352b 5dbe
000000c0: 5b0f 223e 34a2 03be e831 6ebe c332 38bd
000000d0: 198a 1c3d 53a9 92be 5850 91bd bd68 49be
000000e0: 7cd4 1cbf 748d 24be 68fc 7c3c a034 a2be
000000f0: 97bc 8cbe fc36 26be 86f3 a5bd ea52 32be
00000100: 0026 07be e6e8 43bd d822 043c a949 c4be
00000110: de06 5abe 0f6a 3abe 7754 fabc fbb9 9ebe
00000120: cc5d 823c 8c90 27be 00bd debd f461 03be
00000130: f3ac 56be a75d 54bc b576 8e3d 2cc2 13bf
00000140: 5ffd a83d 53a3 49be 7ccb cdbd 0f40 d03c
00000150: 2ad5 9bbe 5839 bbbe 28e5 91bd 6f17 afbd
00000160: 86f3 b2be e969 bd3d cbd5 193d 8d25 e93d
00000170: cb4d 8fbd c112 323e 3b95 8dbb 655d 5c3e
00000180: 7881 d73d 1f09 5cbd fb40 9f3e a116 373e
00000190: 2aa5 44be 1d74 6dbe d2ba 1abe f431 25bd
000001a0: 671a 1dbe db6c 253e 4cc8 82be 1ce7 d43d
000001b0: 2cab 343e f77e 13bd 3f50 08be ddcb de3d
000001c0: f9ce b7bc 7982 a23e bb4b 753d 692a 4a3d
000001d0: 4d44 353e a61a a9bd 2a8e b6be eb13 6dbe
000001e0: 63c1 2cbe 28be 69be 6c2c 04be 65aa 1a3e
000001f0: 90d6 36be 85c6 b53d 02cd d3bd 0b7d bcbe
00000200: fce6 743d b0a2 a8be c8c5 a2be 89e1 353e
00000210: 8249 4fbd 2bc0 8fbe dbf8 973e ee71 863d
00000220: bc6e 11bf 7cf1 b6bd 344e 4bbe 48b3 fcbe
00000230: a0a3 8cbd a90d 4cbe 247d eebe d7c8 36be
00000240: cbab 84be 48d2 08bf 5021 f33d 97d8 a6be
00000250: bea6 04bf 9c25 083e cdd6 d03d aa38 993e
00000260: 705d e7bc 9062 04bd c108 9e3e f6ec 413c
00000270: 96a1 8dbd 1adb 903e 36e2 bbbc 1330 45be
00000280: cdb0 423e 15fe 3b3c cbca ae3c a9bf 12be
00000290: 6429 133d 0768 3dbe ca0e a7bd 4f3d 6a3d
000002a0: 35b6 20be c154 ca3c c2c8 703d 0e91 4d3d
000002b0: 3ff6 e4bd 6586 c73d cffb 52bd a17b 85be
000002c0: b691 ccbd 6c89 83be c509 0cbf 430e cfbf
000002d0: 86b0 56be 86d9 93bd 0c39 c0bc 5b7d f93d
000002e0: 611a 523c e73b c23d 9f4c 2abd 460a edbd
000002f0: 0af4 d13c 5f0f d4bd 8c61 0ebe de19 66bd
00000300: 3480 0fbd e8b6 253e 9836 15be 6be2 dcbe
00000310: 29cb d4bd 9883 2a3d e1f7 d0bd 07ab a2bd
00000320: 2988 e0bd 629f 8a3c 77e8 30bd 155a 0c3e
00000330: c395 0dbe eb23 fd3c 27a5 a6bd 17ff bbbc
00000340: 5d16 c93d 0a41 f23d f639 c9bc 92e4 28be
00000350: 7f90 8dbc 4726 d93d 95c7 85bd 4f1d 933d
00000360: b1d2 a1bd c4ff 14be fbe3 4bbb 7c09 21be
00000370: 94bf 9c3c bfa7 88bc 62a7 9ebd 0be6 a23d
00000380: 5676 cfbd 0192 ae3d c0c3 0dbd af1b 3cbe
00000390: c645 94be 8335 45bd 4b8f e6bc 1745 8fbe
000003a0: e521 cfbd 0a2d 9a3d 5e4e f5ba 32d9 b13c
000003b0: c1c2 ea3b 2e29 1f3d 04cf a6bc 96f8 1fbe
000003c0: e5b4 44be 6c0a 723c ab70 373e 60b3 53be
000003d0: 18e9 973c 2cba 303e b87a 97be 2641 f0bd
000003e0: e846 113e 3d32 003e 76f7 083e 5907 993d
000003f0: 50a4 8bbe 1f3f 743d cedf 183d 8a20 df3c
-0.42575648 0.33578634 -0.2981401 -0.7162856 0.24325663 -0.29123765 -0.69195634 0.29700094
0.12027551 -0.5986764 0.0998171 0.22889847 -0.73397976 0.13487704 0.12109684 -0.37390682
0.05630822 0.26462233 -0.34120348 -0.11152671 0.17480834 -0.442098 -0.06858036 0.16725092
-0.49421835 0.30826914 -0.266349 -0.4146665 0.12703696 0.07051587 0.4093997 0.31973526
-0.07271332 0.26468146 -0.0012585518 -0.0046151015 0.31482756 0.106748916 -0.09519923 0.1154404
-0.087092824 -0.04175867 0.23281093 0.07906548 -0.39463905 0.1486076 0.08725484 -0.21598513
0.1582617 -0.12854844 -0.23261225 -0.044970285 0.038217638 -0.2864481 -0.070954025 -0.1966886
-0.61261725 -0.16069585 0.015441038 -0.31680775 -0.27487633 -0.16231912 -0.08103089 -0.17414442
-0.1319809 -0.04782953 0.008064948 -0.38337448 -0.21291682 -0.1820452 -0.030557854 -0.31001267
0.015913866 -0.16363734 -0.10875893 -0.12830335 -0.20964412 -0.012961782 0.06956235 -0.5771816
0.08251452 -0.1969121 -0.10048577 0.02542117 -0.3043607 -0.36567187 -0.07123786 -0.085493915
-0.3495142 0.092487164 0.037557404 0.11384115 -0.0699726 0.17389967 -0.004320768 0.21520002
0.10522741 -0.053719636 0.31104264 0.17879726 -0.1920363 -0.23188825 -0.15110329 -0.040330842
-0.15342103 0.16154806 -0.2554344 0.10395643 0.17643422 -0.036009755 -0.13311861 0.108787276
-0.02243756 0.31740168 0.059886675 0.04935685 0.17701836 -0.08257036 -0.35655338 -0.2315213
-0.16870646 -0.22826445 -0.1290757 0.15104063 -0.17855287 0.08875755 -0.103418365 -0.3681415
0.059790596 -0.3293662 -0.3179152 0.17761816 -0.050607212 -0.280763 0.2968205 0.06564699
-0.5680959 -0.08932778 -0.19854051 -0.4935553 -0.068671465 -0.19927086 -0.4657985 -0.17850052
-0.25912318 -0.53445864 0.11871588 -0.3258712 -0.5181693 0.13295597 0.1019722 0.29926044
-0.028242797 -0.03232056 0.30866054 0.011836281 -0.06915586 0.2829216 -0.022935014 -0.1925662
0.19012757 0.011474152 0.021336934 -0.14330925 0.035928145 -0.18496715 -0.08157118 0.057187375
-0.15694506 0.024698617 0.058785208 0.050187163 -0.1117978 0.097424306 -0.051509675 -0.26070884
-0.0998873 -0.25690782 -0.5470241 -1.6176227 -0.20965776 -0.07219224 -0.023464702 0.12182113
0.012823672 0.09484082 -0.041576978 -0.11574225 0.025629062 -0.10354494 -0.13904399 -0.056177013
-0.035034373 0.16183054 -0.14571607 -0.43141493 -0.10390312 0.041629404 -0.10203529 -0.07942777
-0.109634705 0.016921703 -0.043190446 0.13706239 -0.13826661 0.030900916 -0.08136969 -0.022948785
0.098187186 0.118288115 -0.02456377 -0.16493443 -0.017280815 0.10603004 -0.06532208 0.071833245
-0.07901514 -0.14550692 -0.0031111229 -0.15726274 0.01913432 -0.01668155 -0.077467695 0.079540335
-0.10129993 0.08523942 -0.03461051 -0.18369935 -0.28959483 -0.048146736 -0.0281445 -0.279824
-0.10113887 0.07528122 -0.0018715372 0.021710012 0.0071643298 0.03885763 -0.020362385 -0.15622172
-0.19209631 0.014772993 0.17914073 -0.20673895 0.018543765 0.17258519 -0.29585814 -0.11731176
0.14187205 0.12519164 0.13375649 0.074721046 -0.27273798 0.05963051 0.03732281 0.027237196

base.critic.2.bias f4 [128]
00000000: 4435 6bbd 0d1a 21bf e268 203f 27c3 fabd
00000010: 365b 24bd 2362 213f 1465 b9bb 481f 81bd
00000020: a525 86bd 955a 2e3f 2d8b 253f 782c 373f
00000030: 650b 55bf c814 e03e 8f72 1f3f 6353 cabe
00000040: f20b 04bd 2a66 83bd 27f0 4dbf a9b4 5fbd
00000050: f2e2 ac3e b096 1c3f 3055 2c3f 6fcf 3b3f
00000060: 9b5d 233f c85f eb3e c311 1e3f 5f50 1e3f
00000070: fde9 3e3f 2319 58bd 0a2b 2b3f decf 44be
00000080: 37d3 1d3f 1db3 74be 5104 01be 1eda 4dbf
00000090: 02ea bebe 5670 96bd a0dd b13e 58fb 85bd
000000a0: 5c09 d2be 2ba2 77be 1245 ff3b 2fc5 1e3f
000000b0: 0dc1 093f 177c 203f 31b6 9bbd ed97 5d3f
000000c0: 8420 283f 06ea 223f 6d6d b6be 3adc 34bd
000000d0: 7304 a7bd 774f f3be 886c 2b3f c293 203f
000000e0: 8d70 173f 1e8d ba3c 69eb 37bd a782 1cbd
000000f0: 4be7 8ebd b65c 113f 7e34 4dbd e596 123f
00000100: 7697 153f d3d8 223f c594 28bd 0a2a 1d3f
00000110: bb9c 153f 0366 31bf 3d70 1bbd 7e8d c3be
00000120: 0760 0f3f 0de0 d3bd b94a 143f 53b7 013f
00000130: 345b 093f 9655 273f 6794 94bd 9e86 f0bc
00000140: 5f47 fabe e00d 0abe f8e0 5ebd bdb7 62be
00000150: 4da6 25bd e0aa acbd 7610 10be 1515 c0bd
00000160: 898c 1a3f 568c 42bd 3630 3b3f 1017 92be
00000170: bd9e b3bd 4d0d 213f 61f7 1e3f e5e0 213f
00000180: e643 6c3c e654 69be c439 87bd fd63 233f
00000190: 49e4 9fbd 8c94 1b3f 83a6 16bd 076f adbd
000001a0: 0c3d 103f 0a83 193f dc5d 283f 5f08 243f
000001b0: 77e4 253f c74a 2d3f 3f8a b3bd dce5 55bd
000001c0: ff98 2c3f a462 2bbd d95f bfbd c4b8 213f
000001d0: 6f6c 133f 8914 333f fefb 17bd f468 213f
000001e0: 7788 723f 43b3 00be 254d da3b 298b 21be
000001f0: 9006 0f3f c809 283f 4152 47be dbb3 513d
-0.057423845 -0.62930375 0.6266004 -0.122442536 -0.040126048 0.6304037 -0.0056578014 -0.063047945
-0.06550149 0.6810697 0.6466549 0.7155223 -0.8322051 0.43765855 0.6228418 -0.39516744
-0.032237954 -0.064159706 -0.8044457 -0.05461565 0.33766896 0.6116743 0.67317486 0.73363394
0.63814706 0.45971513 0.6174585 0.61841387 0.7457579 -0.052758347 0.6686255 -0.1921992
0.61650413 -0.23896451 -0.12599303 -0.80410945 -0.3728791 -0.07345645 0.347394 -0.06542081
-0.41022766 -0.24182956 0.0077902162 0.6201963 0.538102 0.62689346 -0.0760311 0.86559945
0.65674615 0.6363834 -0.3563036 -0.044155337 -0.081551455 -0.47521564 0.6696248 0.6272546
0.59156114 0.022772368 -0.04490224 -0.038210537 -0.069777094 0.5678209 -0.05009889 0.57261497
0.58434236 0.636121 -0.041157503 0.6139227 0.58442277 -0.6929628 -0.037948836 -0.38193887
0.560059 -0.10345469 0.5792652 0.50670356 0.5365479 0.6536497 -0.07254868 -0.029361065
-0.48882577 -0.13481855 -0.054413766 -0.22140403 -0.0404418 -0.08431029 -0.1406878 -0.09379021
0.6037069 -0.047497116 0.7312044 -0.2853322 -0.08770511 0.6291092 0.6209622 0.63233787
0.014420485 -0.22786292 -0.06602815 0.63824445 -0.07807214 0.6077354 -0.03677989 -0.084684424
0.5634315 0.59965575 0.6576822 0.64075273 0.64801735 0.67692226 -0.08766603 -0.052221164
0.67420954 -0.041842118 -0.09344453 0.63172555 0.5758733 0.6995321 -0.037105553 0.6305077
0.9473948 -0.12568383 0.0066620284 -0.15775742 0.5586939 0.65639925 -0.19464971 0.051196914

base.critic.2.weight f4 [128, 128]
00000000: 590c c03c 8c7a 9ebb fa50 50be b6c1 2fbe
00000010: 73f0 2cbe c093 31bd 6681 603c 64df f03d
00000020: 6fc1 a93b 7ed5 393d 51ad 46be c12b 0b3e
00000030: 1163 14bc acc5 7d3e b4af 8d3e ffc6 d8bd
00000040: bdc0 8cbc 2834 c43d f99c 09be 45f0 62be
00000050: 68c7 6b3d f62e ffbd 92d5 4fbc bb41 943e
00000060: 8c9a bcbd 6be0 46be 9690 0b3e 6812 4cbe
00000070: 6a78 5dbc 57dc 123e f225 ffbd 979e 86bd
00000080: 1bec 973d 26d7 06be a378 9bbd 0287 5c3d
00000090: 0e4b 9e3d 43a1 81bb 1940 ca3d d0e4 d1bc
000000a0: 028d 193b d169 a13d 6ff7 de3c 1bb9 86bd
000000b0: e649 acbc 5782 fcbd 2ab3 1dbe b614 403e
000000c0: d087 1b3e 722d 41be 02f8 01bb 2ee6 9abd
000000d0: a2aa 553e 02c0 bd3d b852 4ebd 476f 813d
000000e0: b56b d83d 0f41 11be 8d49 963c c679 d8bd
000000f0: f7b9 cebd 3e0a 0a3e 961f 96bb 8b31 d53d
00000100: cda7 d2bd c461 40be 6fb9 bdbd 45a4 f23d
00000110: 538e 0c3e 756d d43d cbe7 27be 9ff3 a03c
00000120: 507a 4bbd 4d73 29bd be07 023e 833c 26be
00000130: 545a 543b 4007 86be 5d5d 4cbd 8de4 e63d
00000140: eec1 5cbe a80a 8abe 240c f13d 568f c73d
00000150: a876 933d 6c85 bebd 68bb b53b 3ed0 d9bd
00000160: 113a 673d cbf5 143e bd6b c0bd 3d14 943d
00000170: 2313 b83d 05da ccbd ff6b 16be fd42 59be
00000180: eef3 53bd ab28 42bd 56cb 1bbd 0e0f b8bd
00000190: d36c 963d f52b 063d 5efc bebb e5e2 843d
000001a0: 82c5 76be c974 c0bd 2acb 123c d7ef 55be
000001b0: 16b8 21be 7a96 febd 4d39 953d 0d28 273e
000001c0: 44e2 9abe aac1 3f3d 04b2 5bbe 2d6e 0eba
000001d0: 1b29 7c3e 57f5 02be 2e1d 70bd 66a5 fd3d
000001e0: 1dbc 9ebe ec8f ac3d 0dcb 143e dc69 863d
000001f0: 6e33 ac3c c89c 4fbd 3442 56be 5f93 19bd
00000200: 0dc9 673e 7688 353d 9597 653e 312d 90bd
00000210: 5f14 c93e 2a22 fdbe 648c d93d a467 013e
00000220: 1dd5 5e3d e089 493f f39d f33d 7f58 833d
00000230: 779b b83d e668 64bd 767b 83bf 90d0 e93e
00000240: 4b25 aa3e 0a26 5dbf 1e37 6cbd b1e9 6cbe
00000250: 5adc ecbe 88f8 1bbe d1f4 213f 5606 0abe
00000260: b1cf 0b3d 3f45 1bbe c09a 293f 36c6 9abc
00000270: 8962 2bbf 60d6 233e 4ff0 b2be 5201 1fbf
00000280: ba6e 0dbd eeff 803d edd6 c73e 2098 8bbc
00000290: b1d4 173f 516a 7abe f3a7 af3d bf40 2fbe
000002a0: 1347 22be 35d1 8abd 267d 25be 8134 2d3d
000002b0: 68a3 fd3d 76b5 e3bd 4fae 49bd 3d0e 463e
000002c0: b8a2 cfbe ae3e 163e f9ab 2f3e f769 373e
000002d0: 31b1 fe3e 2b97 b73d e58e 113d 7098 20bf
000002e0: face 6fbe cada 88bd 9566 a6be 5eb2 063e
000002f0: 7c9f 5bbe e571 0f3f a935 413f 31b7 b9be
00000300: 821f 0f3f f3c5 7fbf 4310 893f 4b90 e43e
00000310: 2758 bcbd 0a44 0bbf 1532 6fbe 65f2 22be
00000320: 7edf e3be 88c3 71bf ac9b e6be 7413 0b3e
00000330: dc8a cdbf b21e 533e 8c8f 873f 713a d63e
00000340: 2c31 59be 4a58 3a3f 6d55 5a3e e031 d2be
00000350: a4f2 aebf 1b83 26bb 2243 913e f8ed a5be
00000360: d07a 30bf 64bc 513e c565 a73e 9513 c43e
00000370: 4051 8cbd 7061 153f 37d0 7abd c773 56bf
00000380: b79e 1e3e 96a1 9a3e 6f6f 533e fd60 0f3e
00000390: 8158 dabe d69e 053f 4614 4dbc 6f57 0d3f
000003a0: 0c1c 073d 3477 003d 9edd 173f 7234 07bf
000003b0: 773f e63d 09e5 86bf e996 f13e f87e fe3c
000003c0: 568a a93e 5462 913e 7f5a 413f e673 bf3d
000003d0: 4eb5 17bf ff07 28bf 6046 9fbd 282d 08be
000003e0: 6c14 203e 06ad 7c3e 80ca c5bd fdec 31bf
000003f0: 952e 74be de29 103d 0966 f53e 3953 43be
0.023443388 -0.004836386 -0.2034339 -0.17163739 -0.16888599 -0.043353796 0.013702726 0.117613584
0.00518053 0.045369618 -0.19402052 0.1359091 -0.009056822 0.24782437 0.27673113 -0.105848305
-0.017181749 0.095802605 -0.13438787 -0.22161968 0.057563215 -0.12460129 -0.0126851965 0.28956398
-0.09209165 -0.19421546 0.13629374 -0.19928896 -0.0135174785 0.14341865 -0.12458409 -0.06573217
0.074180804 -0.1316801 -0.07591369 0.05383969 0.07729159 -0.0039559915 0.09875507 -0.025621802
0.0023429994 0.07881511 0.027217595 -0.06578275 -0.021031331 -0.12329548 -0.15400377 0.187579
0.15188527 -0.18864992 -0.0019831662 -0.075634345 0.20865873 0.09265138 -0.050371855 0.063200526
0.105674185 -0.14184974 0.018345619 -0.105701014 -0.10094064 0.1348047 -0.004581402 0.1040984
-0.10285912 -0.18787295 -0.09263884 0.11847738 0.13726167 0.1037244 -0.16397016 0.019647418
-0.049677193 -0.041369725 0.12698266 -0.16234021 0.0032402473 -0.26177406 -0.049893726 0.11274061
-0.21558353 -0.26961255 0.11769894 0.09744136 0.07200366 -0.09302792 0.005546022 -0.10635422
0.05645186 0.14546888 -0.093955494 0.07230423 0.08988025 -0.100025214 -0.14689635 -0.2121696
-0.0517463 -0.047402065 -0.038035713 -0.089872465 0.07344975 0.032756764 -0.0058284244 0.06488589
-0.24098781 -0.09397275 0.008959571 -0.20892273 -0.1579288 -0.12431045 0.0728632 0.16323872
-0.30250752 0.04681555 -0.21454626 -0.00054332876 0.24625055 -0.12788902 -0.058621578 0.12385063
-0.31002894 0.084258884 0.14530583 0.0656316 0.021020617 -0.050686628 -0.20923692 -0.03749406
0.22635289 0.044319592 0.22421105 -0.070398696 0.39273354 -0.49440128 0.106224805 0.12637192
0.05440246 0.78726006 0.11895361 0.06413364 0.090140276 -0.0557641 -1.0272052 0.45666933
0.33231577 -0.8638617 -0.05766975 -0.23136021 -0.46261865 -0.15231526 0.63264185 -0.1347898
0.034133617 -0.15163134 0.66251755 -0.018893342 -0.6694723 0.15999746 -0.34948966 -0.6211139
-0.034529425 0.06298815 0.39031163 -0.017040312 0.59308916 -0.24454619 0.08576956 -0.17114542
-0.15847425 -0.06778184 -0.16161022 0.0422864 0.12384683 -0.11118595 -0.0492385 0.19341369
-0.40553832 0.14672348 0.17155446 0.17911516 0.4974456 0.0896438 0.035536665 -0.627326
-0.23418799 -0.06682356 -0.3250014 0.13153979 -0.21447557 0.56033164 0.75472504 -0.36272576
0.5590745 -0.9991142 1.0708088 0.44641337 -0.09196501 -0.54400694 -0.23358949 -0.15912779
-0.44506449 -0.9443898 -0.45040643 0.1358164 -1.6058002 0.20617178 1.0590682 0.41841462
-0.21210164 0.7279097 0.2132165 -0.41053677 -1.3667798 -0.0025407735 0.2837153 -0.32408118
-0.68937397 0.20482022 0.32694831 0.3829619 -0.06851435 0.583518 -0.061233725 -0.8377041
0.15490232 0.30201405 0.20647977 0.14001842 -0.42645648 0.5219549 -0.012517041 0.5521154
0.032985732 0.03136368 0.59322536 -0.528144 0.11242574 -1.0538646 0.47185448 0.031066403
0.33113354 0.2839533 0.7552871 0.09348278 -0.59261024 -0.656372 -0.07777095 -0.13298476
0.1563279 0.24675378 -0.096577644 -0.6950224 -0.23845895 0.035196178 0.4792941 -0.19074716

base.critic_linear.weight f4 [1, 128]
00000000: c971 0bbd 5d02 a8bf 2587 483e d2ea 11be
00000010: 2ef9 07be 45c3 3b3e a8dd fe3c c82f 46be
00000020: 1f7e 4fbd f3ee b63e 4f1e 893e 056e 423f
00000030: c760 25bf 420c 183e 5b75 663e 9a8c b0be
00000040: 9d16 9c3b a1f6 08be f087 85bf ff50 d0bc
00000050: 92fb 5abd 6983 483e c38c a93e fd64 053f
00000060: 945c 963e 9529 8c3d fc22 473e f2be 163e
00000070: b42c 253f 7edf 19be 2cae aa3e 28ab 3d3e
00000080: 388c 533e 5f1b 6dbf e7b7 403d 9a98 92bf
00000090: 4dec 37bf 76e2 9abd 3989 e6bd 9fa9 97be
000000a0: 72ba d0bf f4f3 3bbf 9b58 a4bd 97d6 093e
000000b0: 9392 953d b941 ea3d d6e6 bcbd 4ef1 213f
000000c0: 5b58 b03e d46f 903e 1fd2 2abf 1e55 a6bb
000000d0: 4f30 0abe 5869 33bf 62c3 123f 6379 803e
000000e0: 6641 223e 1f16 18be a482 b3bd 8926 9cbe
000000f0: b613 823f cde9 df3d 7324 b0bd 7ce4 063e
00000100: 1138 143e 4009 8c3e 001e b6be 2573 7b3e
00000110: 6b06 803e 494c 7dbf bc80 2ebf 64cf dfbe
00000120: 9a60 c73d 1565 2dbd fa1e 133e 4505 753f
00000130: a5f1 c03d 94e7 cb3e 54b3 08be d6bd 173e
00000140: 4263 8abf 8024 1cbf fda5 16be 912e ebbd
00000150: e026 8dbe c67e 0cbe 1da9 00bf 8ca6 50bd
00000160: fe4e c63e 28e9 8a3d 6a08 f53e 1bdd 18bf
00000170: 91d8 82bd f41c 7f3e 0033 5b3e 38fc 383e
00000180: d12f 09bf 57c1 39be ca18 9fbd 229f 723f
00000190: f588 7bbe 1673 343e bddf a1bd cbed 1fbf
000001a0: 2642 eb3d 7b74 263e 0649 dc3f bfb7 443f
000001b0: 2e8f 9e3e 0261 fb3e 5399 aabe 5ee4 1cbe
000001c0: 68ca b33e eaf7 fdbd af16 9dbd ece1 773e
000001d0: 74c0 fc3d c55d dd3e 440a fcbd 5b79 533e
000001e0: 03df 863f 4cd3 19be 9ab3 8dbd 3709 03bf
000001f0: c708 ec3d ce3d dc3e 8bed aebf 8680 873f
-0.03404406 -1.3125721 0.19582804 -0.14249733 -0.13278648 0.18336208 0.031111553 -0.19354165
-0.050657388 0.3572918 0.26780936 0.75949126 -0.64600796 0.14848426 0.22505705 -0.3448227
0.004763438 -0.13375331 -1.043211 -0.025429247 -0.053462572 0.19581379 0.33115205 0.5210722
0.29367507 0.06843869 0.19446939 0.14721277 0.64521337 -0.15026662 0.33336008 0.18522322
0.20658958 -0.9261989 0.047050383 -1.145282 -0.7184494 -0.07562725 -0.11256642 -0.29621598
-1.6306899 -0.7341912 -0.08024713 0.13460766 0.073033474 0.11438317 -0.09223716 0.63258827
0.3444241 0.28210318 -0.6672687 -0.0050760647 -0.13494991 -0.70082617 0.5732938 0.2509261
0.1584526 -0.14852189 -0.08765152 -0.3049815 1.0162265 0.10933266 -0.08600702 0.13173097
0.14474513 0.27350807 -0.35569763 0.24555643 0.25004897 -0.98944527 -0.68165183 -0.43712914
0.09735222 -0.042332727 0.14367285 0.95711166 0.0942109 0.39825118 -0.13349658 0.1481851
-1.0811541 -0.60993195 -0.14711757 -0.11483491 -0.27568722 -0.13720235 -0.50258046 -0.05094008
0.3873214 0.06782752 0.47857982 -0.5971238 -0.06388963 0.24913388 0.21406174 0.18064964
-0.5358859 -0.1814016 -0.077684 0.9477407 -0.24563964 0.17622027 -0.07904003 -0.6247222
0.11487226 0.16255371 1.7209785 0.76842874 0.30968612 0.4909745 -0.33320102 -0.1532149
0.3511536 -0.124008015 -0.07670342 0.24207276 0.12341395 0.43235603 -0.123066455 0.20651762
1.0536808 -0.1502201 -0.06919022 -0.51185936 0.11525112 0.43015903 -1.3666242 1.0586097

dist.fc_mean.0.bias f4 [3]
00000000: 19f9 1cbc 6ec8 7a3c 69c0 033d
-0.009580874 0.015306575 0.03216592

dist.fc_mean.0.weight f4 [3, 128]
00000000: 9df4 2cbb aa8b 453d a829 7abf 792f da3b
00000010: 01ee 82be b368 5fbe d9a8 db3e b23f 29be
00000020: ddbf 6cbb aca5 1a3d f74d 8c3d 45d7 45be
00000030: d198 ee3e c065 2fbf 9046 693d d5bd f13c
00000040: 70c2 0c3f 62ab b03d 8c37 353f 3643 f53e
00000050: 9a78 39be 6b17 b5be 1677 de3d 144c ae3d
00000060: 315c 693d 7a0a 79bc 9c92 1bbe c8e1 263e
00000070: fddb 933d c4e0 943d 1b32 9dbd ef71 5ebe
00000080: 3775 633e 46b8 26be c68b c9be a998 203e
00000090: ef7d c73e b00c 99bd 74ef 85be c8f9 213f
000000a0: 36d2 a63d 1d37 463e 5dd4 25bf e30c 593e
000000b0: 9c0a 393f ed12 fd3d 4ebe 013f 4233 773f
000000c0: 521c dcbd e739 d73e cbf2 46bc 14ec 473f
000000d0: 1ace 27be 9236 0abe 3911 ee3e 901b 21bf
000000e0: 3d91 22bf e99e c9bd e140 c73e 7ebf 1cbc
000000f0: ecc5 2dbf dfde 96be 7efd 8dbe 27bd 0d3d
00000100: 9b39 0cbe a830 c7be 2330 afbd 85a5 fcbe
00000110: 96bb 393d 3004 c5be f5fa a4ba ceab b6bc
00000120: b8a3 7dbe ce07 25be c3f2 48be 486e 243f
00000130: 112e bdbe 8266 d53d b802 dd3e a1d7 9f3f
00000140: 8c85 e33e 5588 23bd 18d8 81bf bd0d 833f
00000150: 7d9d 50bd 6808 2ebf e523 593f e200 443f
00000160: 7565 55bd d997 67be ccb6 2c3e 3383 e5bd
00000170: 4971 8abf 2b95 70be 1660 b83e 1862 5c3e
00000180: 3ee1 833e ca8d 403e 7b04 08bd a848 26be
00000190: 67f4 95bc 8cee 2d3e 0c8f bb3d b1cf c6bd
000001a0: 7673 4bbf 74a4 753d f15e 13bf 9837 46be
000001b0: d31f cd3b 4967 e4be 613f 16bd 6842 803e
000001c0: 20c6 d03e 2701 4abe 519e 2ebd b8d8 34be
000001d0: 5837 6ebe 7b7e 47bb 931f 4e3e 4850 ce3d
000001e0: 7c1b 593d e119 213f 0323 24bf 2775 c6be
000001f0: 8004 3ebe b086 d4be 720e 933e 1345 9f3e
00000200: f342 643b 7164 54bf 84ee a2bf 26ed f33e
00000210: e04e 8c3e 2e0e a7bd f1dc 72be e32b c53e
00000220: e682 85be 2f1e d63e 6b97 98bc 4921 b8be
00000230: 5017 d2be b017 f2be 514a f03e b1dc abbe
00000240: 3e83 3cbe d8d0 44be bef6 883d fb19 ccbd
00000250: fa73 a93d 9ba8 edbd 4107 103e 3478 113d
00000260: 788d f73d 5f42 c63c 631a b1be e8f5 dfbe
00000270: c2b7 163f 0ad4 cbbe fe80 823e 3b54 593e
00000280: 7e7b 723e c191 fc3e 24c3 863d 0d75 083e
00000290: 6e37 24bf 0e49 ba3e 9cc5 c63e 10df dcbe
000002a0: 6d45 ccbd 286c 2f3e de2f 3abe ec2d 87be
000002b0: a665 bd3e c314 b5be 123f 8c3e 01ad 7cbf
000002c0: 14b8 313e 5fc9 353e 2f82 a63e d344 70bf
000002d0: eed3 43bf b4bb a93e 79c8 18bf a95b 39bd
000002e0: 0b2d 60bf 3d9d 9cbc 03f9 6d3c bc73 a83d
000002f0: 20db b1be e1b7 d4bd 2480 1b3f 509e 843e
00000300: 4a71 753e 8b00 6bbe 67af fe3d 292b 2e3e
00000310: 670c 6cbe 35d2 803e 3906 683e 39ce 1dbe
00000320: f279 983e 30dd f13d 8a8a 4a3d 602f 483c
00000330: 8a8b 02be 91dc 9e3d 3c2e a93e 2ccf c9bf
00000340: 6455 25bf ccca 123d 0105 c63e 9b12 5b3d
00000350: 6541 8fbc 7776 9d3d 5ebb a3be 22a6 debe
00000360: 1d20 ab3e 56e1 01be 2fbe 7dbe ea65 06be
00000370: 85e1 9cbf a134 a7be 9d83 d3bd 35c3 2c3e
00000380: 4e4d 213f 7532 f2bc 6aa7 a03e 660e f3be
00000390: 4ff9 2a3e c219 233e 5d51 073e 0acf 993d
000003a0: 4de3 24bf 11e7 7f3d e795 f6be 8320 88bf
000003b0: 9e56 7c3e 9520 f9bd b16a 813d 0193 09bf
000003c0: e436 90bd 2afa 95be 82f0 da3e 29ed c5bc
000003d0: f8b0 81bd 07fb 8ebd 3e3a ed3e a658 863e
000003e0: 6f8d 53be fccb 8c3d 1a85 893d f621 bfbe
000003f0: bc89 283e 19d8 a6be ab64 efbe 306d a43e
-0.0026390918 0.048228897 -0.9771981 0.006658491 -0.25572208 -0.21817283 0.42902258 -0.16528204
-0.0036125102 0.037755653 0.06850808 -0.193204 0.46600965 -0.68514633 0.05695206 0.029509464
0.5498419 0.08626439 0.7078788 0.4790284 -0.18112412 -0.3536943 0.108625576 0.085106045
0.056972686 -0.015200252 -0.15192646 0.16297066 0.07219694 0.07269433 -0.076755725 -0.2172315
0.22212683 -0.16281232 -0.3936445 0.15683235 0.38963267 -0.07473123 -0.2615925 0.6327176
0.08145563 0.19356962 -0.64777166 0.21196322 0.72281814 0.123571254 0.50681007 0.9656259
-0.10747589 0.42036363 -0.012142847 0.780946 -0.16387215 -0.1349738 0.46497515 -0.6293268
-0.63502866 -0.09844763 0.38916686 -0.00956714 -0.6788013 -0.29466912 -0.27732462 0.034604218
-0.1369385 -0.3890431 -0.08554103 -0.4934503 0.04534491 -0.38479757 -0.0012586998 -0.02229872
-0.24769485 -0.16116259 -0.19623856 0.64230776 -0.36949208 0.104199424 0.43166137 1.248768
0.44437826 -0.03992494 -1.0144072 1.0238568 -0.050931443 -0.67981577 0.84820396 0.7656385
-0.05209871 -0.22616519 0.16866606 -0.11206665 -1.0815822 -0.23494403 0.36010808 0.21521795
0.25757784 0.18804088 -0.033207398 -0.16238654 -0.018305017 0.1698553 0.091581434 -0.09707583
-0.79473054 0.059971288 -0.57566744 -0.19357145 0.0062598973 -0.4461005 -0.036681537 0.25050664
0.40776157 -0.19727002 -0.04263145 -0.17660797 -0.232633 -0.0030440378 0.20129232 0.10073906
0.053004727 0.62930113 -0.64115924 -0.38761255 -0.18556404 -0.41509008 0.28721958 0.31107387
0.0034829944 -0.8296576 -1.2729039 0.47641867 0.27403927 -0.081570014 -0.23717095 0.38510045
-0.2607643 0.41819903 -0.01862689 -0.35962895 -0.4103341 -0.47283697 0.469317 -0.33566812
-0.1840944 -0.19220293 0.06687687 -0.09965893 0.08274074 -0.116044246 0.14065267 0.035515025
0.1208753 0.02420157 -0.34590444 -0.437423 0.5887414 -0.3981021 0.25489038 0.21223538
0.23679921 0.4932995 0.06580189 0.13325901 -0.6414708 0.3638386 0.3882264 -0.43138933
-0.099741794 0.17131102 -0.18182322 -0.26402223 0.36991614 -0.35367402 0.2739187 -0.98701483
0.17355376 0.17752598 0.32521197 -0.9385502 -0.76495254 0.3315102 -0.59680897 -0.04525343
-0.8756873 -0.019117946 0.014524701 0.082251996 -0.34737492 -0.103866346 0.607424 0.25902033
0.23968998 -0.22949426 0.12435799 0.17008652 -0.23051606 0.25160375 0.22658624 -0.15410699
0.29780537 0.11809766 0.049448527 0.012218326 -0.12748542 0.077569135 0.33043087 -1.5766349
-0.6458342 0.035837933 0.38675693 0.05348454 -0.017487237 0.07688611 -0.31978887 -0.43486124
0.33422938 -0.12683615 -0.2477958 -0.13124815 -1.2256323 -0.3265734 -0.103278376 0.1687134
0.6300858 -0.029565075 0.31377727 -0.47471923 0.16696666 0.15927795 0.13214631 0.07510193
-0.64409333 0.06247622 -0.4816124 -1.0634922 0.24642417 -0.12164418 0.06319178 -0.53739935
-0.070417196 -0.29292423 0.42761618 -0.024160938 -0.06332582 -0.069814734 0.46333498 0.26239508
-0.20659421 0.068748444 0.0671484 -0.37330598 0.16458791 -0.32586744 -0.4675649 0.32114553
