OpenRDW/Assets/OpenRDW/Resources/SRLNet_20.onnx (onnx, 167857 bytes, 12 tensors)

39 f4 [1, 3]
-0.5389141 -0.76745474 -1.382293
00000000: 46f6 09bf ea77 44bf faee b0bf

base.actor.0.bias f4 [128]
-0.08046256 -0.10250033 -0.11639389 0.3890747 0.3673087 0.14154345 -0.48361897 0.15134817
-0.14223258 -0.21599379 0.3657669 0.042300176 0.32294866 -0.3741633 0.15341295 0.5195549
-0.27770916 -0.038813457 -0.36515322 0.20143193 -0.18628064 -0.28405482 -0.083495624 -0.050963234
0.0 -0.3237473 0.17144357 0.03948338 -0.053365268 0.41584465 0.34422204 0.06967529
0.31654677 -0.044226404 0.47133237 0.33556437 -0.058179155 -0.37296012 -0.20183899 -0.35400036
0.23551136 -0.05386984 -0.44652662 0.25089064 1.8961162e-05 -0.23731183 -0.047683384 -0.011473602
0.025757287 0.22165653 0.04295372 -0.044411283 -0.075618744 -0.039863378 0.1696942 -0.5445921
-0.52377594 0.12755232 -0.35758013 -0.09568613 0.14803219 0.05547137 0.42696622 -0.45145777
-0.47547895 -0.4610259 -0.06629134 -0.015780894 -0.34681246 0.33406183 -0.0021556178 -0.31900853
-0.03514621 0.47903892 -0.05753532 -0.06126522 0.1992386 0.056379557 0.44287828 0.22404148
-0.17370059 0.6021271 0.34398633 -0.0987459 -0.041999187 0.17308314 0.07448934 -0.3768188
-0.22585304 0.009401938 -0.21081163 0.152209 0.060106352 -0.015861288 -0.4725007 0.094974354
-0.51333785 0.09441891 0.05309185 -0.1970576 -0.087424144 0.113486975 -0.487206 -0.20685142
0.017247321 -0.35019383 0.31815666 -0.14657654 -0.02556393 0.14152914 -0.24095634 -0.49992228
0.37538603 0.599049 -0.06671213 -0.04022614 0.12055942 0.12380823 -0.20141584 0.34429738
-0.080611825 0.099866815 -0.04982404 0.19482529 -0.16119339 0.34720755 -0.43242118 -0.0060429038
00000000: 8ec9 a4bd b1eb d1bd eb5f eebd cd34 c73e
00000010: e30f bc3e c4f0 103e e89c f7be 04fb 1a3e
00000020: 6ba5 11be 7a2d 5dbe cd45 bb3e f342 2d3d
00000030: 8759 a53e 5592 bfbe 4918 1d3e 8d01 053f
00000040: e52f 8ebe dcfa 1ebd 5df5 babe 2c44 4e3e
00000050: 5ac0 3ebe a26f 91be c1ff aabd d3be 50bd
00000060: 0000 0000 35c2 a5be e78e 2f3e 53b9 213d
00000070: 8a95 5abd 97e9 d43e df3d b03e ebb1 8e3d
00000080: 6b12 a23e bf26 35bd 7a52 f13e 18cf ab3e
00000090: 444d 6ebd a1f4 bebe e1ae 4ebe 893f b5be
000000a0: e429 713e 9fa6 5cbd 239f e4be bd74 803e
000000b0: c90e 9f37 df01 73be a74f 43bd c6fb 3bbc
000000c0: f200 d33c eef9 623e 3df0 2f3d 9be8 35bd
000000d0: 00de 9abd c847 23bd 51c4 2d3e 636a 0bbf
000000e0: 2e16 06bf 139d 023e be14 b7be 17f7 c3bd
000000f0: c095 173e f335 633d 519b da3e 7925 e7be
00000100: fa71 f3be 960b ecbe c1c3 87bd ef46 81bc
00000110: 6791 b1be 270a ab3e 4445 0dbb 1655 a3be
00000120: 79f5 0fbd 9744 f53e 28aa 6bbd 3df1 7abd
00000130: 3405 4c3e 40ee 663d f1c0 e23e 216b 653e
00000140: 91de 31be 0025 1a3f fa1e b03e 4a3b cabd
00000150: 5707 2cbd b53c 313e de8d 983d 65ee c0be
00000160: 0546 67be 960a 1a3c 01df 57be addc 1b3e
00000170: 1432 763d 88ef 81bc 9deb f1be ea81 c23d
00000180: 1c6a 03bf b45e c13d d776 593d 78c9 49be
00000190: 6e0b b3bd dc6b e83d 1173 f9be dcd0 53be
000001a0: 414a 8d3c 9b4c b3be 6ee5 a23e 2918 16be
000001b0: 726b d1bc 04ed 103e 42bd 76be d0f5 ffbe
000001c0: 9932 c03e 465b 193f 5fa0 88bd 2ac4 24bd
000001d0: dbe7 f63d 2b8f fd3d f43f 4ebe bf47 b03e
000001e0: d017 a5bd f986 cc3d 4b14 4cbd 4880 473e
000001f0: e10f 25be 30c5 b13e 4f66 ddbe 8d03 c6bb

base.actor.0.weight f4 [128, 30]
0.030338626 -0.05764464 -0.44154495 -0.021303197 -0.019444114 -0.2792207 -0.17342195 0.17111933
-0.21462864 -0.22724594 -0.05331859 -0.20029421 -0.008766352 0.10179713 -0.33551362 -0.05595932
0.17451686 -0.33388567 0.08163938 -0.052999377 0.014647428 -0.18299071 -0.07966662 -0.29124576
0.04395043 0.03846479 -0.08921465 -0.12343597 -0.0755711 -0.46756554 0.03826853 0.07411775
0.015490979 -0.0916878 -0.11086429 -0.08164492 -0.15639432 0.0028590108 0.011102693 -0.21322595
-0.21754764 -0.028551519 -0.11896891 -0.16136448 0.18361327 -0.17772003 0.045641657 0.0676798
-0.2525203 -0.28467405 0.043693412 -0.33271867 -0.17084101 0.31142783 -0.23787476 -0.14769484
-0.28530878 -0.30764815 -0.2157961 -0.15464965 -0.098193 0.10121521 -0.14675091 -0.26395416
-0.2471398 -0.16209404 -0.05650914 -0.15801017 0.14146861 -0.23085782 -0.29067922 -0.006459727
0.0038717194 -0.08401846 -0.1598388 -0.16005173 -0.27027395 0.26890016 -0.36829785 -0.10173135
-0.24478109 -0.25593838 -0.18808942 0.27463567 -0.07945522 -0.42918232 0.088544086 -0.46600038
-0.26967812 0.18008372 0.24442253 0.020027466 -0.2501455 -0.005084716 -0.10001031 -0.36680657
0.19152687 0.054761056 -0.1253638 0.07694353 -0.112080626 -0.16439895 0.062716044 0.14314792
-0.04269492 0.2548758 -0.17430575 -0.14074805 -0.046300154 -0.041967124 0.04719871 -0.025473619
-0.29906613 -0.08516525 -0.188313 0.042083737 -0.2973103 -0.4043911 -0.2971871 0.4467389
0.04705191 0.27936646 0.06857778 0.21495962 -0.08792234 -0.23567532 -0.07255779 0.22202282
-0.33444732 -0.0077854525 -0.013407527 -0.45767668 -0.023501297 -0.15601438 -0.03348582 0.046371363
-0.04481579 0.11225124 -0.16220498 -0.29149616 -0.019513518 0.0718785 -0.18080689 -0.42387423
-0.2980301 -0.03288238 -0.3771259 -0.5171745 0.015592162 -0.27924517 0.14057189 -0.1696845
-0.09843795 0.062117737 -0.11124988 -0.55851746 0.102889225 0.114140354 -0.42931294 0.07149795
0.17448317 0.01877786 -0.16358793 0.37204444 -0.30915442 -0.10092146 0.16563585 -0.2921289
-0.23683271 0.0685909 -0.5596779 -0.17395857 0.07897177 0.02090588 -0.41717964 -0.032569557
0.0765549 -0.5689174 0.09220928 0.060715217 0.056973137 -0.28468373 0.31350508 0.32457587
-0.10642577 0.1639898 0.12812363 -0.079209164 -0.05462762 0.21552874 -0.07391722 -0.15892799
0.25385377 0.016805965 -0.1012781 0.18875536 0.124352865 0.1415211 0.15121603 -0.10602415
-0.20199141 0.29830194 0.15652359 -0.20574291 0.06835371 -0.049053196 0.014552514 0.106634006
0.11138119 0.039086394 0.1543878 0.039654296 0.690785 0.03709104 -0.1752036 -0.14137612
0.024112353 -0.08365681 0.11763139 -0.014893109 0.12818877 -0.39600557 0.0071133585 0.15841512
-0.5410142 0.003987437 0.033451345 -0.30563092 0.16338351 0.11523809 -0.45956293 0.05179287
-0.048737016 -0.33561447 0.12889004 0.15962116 0.23332913 -0.22272404 -0.00018098184 0.42172047
-0.004219041 -0.2746531 0.05794988 0.0921079 -0.5396062 -0.11202721 -0.009293413 -0.20337982
-0.11331243 -0.1508601 -0.07571691 0.023230894 -0.2690884 -0.16302098 0.4224831 0.09524678
00000000: b688 f83c c91c 6cbd 2e12 e2be 0b84 aebc
00000010: 4349 9fbc 04f6 8ebe 8695 31be e839 2f3e
00000020: 9cc7 5bbe 29b3 68be 9864 5abd ed19 4dbe
00000030: bfa0 0fbc 047b d03d 71c8 abbe 9a35 65bd
00000040: 8cb4 323e 10f3 aabe 8c32 a73d e015 59bd
00000050: c4fb 6f3c eb61 3bbe 4128 a3bd 2a1e 95be
00000060: 5e05 343d 418d 1d3d 2cb6 b6bd ffcb fcbd
00000070: 05c5 9abd c064 efbe 76bf 1c3d 0ccb 973d
00000080: e0cd 7d3c d0c6 bbbd d10c e3bd 7435 a7bd
00000090: d525 20be 3e5e 3b3b 12e8 353c e757 5abe
000000a0: cfc4 5ebe e0e4 e9bc f9a5 f3bd bb3c 25be
000000b0: 1e05 3c3e 3dfc 35be bff2 3a3d b59b 8a3d
000000c0: 574a 81be ccc0 91be ddf7 323d 1a5a aabe
000000d0: f2f0 2ebe 7873 9f3e 7195 73be 513d 17be
000000e0: fe13 92be 0f84 9dbe a7f9 5cbe 7a5c 1ebe
000000f0: 6919 c9bd ec49 cf3d df45 16be 0025 87be
00000100: 3712 7dbe fbfb 25be 2176 67bd 6bcd 21be
00000110: 26dd 103e fe65 6cbe e8d3 94be 1eac d3bb
00000120: acbc 7d3b df11 acbd c8ac 23be 9ae4 23be
00000130: 5961 8abe 48ad 893e 8991 bcbe 8758 d0bd
00000140: e5a7 7abe 5b0a 83be 839a 40be 0c9d 8c3e
00000150: 6bb9 a2bd c9bd dbbe 9a56 b53d 9a97 eebe
00000160: 4013 8abe de67 383e e649 7a3e a410 a43c
00000170: 1213 80be b09d a6bb 35d2 ccbd 12ce bbbe
00000180: 9f1f 443e 214d 603d 5e5f 00be 9294 9d3d
00000190: 878a e5bd 3358 28be 4571 803d 5e95 123e
000001a0: dee0 2ebd 157f 823e 357d 32be 4220 10be
000001b0: 3ba5 3dbd b8e5 2bbd 6f53 413d 0dae d0bc
000001c0: 321f 99be 1e6b aebd 20d5 40be ff5f 2c3d
000001d0: 0e39 98be 5a0c cfbe e828 98be f6ba e43e
000001e0: 81b9 403d 1f09 8f3e 8272 8c3d 601e 5c3e
000001f0: a110 b4bd df54 71be 2e99 94bd f359 633e
00000200: ae3c abbe 1c1d ffbb 3eab 5bbc 9954 eabe
00000210: cb85 c0bc 3cc2 1fbe 6d28 09bd e6ef 3d3d
00000220: c390 37bd fae3 e53d 1019 26be fc3e 95be
00000230: d0da 9fbc 0935 933d 7125 39be 0b06 d9be
00000240: 6797 98be adaf 06bd a516 c1be 8c65 04bf
00000250: 4476 7f3c 39f9 8ebe 14f2 0f3e c6c1 2dbe
00000260: d699 c9bd 2b6f 7e3d fad6 e3bd 00fb 0ebf
00000270: 96b7 d23d 6bc2 e93d e8ce dbbe 846d 923d
00000280: b7ab 323e 07d4 993c 9883 27be 9c7c be3e
00000290: 7d49 9ebe e9af cebd 729c 293e eb91 95be
000002a0: 4684 72be 6379 8c3d 0d47 0fbf 3222 32be
000002b0: f4bb a13d cf42 ab3c 9298 d5be a867 05bd
000002c0: d1c8 9c3d 92a4 11bf 38d8 bc3d 85b0 783d
000002d0: aa5c 693d 11c2 91be bd83 a03e cf2e a63e
000002e0: c1f5 d9bd f1ec 273e d732 033e 6a38 a2bd
000002f0: 36c1 5fbd 91b3 5c3e e961 97bd 05be 22be
00000300: 1ff9 813e aaac 893c e46a cfbd 1649 413e
00000310: b7ac fe3d e8ea 103e 60d8 1a3e 3123 d9bd
00000320: d6d6 4ebe 08bb 983e b847 203e 45ae 52be
00000330: 08fd 8b3d 01ec 48bd ab6d 6e3c ee62 da3d
00000340: d21b e43d 0e19 203d d617 1e3e 8b6c 223d
00000350: 49d7 303f c6ec 173d 9368 33be e7c4 10be
00000360: 4587 c53c 4354 abbd bae8 f03d 3a02 74bc
00000370: eb43 033e 3ec1 cabe 2d17 e93b 9337 223e
00000380: e87f 0abf 0ca9 823b 4704 093d a87b 9cbe
00000390: 024e 273e f301 ec3d d54b ebbe c324 543d
000003a0: 77a0 47bd a9d5 abbe c0fb 033e bb73 233e
000003b0: d5ed 6e3e c511 64be f1c5 3db9 bfeb d73e
000003c0: e23f 8abb 559f 8cbe da5c 6d3d 11a3 bc3d
000003d0: a223 0abf 866e e5bd 6643 18bc cd42 50be
000003e0: 5910 e8bd 127b 1abe 7811 9bbd b74e be3c
000003f0: f4c5 89be f9ee 26be b44f d83e be10 c33d

base.actor.2.bias f4 [128]
-0.004737965 -0.03259824 -0.0671849 -0.053165972 0.1159023 -0.16837405 -0.118505344 -0.17087032
-0.0002548025 0.10929003 -0.09985724 0.008632305 -0.14269099 0.008501055 -0.07450908 -0.09759529
-0.32249513 -0.07827788 -0.0752312 -0.097734965 0.0406563 -0.028668173 0.11454569 -0.22825988
0.30301872 0.03381582 0.049673855 -0.03903155 0.16421947 -0.003781819 -0.044289768 0.24485123
-0.08693884 0.122158125 0.15338582 -0.2961112 0.009890361 -0.17814954 -0.033518244 -0.058956485
-0.19473737 -0.14047216 0.090086214 0.06845463 -0.16166319 0.2784963 -0.076853506 -0.2407848
0.08787396 -0.09187095 -0.11437254 -0.20058918 -0.060116153 0.21693693 0.16941458 -0.19812173
-0.07686559 0.06653472 -0.04712115 -0.06430146 -0.072612174 0.027515983 -0.012496782 0.032410536
-0.06967555 -0.11931596 -0.17407668 -0.121650755 -0.2437492 -0.050678734 -0.11175263 -0.034751162
0.038969263 -0.12507968 -0.048890278 -0.14482658 -0.15415059 0.051712703 -0.06445436 -0.016573865
-0.07121069 -0.038298722 -0.16758917 -0.10980333 0.23059472 0.17053595 0.12890637 -0.20038402
-0.22368947 -0.068407364 -0.06366437 0.42302355 -0.07976826 -0.15624954 -0.057163436 -0.043513473
-0.27156678 -0.19653022 -0.06953361 0.20429641 -0.065314874 -0.28688928 -0.06867806 0.0057747616
-0.025389055 -0.08459367 -0.18867332 0.08728679 -0.037462823 -0.0676676 -0.15371467 0.023688631
-0.4052085 -0.12127884 -0.12617993 0.19298683 -0.13528891 0.064896345 -0.22564402 0.05666299
-0.13906965 -0.1477695 0.02469271 -0.020290386 0.18523942 -0.07421754 0.13525468 -0.088869005
00000000: ee40 9bbb bb85 05bd 3d98 89bd 90c4 59bd
00000010: 2f5e ed3d 3f6a 2cbe eeb2 f2bd a1f8 2ebe
00000020: 0397 85b9 74d3 df3d f481 ccbd 836e 0d3c
00000030: 961d 12be 0248 0b3c 3798 98bd 0ae0 c7bd
00000040: 151e a5be 2750 a0bd d112 9abd 4529 c8bd
00000050: 3887 263d 84d9 eabc ee96 ea3d f5bc 69be
00000060: 4525 9b3e 7582 0a3d d076 4b3d 8cdf 1fbd
00000070: 2629 283e 65d8 77bb 3069 35bd 48ba 7a3e
00000080: fe0c b2bd 0a2e fa3d 2c11 1d3e e39b 97be
00000090: 2e0b 223c d56c 36be 6d4a 09bd 5b7c 71bd
000000a0: 3c69 47be efd7 0fbe 1f7f b83d f131 8c3d
000000b0: 098b 25be 1197 8e3e 5f65 9dbd 4a90 76be
000000c0: 43f7 b33d d626 bcbd 263c eabd 4067 4dbe
000000d0: 5b3c 76bd b724 5e3e 047b 2d3e 6ce0 4abe
000000e0: b56b 9dbd 5b43 883d 1b02 41bd 7cb0 83bd
000000f0: b1b5 94bd 3369 e13c 4dbf 4cbc e9c0 043d
00000100: 0eb2 8ebd ed5b f4bd 2841 32be 0824 f9bd
00000110: 6499 79be 8194 4fbd 90de e4bd 3c57 0ebd
00000120: 3c9e 1f3d e314 00be 2c41 48bd 6b4d 14be
00000130: a7d9 1dbe b3d0 533d a600 84bd eac5 87bc
00000140: e9d6 91bd 1fdf 1cbd 7f9c 2bbe 91e0 e0bd
00000150: 0621 6c3e faa0 2e3e 0800 043e 7831 4dbe
00000160: da0e 65be 2919 8cbd 7762 82bd 8b96 d83e
00000170: 8b5d a3bd e1ff 1fbe 3524 6abd 2f3b 32bd
00000180: cd0a 8bbe 383f 49be a367 8ebd 1433 513e
00000190: cec3 85bd 27e3 92be 15a7 8cbd 363a bd3b
000001a0: b5fc cfbc 723f adbd 9433 41be 6bc3 b23d
000001b0: 9e72 19bd 5095 8abd 6167 1dbe a90e c23c
000001c0: 7d77 cfbe 0a61 f8bd 5035 01be 579e 453e
000001d0: 2d89 0abe 60e8 843d 3a0f 67be 7417 683d
000001e0: 4668 0ebe e350 17be 5e48 ca3c 0638 a6bc
000001f0: 67af 3d3e 5eff 97bd 3480 0a3e f400 b6bd

base.actor.2.weight f4 [128, 128]
0.066598095 -0.040860508 -0.0795653 0.3475234 0.167646 -0.17770188 0.008862817 0.20404568
0.018800916 0.032602355 -0.30783755 -0.46549693 -0.22245756 -0.10801032 0.2109638 0.02680158
0.04653724 0.1743198 -0.21832737 -0.050268594 0.18731488 -0.30680445 0.0788737 -0.01646026
0.03797328 0.22304296 -0.07165554 0.0881821 0.019264119 0.043603424 -0.23221293 0.009134648
-0.28567943 -0.049707007 -0.06461426 -0.08667458 -0.18254901 -0.085965455 -0.09530243 -0.044922642
0.33254182 -0.39965862 -0.089899845 -0.114821784 -0.1134387 -0.08223697 -0.24999142 -0.08435239
0.1047836 -0.10516137 0.0016645921 -0.106096245 -0.1478315 0.07545477 0.3818808 0.1970977
-0.014595867 -0.27658656 -0.13982818 0.03280628 0.05133497 0.10748599 -0.17695954 -0.120149516
-0.27871585 -0.27598235 -0.22487663 0.13114417 -0.06959001 -0.23672955 0.11236249 -0.44832903
0.0108833015 -0.03237808 0.044502523 -0.37594926 0.12763721 -0.20804037 -0.18628444 0.079110496
-0.018625256 -0.2605981 -0.15219474 -0.11368293 -0.13606998 0.019555759 -0.10655765 0.54173654
-0.029690022 0.043800622 -0.09514298 -0.2375301 0.10579115 0.013755826 0.18049094 0.03118366
-0.31391883 -0.004203708 -0.1647335 0.009451356 -0.12328952 -0.0406377 0.014638981 0.07260909
0.06275414 -0.13813709 -0.085129574 -0.029810606 0.027629495 -0.15162912 -0.27681196 -0.0057935747
-0.026608706 -0.12198474 -0.033789143 -0.07873874 0.059367467 0.081208915 -0.12132395 -0.45601138
-0.060699277 -0.17111328 0.22705664 0.09168564 -0.053017408 0.34611678 -0.016506812 0.117244914
0.025281303 0.31491068 -0.09827302 0.14904073 -0.059322953 -0.09327508 0.042858303 0.07553372
0.29602897 -0.04337644 0.07987494 0.08028278 0.005988926 -0.08179504 -0.0753807 0.041232705
-0.034801196 0.056081545 -0.1537997 0.12715186 -0.229464 0.18209903 0.100099005 -0.21335953
-0.13661358 0.100919686 0.06741157 0.17041932 0.06818037 0.46452045 -0.09268863 -0.11675418
-0.19960326 0.21896136 -0.022719048 0.21398595 0.23015012 -0.32099146 -0.003950931 0.09520231
-0.116217256 0.50570846 0.30361557 -0.0033692275 0.048179075 0.22168198 -0.13756745 -0.1331418
-0.021142034 -0.2133262 0.22577044 0.100830294 0.044036243 -0.098639235 0.25279364 0.21945278
0.050708182 -0.092013344 -0.08818462 0.24646913 0.22950457 0.066563055 0.28288376 -0.27605224
-0.0630929 0.19835961 0.26262745 -0.12930197 0.10671429 0.5353303 -0.05000444 0.20235544
-0.034253642 0.3193884 -0.055432003 -0.043568682 0.44458127 -0.14210422 0.16913703 0.26651812
0.06934651 0.09602709 0.33343026 0.11245582 -0.19058043 0.12389736 -0.16329163 0.3594737
0.18688592 0.4680023 -0.07411698 -0.03713939 0.39804035 0.016665908 -0.0039708805 0.22142544
-0.0023855476 0.35778454 -0.2118902 -0.0005438098 0.028944792 0.07190661 -0.15156472 0.21983035
0.17537598 0.119796395 0.08987617 -0.328078 -0.17008157 -0.19019635 -0.109289 -0.02025666
0.2344813 0.0068927556 -0.021965677 0.040920757 -0.081453554 0.055106763 0.12860443 0.104470894
0.04554987 0.28339133 0.023530707 -0.12012007 -0.033531327 0.13023801 -0.00050159683 -0.021963915
00000000: 9564 883d 595d 27bd 22f3 a2bd 96ee b13e
00000010: 65ab 2b3e 7bf7 35be 5935 113c 5af1 503e
00000020: 6104 9a3c 0c8a 053d e29c 9dbe 9d55 eebe
00000030: eacb 63be 8434 ddbd e506 583e fd8e db3c
00000040: d59d 3e3d e480 323e 3691 5fbe 71e6 4dbd
00000050: 79cf 3f3e 7915 9dbe 8988 a13d abd7 86bc
00000060: df89 1b3d 6065 643e 24c0 92bd d198 b43d
00000070: c9cf 9d3c 8199 323d 3ac9 6dbe 7ea9 153c
00000080: 9344 92be 9399 4bbd 7b54 84bd 7182 b1bd
00000090: 21ee 3abe a80e b0bd ec2d c3bd ce00 38bd
000000a0: ec42 aa3e 0ea0 ccbe 691d b8bd af27 ebbd
000000b0: 8d52 e8bd db6b a8bd c0fd 7fbe f2c0 acbd
000000c0: c998 d63d d85e d7bd 712e da3a fd48 d9bd
000000d0: 2461 17be 0888 9a3d e185 c33e fbd3 493e
000000e0: 8123 6fbc c19c 8dbe 1e2f 0fbe e15f 063d
000000f0: 9e44 523d 9d21 dc3d e234 35be f310 f6bd
00000100: d8b3 8ebe 8f4d 8dbe 0f46 66be a84a 063e
00000110: 3585 8ebd 3b69 72be 4e1e e63d 628b e5be
00000120: e04f 323c e19e 04bd 4748 363d 6c7c c0be
00000130: 54b3 023e 8908 55be 59c1 3ebe af04 a23d
00000140: fe93 98bc 1d6d 85be f0d8 1bbe 99d2 e8bd
00000150: ee55 0bbe 6633 a03c e63a dabd 3faf 0a3f
00000160: 7d38 f3bc 4868 333d 53da c2bd 173b 73be
00000170: 08a9 d83d 1e60 613c 9ed2 383e e074 ff3c
00000180: f8b9 a0be 42bf 89bb e6af 28be dcd9 1a3c
00000190: 377f fcbd b873 26bd 56d8 6f3c 13b4 943d
000001a0: 3e85 803d cf73 0dbe 6a58 aebd 5f35 f4bc
000001b0: 4057 e23c aa44 1bbe 4cba 8dbe 07d8 bdbb
000001c0: 80fa d9bc 23d3 f9bd 7c66 0abd c741 a1bd
000001d0: 4d2b 733d dc50 a63d b178 f8bd 537a e9be
000001e0: ce9f 78bd 5238 2fbe 8981 683e aec5 bb3d
000001f0: c828 59bd 3836 b13e 4b39 87bc 1a1e f03d
00000200: bc1a cf3c f93b a13e 5d43 c9bd 229e 183e
00000210: a0fc 72bd 0107 bfbd 308c 2f3d 6cb1 9a3d
00000220: 1c91 973e 7eab 31bd 7995 a33d 4c6b a43d
00000230: c13e c43b 2884 a7bd 3261 9abd a0e3 283d
00000240: b38b 0ebd c3b5 653d ab7d 1dbe 1934 023e
00000250: 9cf8 6abe 2b78 3a3e b500 cd3d ec7a 5abe
00000260: 6ee4 0bbe fbae ce3d 140f 8a3d 6782 2e3e
00000270: 26a2 8b3d a0d5 ed3e 89d3 bdbd d11c efbd
00000280: cc64 4cbe 6837 603e 4c1d babc 221f 5b3e
00000290: 79ac 6b3e fe58 a4be d076 81bb 6ef9 c23d
000002a0: 5003 eebd 1c76 013f 8073 9b3e 42ce 5cbb
000002b0: 6c57 453d 9a00 633e 7bde 0cbe 5356 08be
000002c0: 0f32 adbc 2f72 5abe 5e30 673e 1d80 ce3d
000002d0: 595f 343d 5e03 cabd 2b6e 813e 3bb8 603e
000002e0: 62b3 4f3d 7e71 bcbd 239a b4bd 6762 7c3e
000002f0: 3f03 6b3e 3652 883d 24d6 903e b856 8dbe
00000300: da36 81bd c81e 4b3e 1b77 863e bc67 04be
00000310: 068d da3d 680b 093f 75d1 4cbd 4436 4f3e
00000320: 8c4d 0cbd e086 a33e ab0c 63bd 1375 32bd
00000330: 28a0 e33e c583 11be 4232 2d3e 1075 883e
00000340: 8b05 8e3d daa9 c43d 5fb7 aa3e 3d4f e63d
00000350: 8427 43be e6bd fd3d ec35 27be f00c b83e
00000360: 065f 3f3e ff9d ef3e a5ca 97bd 791f 18bd
00000370: f2cb cb3e f186 883c 291e 82bb 5abd 623e
00000380: d956 1cbb 892f b73e bff9 58be 758e 0eba
00000390: a11d ed3c c643 933d c833 1bbe 351b 613e
000003a0: c395 333e d057 f53d ff10 b83d d7f9 a7be
000003b0: dd29 2ebe d5c2 42be e9d2 dfbd 4cf1 a5bc
000003c0: de1b 703e a0dc e13b 5df1 b3bc 869c 273d
000003d0: 1fd1 a6bd a1b7 613d e1b0 033e d6f4 d53d
000003e0: 8092 3a3d ab18 913e 78c3 c03c 8301 f6bd
000003f0: 2558 09bd 1d5d 053e 987d 03ba abed b3bc

base.critic.0.bias f4 [128]
-0.093572825 1.0062425 -0.069976225 0.79707634 -0.051817797 0.8805925 -0.072460935 0.81975883
0.627552 0.032918178 -0.55567473 0.7516976 -0.7563048 1.2506595 0.3899383 0.8426414
0.94538677 0.19014166 -0.011207408 -0.06368886 0.67898077 -1.1176546 -0.029015569 -0.013516762
-0.06030514 -0.019967997 0.24344768 -0.049299963 1.7821186 0.0 -0.032861788 0.5572589
0.87453717 0.92986 0.91031605 -0.013232117 1.5994226 0.4684593 1.2714804 -0.7097665
0.83768886 0.9578767 -0.110368416 0.0 1.3421091 0.6708282 -0.09436101 -0.4396808
0.52772313 -0.06287665 0.7016995 0.8446423 0.39577568 -0.045173094 -0.033615552 0.77719265
0.31634313 0.57265806 0.30249202 0.40382883 0.5510238 0.9195779 -0.098460205 -0.09259852
-0.13232775 0.6282646 -0.07312084 0.5348943 -0.23599565 0.6171397 0.50671 0.55936456
-0.036294483 0.4910515 0.72362393 0.28182992 -0.021809954 -0.16122042 -0.121357135 0.87508667
-0.05219327 -0.083672136 0.80042124 0.27568403 0.8353691 0.7547574 0.7222428 0.1392946
-0.034849707 1.0864873 0.78973675 0.8901682 0.27134174 1.2689129 0.11503755 0.6310034
-0.06864765 1.3371044 -0.085855834 0.85103714 -0.4194894 -0.20247845 1.0189741 -0.008274896
-0.45928338 -0.014730595 0.07661966 0.31254 0.6094801 -0.62113196 1.0931 1.3528242
-0.0416838 -0.03617214 0.7795101 -0.052425046 -0.14487384 -0.28965455 0.19794223 -0.20872475
0.08832271 0.0 -0.03772231 -0.13076393 0.0020378758 -0.06831501 -0.08114538 0.47089157
00000000: 1ca3 bfbd 8ecc 803f b24f 8fbd 320d 4c3f
00000010: e63e 54bd 836e 613f 6666 94bd b7db 513f
00000020: 3fa7 203f 36d5 063d b340 0ebf 416f 403f
00000030: 319d 41bf 9c15 a03f fea5 c73e 59b7 573f
00000040: de04 723f 7fb4 423e 479f 37bc 4e6f 82bd
00000050: afd1 2d3f 4e0f 8fbf 0fb2 edbc 6975 5dbc
00000060: 8602 77bd ed93 a3bc 594a 793e c2ee 49bd
00000070: 761c e43f 0000 0000 159a 06bd 85a8 0e3f
00000080: abe1 5f3f 4e0b 6e3f 790a 693f 85cb 58bc
00000090: e1b9 cc3f e6d9 ef3e dfbf a23f 42b3 35bf
000000a0: c772 563f 6837 753f d608 e2bd 0000 0000
000000b0: 3bca ab3f 66bb 2b3f 5840 c1bd d81d e1be
000000c0: dd18 073f 79c5 80bd 94a2 333f 7a3a 583f
000000d0: 1ca3 ca3e 6c07 39bd 76b0 09bd 19f6 463f
000000e0: baf7 a13e b899 123f 3ce0 9a3e a7c2 ce3e
000000f0: e50f 0d3f 7569 6b3f 81a5 c9bd 4ba4 bdbd
00000100: ed80 07be f3d5 203f 61c0 95bd d5ee 083f
00000110: d8a8 71be defc 1d3f bfb7 013f 8432 0f3f
00000120: 86a9 14bd 1a6b fb3e 6b3f 393f 034c 903e
00000130: caaa b2bc f716 25be 178a f8bd ae05 603f
00000140: 9cc8 55bd 4c5c abbd 68e8 4c3f 7526 8d3e
00000150: c0da 553f c837 413f e7e4 383f 3ea3 0e3e
00000160: 91be 0ebd 0412 8b3f 302c 4a3f 10e2 633f
00000170: 4eed 8a3e bd6b a23f cf98 eb3d 7089 213f
00000180: 2497 8cbd 3d26 ab3f 2fd5 afbd 92dd 593f
00000190: 51c7 d6be 8356 4fbe be6d 823f 6e93 07bc
000001a0: 3127 ebbe 9858 71bc c5ea 9c3d 3e05 a03e
000001b0: e306 1c3f 8102 1fbf b3ea 8b3f 5829 ad3f
000001c0: a2bc 2abd 3d29 14bd f98d 473f a5bb 56bd
000001d0: cf59 14be 9a4d 94be 5eb1 4a3e f1bb 55be
000001e0: 89e2 b43d 0000 0000 b582 1abd fbe6 05be
000001f0: e28d 053b bde8 8bbd 8d2f a6bd b318 f13e

base.critic.0.weight f4 [128, 30]
0.16412142 -0.00801455 -0.18045425 -0.13216855 -0.085899495 -0.261414 -0.13495934 -0.020209001
-0.23850927 -0.07846376 -0.2032294 -0.15502292 -0.2572159 -0.15633796 -0.15956709 0.068159595
-0.22027221 0.17305422 0.07025869 -0.37729245 -0.046195965 -0.03454567 -0.32821372 -0.36138096
-0.06577027 0.05222403 -0.72971284 0.07541811 -0.13086358 0.18579634 0.29164407 0.19838242
-0.00685684 0.18512736 -0.11740514 0.17891738 0.2607824 -0.0025661355 -0.07097756 0.07329699
-0.18894169 0.23748854 0.19259311 -0.01943167 -0.06067297 0.11901547 -0.0114211915 0.14795509
0.15514532 -0.22591743 0.20805825 0.004791576 -0.05280466 0.16683006 0.07309774 -0.2680763
-0.14384522 0.14643899 -0.033679325 0.30217427 -0.1939397 0.041592184 -0.02162103 -0.10285896
0.080111325 0.030898303 0.06995542 -0.16087806 -0.117127985 -0.13071692 0.20109046 -0.19005455
0.053596288 0.07289811 -0.09482196 -0.107736185 0.030021306 -0.008238622 0.068787485 -0.33258337
0.038295075 -0.22075613 0.15031675 0.010805926 -0.34885377 -0.107392795 -0.045254454 -0.14754876
-0.08703213 0.123529315 -0.1886804 0.05625925 0.17695905 -0.058736727 -0.011685074 0.44776535
-0.12250574 -0.0074204504 0.47944918 -0.04476857 -0.0957549 -0.09686878 -0.3715702 0.10623393
-0.1260793 -0.050876092 -0.0676387 0.30803266 -0.024481565 0.19511817 0.22067124 -0.08406471
0.22919135 0.66835475 -0.13640203 0.2844955 0.38993943 -0.33249494 -0.25298783 -2.4480526
-0.40457767 0.14756794 0.27905232 -0.11337432 0.2551328 0.33006024 -0.37314054 0.10429255
0.22245277 -0.5762966 0.19802715 0.28428084 -0.2510986 0.26321405 0.44141382 -0.0972096
-0.009278141 0.039057396 -0.31459633 0.061090548 0.043396186 -0.24478467 0.08315652 -0.03953728
-0.27241966 0.0040308437 0.03303461 -0.55124766 -0.012080869 -1.1775668 0.1073198 0.03478812
-0.0026526444 0.0176235 0.06961258 0.057955287 0.00024333868 0.08632088 0.083793156 -0.11411405
0.050143547 0.10944065 0.09998792 -0.22135322 0.0836203 -0.10129079 -0.08697655 0.11292969
-0.04869794 0.09685888 0.14513591 0.2157369 0.059300944 0.068497136 0.20924985 0.046587806
0.16298729 0.19220628 -0.038853616 0.042809308 -0.24119991 -0.059851438 -0.09399015 0.1007662
0.021435617 0.030730104 -0.052428063 -0.109972864 -0.035952818 -0.10387195 -0.1360545 -0.122453734
-0.025298923 0.16175249 -0.2402839 -0.4154906 -0.10656632 0.055112936 -0.081167094 -0.0827393
-0.1535543 0.044717014 -0.046036635 0.1610487 -0.09988316 0.029504744 -0.06390811 0.025691029
0.10080051 0.10719057 0.39912352 -0.22863023 0.0017371422 0.4520062 -0.111997046 -0.00043965998
0.17832021 -0.2246421 -0.013527763 -0.009445112 -0.11625975 -0.024339747 -0.059911408 -0.14838117
-0.14221051 -0.042829417 -0.3858318 -0.12720054 -0.57878804 -0.53992146 -0.058308143 -0.7171712
-0.6464797 0.07930061 -0.5331769 -0.42013192 0.21152805 -0.35052058 0.1670542 -0.11922081
-0.029686056 -0.09546519 -0.08219802 -0.04880923 -0.12655467 0.13325545 -0.13755107 -0.29190433
0.050123528 0.27573717 -0.06973101 -0.07659489 -0.13563998 -0.18335345 -0.17009868 0.15080558
00000000: 720f 283e 764f 03bc 00c9 38be 3157 07be
00000010: 13ec afbd 0ed8 85be c832 0abe 598d a5bc
00000020: c63b 74be 9cb1 a0bd 5e1b 50be 54be 1ebe
00000030: cdb1 83be 0f17 20be 8e65 23be 4297 8b3d
00000040: 0a8f 61be 2035 313e cae3 8f3d 7a2c c1be
00000050: fb37 3dbd c37f 0dbd a10b a8be ed06 b9be
00000060: 90b2 86bd dde8 553d 76ce 3abf cf74 9a3d
00000070: 1a01 06be 6541 3e3e 5f52 953e c324 4b3e
00000080: 58af e0bb 0792 3d3e 1b72 f0bd 1e36 373e
00000090: 4585 853e 9c2c 28bb af5c 91bd bb1c 963d
000000a0: ee79 41be 3230 733e 2137 453e 2a2f 9fbc
000000b0: 3884 78bd 62be f33d f31f 3bbc 8a81 173e
000000c0: 6ade 1e3e e656 67be 390d 553e a702 9d3b
000000d0: b349 58bd 80d5 2a3e 45b4 953d 4c41 89be
000000e0: 294c 13be 1af4 153e 55f3 09bd 96b6 9a3e
000000f0: 2198 46be 915c 2a3d 961e b1bc b8a7 d2bd
00000100: 6811 a43d 701e fd3c ca44 8f3d 38bd 24be
00000110: cce0 efbd a8da 05be a8ea 4d3e a99d 42be
00000120: c887 5b3d 9b4b 953d 0432 c2bd caa4 dcbd
00000130: 3eef f53c 49fb 06bc 74e0 8c3d 5e48 aabe
00000140: 4cdb 1c3d e50d 62be a2ec 193e 570b 313c
00000150: f69c b2be c1f0 dbbd bc5c 39bd 0617 17be
00000160: e73d b2bd f0fc fc3d 6f35 41be 1970 663d
00000170: c134 353e ec95 70bd c172 3fbc 8041 e53e
00000180: 4ae4 fabd 4027 f3bb 5d7a f53e 405f 37bd
00000190: 251b c4bd 2463 c6bd 733e bebe 2d91 d93d
000001a0: ef1a 01be 7363 50bd 2986 8abd 75b6 9d3e
000001b0: 908d c8bc 0fcd 473e a4f7 613e 1e2a acbd
000001c0: 23b1 6a3e 4c19 2b3f f9ac 0bbe 65a9 913e
000001d0: 24a6 c73e c73c aabe 9f87 81be e5ac 1cc0
000001e0: ce24 cfbe 0d1c 173e f2df 8e3e cc30 e8bd
000001f0: c4a0 823e a8fd a83e 470c bfbe 5597 d53d
00000200: a9ca 633e 2d88 13bf a1c7 4a3e 428d 913e
00000210: ff8f 80be fec3 863e fe00 e23e d415 c7bd
00000220: 5803 18bc a6fa 1f3d c512 a1be 153a 7a3d
00000230: 33c0 313d d5a8 7abe f74d aa3d d8f1 21bd
00000240: 977a 8bbe 2b15 843b 4d4f 073d 911e 0dbf
00000250: d6ee 45bc 82ba 96bf 7cca db3d fd7d 0e3d
00000260: fdd7 2dbb 295f 903c 0a91 8e3d 8662 6d3d
00000270: bb28 7f39 00c9 b03d bf9b ab3d a1b4 e9bd
00000280: 5263 4d3d 6b22 e03d 77c6 cc3d 6baa 62be
00000290: 1f41 ab3d 8c71 cfbd c320 b2bd ae47 e73d
000002a0: 7e77 47bd f35d c63d 829e 143e 22ea 5c3e
000002b0: 8ce5 723d 3a48 8c3d 9845 563e dbd2 3e3d
000002c0: 24e6 263e b9d1 443e f824 1fbd d058 2f3d
000002d0: 1cfd 76be c826 75bd e87d c0bd 825e ce3d
000002e0: bf99 af3c b3bd fb3c cfbe 56bd 7439 e1bd
000002f0: 4343 13bd d1ba d4bd df51 0bbe 06c9 fabd
00000300: b03f cfbc 72a2 253e fc0c 76be 2fbb d4be
00000310: 713f dabd 1abe 613d ef3a a6bd 3973 a9bd
00000320: 573d 1dbe 3029 373d e990 3cbd f3e9 243e
00000330: 8b8f ccbd efb3 f13c 41e2 82bd fe75 d23c
00000340: 7f70 ce3d bb86 db3d eb59 cc3e 0b1e 6abe
00000350: d2b0 e33a 5b6d e73e b55e e5bd 2a82 e6b9
00000360: 9399 363e 9408 66be 8da3 5dbc acbf 1abc
00000370: 9819 eebd 2664 c7bc aa65 75bd 3cf1 17be
00000380: a29f 11be e66d 2fbd bf8b c5be dc40 02be
00000390: 742b 14bf 4b38 0abf 85d4 6ebd 8898 37bf
000003a0: b27f 25bf 5c68 a23d 487e 08bf 881b d7be
000003b0: cf9a 583e 6f77 b3be 4210 2b3e 0a2a f4bd
000003c0: 2c30 f3bc 4183 c3bd 6f57 a8bd 30ec 47bd
000003d0: 8c97 01be 1e74 083e 30da 0cbe 7c74 95be
000003e0: 544e 4d3d 6c2d 8d3e 22cf 8ebd c8dd 9cbd
000003f0: 35e5 0abe 02c1 3bbe 592e 2ebe c76c 1a3e

base.critic.2.bias f4 [128]
0.37458283 -0.17949545 0.6756291 -0.04684202 -0.016057525 0.6907619 -0.28579378 -0.04991536
-1.0721395 1.0433344 1.0315562 0.010806817 0.10467619 1.033154 1.0249021 -0.0528709
-0.85062826 -0.8098024 0.27668652 0.62529564 1.0226171 1.0381733 0.97113883 1.0400189
1.0400734 1.01934 1.0404801 -0.03339529 0.6426931 -0.14140576 1.0349592 -0.02434949
1.0379716 -0.009620484 -0.071732946 -0.120767124 -0.009399763 -0.09247098 1.0412955 -0.042186502
-0.03751523 -0.009096432 -0.038170908 0.760012 1.0330981 -0.0042195553 -0.9417749 -0.008891961
-0.036277227 1.0421159 -0.042921588 0.8898556 -0.5683288 -0.023509413 1.0474671 1.0423656
1.0397465 -0.9655607 -0.029389951 -0.024221634 0.4592754 0.6065842 -0.021302616 1.0489366
1.0418679 1.03969 0.028598798 0.9356207 0.98526907 -0.40038234 0.3385615 -0.057273775
1.0600473 -0.13852406 -0.00085830706 0.52747375 1.0474118 1.0383828 -0.054330215 0.0
-0.04690204 -0.8032051 -0.0274111 -0.12452404 -0.012306379 -0.11501341 -0.027248895 -0.8350129
0.9708367 -0.026189972 0.94688684 -0.5239828 -0.046283375 1.0411934 1.036834 0.58799684
-0.038716074 -0.13931617 -0.050066024 1.0389787 -0.067406505 1.0407484 -0.05351812 -0.60528576
1.0338788 -0.015369713 0.08346587 1.0223424 1.0112312 1.0273578 -0.54005057 -0.043754693
0.0050352653 -0.004600526 -0.066889636 0.985135 1.0410979 0.48993105 -0.73253065 0.9799319
-0.028548114 -0.054096766 -0.0499539 -0.015747666 1.0546445 1.0439861 -0.05311039 -0.00920523
00000000: 52c9 bf3e a8cd 37be 07f6 2c3f 6bdd 3fbd
00000010: 128b 83bc c6d5 303f 9053 92be 0c74 4cbd
00000020: de3b 89bf fb8b 853f 090a 843f 130f 313c
00000030: 7860 d63d 643e 843f fe2f 833f 288f 58bd
00000040: c6c2 59bf 364f 4fbf dba9 8d3e 6013 203f
00000050: 1ee5 823f dde2 843f 8e9c 783f 571f 853f
00000060: 2021 853f bc79 823f 742e 853f 80c9 08bd
00000070: 8987 243f accc 10be 8b79 843f 9578 c7bc
00000080: 41dc 843f 3c9f 1dbc b9e8 92bd c154 f7bd
00000090: 7701 1abc 6d61 bdbd 2c49 853f c1cb 2cbd
000000a0: 92a9 19bd 3309 15bc 1959 1cbd 2590 423f
000000b0: 8f3c 843f 3244 8abb 2918 71bf 96af 11bc
000000c0: 6e97 14bd 0e64 853f 8cce 2fbd 94cd 633f
000000d0: ff7d 11bf d096 c0bc 6713 863f 3c6c 853f
000000e0: 6a16 853f fc2e 77bf 32c3 f0bc 736c c6bc
000000f0: 2526 eb3e 1a49 1b3f d382 aebc 8e43 863f
00000100: ed5b 853f 9014 853f 0748 ea3c d784 6f3f
00000110: 983a 7c3f eafe ccbe ef57 ad3e e897 6abd
00000120: a1af 873f 40d9 0dbe 0300 61ba 8508 073f
00000130: 9711 863f bae9 843f 5c89 5ebd 0000 0000
00000140: 5a1c 40bd d99e 4dbf 3e8d e0bc 7606 ffbd
00000150: b2a0 49bc 278c ebbd 1339 dfbc 68c3 55bf
00000160: c188 783f 5a8c d6bc 2d67 723f bd23 06bf
00000170: a393 3dbd d345 853f fab6 843f f686 163f
00000180: bf94 1ebd e6a8 0ebe 0812 4dbd 41fd 843f
00000190: 6c0c 8abd 3e37 853f d135 5bbd 02f4 1abf
000001a0: 2456 843f 40d1 7bbc 27f0 aa3d 1edc 823f
000001b0: 0670 813f 7680 833f c140 0abf 1f38 33bd
000001c0: defe a43b 02c0 96bb 6ffd 88bd cf31 7c3f
000001d0: b242 853f 3ed8 fa3e 2187 3bbf d1dc 7a3f
000001e0: bcdd e9bc 9294 5dbd 769c 4cbd 4001 81bc
000001f0: 97fe 863f 56a1 853f 488a 59bd 88d1 16bc

base.critic.2.weight f4 [128, 128]
-0.023642223 0.07512782 -0.21631297 0.011293607 0.98222274 -0.019941268 0.018671054 0.15558487
0.18654244 -0.24413663 -0.19781779 0.26816252 0.31006405 0.9594079 -0.49411392 -0.34309676
-0.005163678 0.3172296 -0.13478865 -0.20223449 1.4275076 -0.75620323 -0.0126851965 0.28956318
0.07861809 -0.17004913 0.57964677 -0.18064904 0.83717126 0.14341865 -0.06444671 0.7476955
0.107597254 0.38391778 0.42260724 0.05383969 0.6808485 -0.69284993 1.0257093 -0.63102704
-0.41101876 0.43348902 0.017984886 -0.06578275 0.36901665 0.46351203 -0.019712491 0.10255753
-0.23210676 -0.18506259 -0.45656866 -0.5248409 0.8915804 0.62699676 -0.05237951 0.23315759
1.1370256 0.057568774 0.052676912 0.6843515 -0.0932431 0.26789474 0.038235866 0.11270002
-0.41939285 0.5437013 -0.06488864 0.8197449 0.29073966 1.4200096 -0.62688285 0.96674967
-0.029204346 -0.59263235 -0.31663874 0.19464828 0.003491537 -1.2694534 -0.31279582 -0.09527464
-0.13472506 -0.28283584 0.6704472 -0.5218451 1.1057873 -0.36192164 -0.34673655 -0.032423187
0.04939123 0.5359582 0.76293343 0.20761712 -0.552368 0.5554532 -0.47803167 0.024478037
-0.046830885 0.4519782 -0.0049676206 -0.34580103 0.23011784 1.7142608 0.53854305 -0.24806401
0.19219086 -0.09582645 0.5324986 -0.23363835 0.4282821 -1.3274077 1.5923734 0.6250841
-0.31009057 0.12065828 0.15850934 -0.0054242346 0.21913274 0.13143457 -1.493335 -0.072916
-1.0251812 0.084258884 0.14675613 0.15434256 0.023707436 -0.030728655 -0.37268835 -0.5321615
-0.013986662 -0.009124703 0.19901013 1.1601449 0.794113 0.17600141 0.06027885 -1.0425229
-0.053297088 -0.27396733 0.4592767 -0.41815582 0.6290853 0.24148105 -0.18153693 0.26970693
0.16539988 0.26058793 0.025890522 0.010301543 -0.14102547 -0.5959927 0.04582549 -0.13651565
0.007361163 -0.029267348 0.3885284 -0.014380053 -0.014984184 0.15999746 -0.18428148 0.6234882
0.27742374 0.045489747 0.26667687 -0.03272776 1.8675845 0.03555734 0.6154982 -0.07332029
-0.37192598 -0.08711423 -0.10751253 0.0422864 0.94419086 0.13085376 -0.01594009 0.74093205
-0.12420027 0.1597132 -0.86284393 -0.51763594 0.64822674 0.5552945 0.0592729 0.2404217
1.2968459 -0.04976916 0.111244775 -0.87244236 0.15411359 -0.025819791 0.014543145 -0.3012645
0.08329121 -0.25692296 0.3938062 -0.9528716 0.3648376 0.58982044 -0.27753633 -1.2078027
-0.071263105 -0.2914925 -0.068210125 0.20223181 0.16460766 0.82926095 -0.20389701 -0.11047864
-0.10513475 0.1586934 0.4371849 0.16811925 0.63236266 0.022215817 0.13835935 -0.22615325
0.027985238 -0.10541968 0.74748474 0.07759252 0.17982441 0.119387366 -0.08229023 0.12674531
0.05529105 0.4478742 -0.26089877 -0.06263486 -0.10751327 0.59209275 0.095369585 0.24564667
0.6761248 0.067736775 0.025226932 0.48384392 -0.81996834 -0.03582381 -0.7932167 0.2638047
-0.06486679 0.077881575 0.17977038 0.09682727 -0.026938172 0.16011584 -0.47205788 -0.25760376
0.28199607 0.24675378 -0.07649891 0.5140461 -0.2204045 0.0041640163 -0.58087957 0.040511373
00000000: 56ad c1bc 9ddc 993d 2681 5dbe d208 393c
00000010: f372 7b3f df5b a3bc 0af4 983c a451 1f3e
00000020: fb04 3f3e f4fe 79be bf90 4abe 994c 893e
00000030: b7c0 9e3e c29b 753f 80fc fcbe 61aa afbe
00000040: 1234 a9bb eb6b a23e 0906 0abe 8f16 4fbe
00000050: 92b8 b63f 8996 41bf 92d5 4fbc a041 943e
00000060: 8502 a13d 5c21 2ebe bb63 143f 10fc 38be
00000070: db50 563f 57dc 123e a3fc 83bd f968 3f3f
00000080: f35b dc3d df90 c43e fa5f d83e 0287 5c3d
00000090: 164c 2e3f 9d5e 31bf 714a 833f fd8a 21bf
000000a0: 0d71 d2be 46f2 dd3e 0a55 933c 1bb9 86bd
000000b0: c0ef bc3e 7351 ed3e 177c a1bc af09 d23d
000000c0: 65ad 6dbe 0c81 3dbe 5ec3 e9be f95b 06bf
000000d0: 9d3e 643f dc82 203f e68b 56bd ddc0 6e3e
000000e0: 0e8a 913f 3ccd 6b3d bfc3 573d a931 2f3f
000000f0: 3df6 bebd 8029 893e 369d 1c3d 45cf e63d
00000100: a9ba d6be 0230 0b3f 56e4 84bd cdda 513f
00000110: d4db 943e e0c2 b53f 657b 20bf e87c 773f
00000120: f43d efbc c1b6 17bf 791e a2be e151 473e
00000130: 45d2 643b 737d a2bf c626 a0be 5a1f c3bd
00000140: 5ef5 09be dccf 90be 6da2 2b3f a497 05bf
00000150: 708a 8d3f cb4d b9be 7487 b1be 2dce 04bd
00000160: 754e 4a3d 8e34 093f 9b4f 433f 9599 543e
00000170: fd67 0dbf 2e32 0e3f 91c0 f4be 2a86 c83c
00000180: bed1 3fbd b069 e73e 6cc7 a2bb d50c b1be
00000190: 03a4 6b3e e66c db3f f5dd 093f 7e04 7ebe
000001a0: aecd 443e a840 c4bd d451 083f e43e 6fbe
000001b0: cb47 db3e 7fe8 a9bf e4d2 cb3f 8305 203f
000001c0: 31c4 9ebe b01b f73d 4650 223e c7bd b1bb
000001d0: 5564 603e c996 063e 9a25 bfbf fc54 95bd
000001e0: 2339 83bf ec8f ac3d 3d47 163e fa0b 1e3e
000001f0: 1936 c23c a9ba fbbc 02d1 bebe bc3b 08bf
00000200: 5028 65bc c77f 15bc 50c9 4b3e a17f 943f
00000210: fd4a 4b3f b739 343e f5e6 763d 6471 85bf
00000220: 0c4e 5abd 7245 8cbe 5126 eb3e 8518 d6be
00000230: bc0b 213f cf46 773e d1e4 39be 0717 8a3e
00000240: 965e 293e c86b 853e 5c18 d43c cec7 283c
00000250: fb68 10be fa92 18bf 82b3 3b3d c2ca 0bbe
00000260: e935 f13b 14c2 efbc 32ed c63e 509a 6bbc
00000270: 3980 75bc 60d6 233e 49b4 3cbe ec9c 1f3f
00000280: 7c0a 8e3e 7553 3a3d df89 883e 8b0d 06bd
00000290: 020d ef3f 93a4 113d 4a91 1d3f f328 96bd
000002a0: 156d bebe f268 b2bd 882f dcbd 8134 2d3d
000002b0: 7eb6 713f 87fe 053e cb94 82bc b9ad 3d3f
000002c0: b65c febd db8b 233e 57e3 5cbf ca83 04bf
000002d0: 30f2 253f c827 0e3f 24c8 723d 1b31 763e
000002e0: 0cff a53f bfda 4bbd 4dd4 e33d 6258 5fbf
000002f0: f4cf 1d3e 0784 d3bc 5f46 6e3c 573f 9abe
00000300: 9594 aa3d 688b 83be f7a0 c93e 65ef 73bf
00000310: fecb ba3e 79fe 163f 3e19 8ebe 4799 9abf
00000320: 64f2 91bd 813e 95be c0b1 8bbd db15 4f3e
00000330: e98e 283e 724a 543f 61ca 50be a042 e2bd
00000340: e350 d7bd 8680 223e b3d6 df3e 7427 2c3e
00000350: 85e2 213f f2fd b53c 13ae 0d3e b894 67be
00000360: 4c41 e53c 46e6 d7bd 295b 3f3f d4e8 9e3d
00000370: e423 383e 5d81 f43d c887 a8bd 86c9 013e
00000380: de78 623d c44f e53e 8694 85be b546 80bd
00000390: eb2f dcbd 6493 173f 2151 c33d cd8a 7b3e
000003a0: 8416 2d3f 94b9 8a3d b6a8 ce3c 64ba f73e
000003b0: 72e9 51bf fdbb 12bd 4010 4bbf 6911 873e
000003c0: e1d8 84bd 6080 9f3d ba15 383e 604d c63d
000003d0: 71ad dcbc 68f5 233e 92b1 f1be a4e4 83be
000003e0: ca61 903e 06ad 7c3e 76ab 9cbd 8698 033f
000003f0: b8b1 61be 4d72 883b 86b4 14bf 41ef 253d

base.critic_linear.weight f4 [1, 128]
3.4340053 -0.9135482 1.0403885 0.007447136 -2.3834572 1.6576732 3.2067232 -0.2072946
-4.4783077 0.627564 0.69065857 0.02623305 0.9405758 0.4548578 0.55798787 -0.13686073
-2.8920186 -3.287152 2.9485624 2.588563 0.5021369 0.5529498 0.85747784 0.6384154
0.6582187 0.5619379 0.6153376 -0.011245147 1.7035556 -1.2052637 0.58656853 -0.12830815
0.583591 -0.1488315 0.08275982 -0.11565107 -0.076464504 -0.053073302 0.5025587 -0.23854627
-0.035608944 -0.0693723 -0.041531894 1.3181773 0.49217075 0.018251117 -3.5224595 0.11521039
0.064324506 0.6267186 -0.17906605 2.4529653 -2.8177574 -0.24635303 0.8803161 0.62438136
0.6227505 -3.0998454 -0.06942607 -0.3102808 1.0673238 1.6467199 -0.08326702 0.61358845
0.57355785 0.6257501 -1.3365654 0.8496092 0.74330616 -3.0783494 2.6144686 -0.08449262
0.5966897 -0.06271965 0.071820505 1.1442975 0.5563124 0.74235725 -0.1287221 0.16710383
-0.08887049 -2.9597507 -0.16193856 -0.98976624 -0.19068444 -0.09807312 -0.20526393 -3.0299547
0.5257164 0.09346587 1.7102733 -1.5337722 -0.05726074 0.64928657 0.59790677 1.1737964
-0.07696293 -1.8439507 -0.1454306 0.59003615 -0.16391668 0.60044 0.040579073 -2.9594228
0.537939 0.017176043 -0.0067603537 0.7117239 0.7550396 0.65357107 -3.7315412 -0.13806793
0.061917126 0.032638796 -0.009520168 0.58757126 0.51602215 1.3851626 -2.984828 0.65423983
0.0090675065 -0.009514979 0.009593764 -0.08921533 0.5271547 0.80236465 -0.19162843 0.030453552
00000000: bec6 5b40 4bde 69bf 732b 853f 1b07 f43b
00000010: 908a 18c0 a32e d43f f43a 4d40 0945 54be
00000020: 4c4e 8fc0 09a8 203f 00cf 303f b1e6 d63c
00000030: 93c9 703f 1fe3 e83e 4bd8 0e3f 3825 0cbe
00000040: d516 39c0 b360 52c0 3fb5 3c40 04ab 2540
00000050: 0b8c 003f 1e8e 0d3f ab83 5b3f 316f 233f
00000060: 0581 283f 2adb 0f3f c486 1d3f 913d 38bc
00000070: 1c0e da3f 1546 9abf 5b29 163f 3663 03be
00000080: 3866 153f 4967 18be fb7d a93d 78da ecbd
00000090: 6c99 9cbd 6463 59bd b0a7 003f 7945 74be
000000a0: afda 11bd 1013 8ebd 591d 2abd 09ba a83f
000000b0: cefd fb3e 5e83 953c fa6f 61c0 6df3 eb3d
000000c0: 91bc 833d a170 203f 175d 37be 62fd 1c40
000000d0: 2356 34c0 f843 7cbe 655c 613f 75d7 1f3f
000000e0: 946c 1f3f de63 46c0 412f 8ebd 20dd 9ebe
000000f0: 119e 883f b8c7 d23f e687 aabd 2214 1d3f
00000100: b0d4 123f 2931 203f 9314 abbf fd7f 593f
00000110: 5049 3e3f ad03 45c0 7453 2740 770a adbd
00000120: a8c0 183f 2973 80bd a116 933d 5778 923f
00000130: 7d6a 0e3f 200b 3e3f bacf 03be 441d 2b3e
00000140: bb01 b6bd 8e6c 3dc0 39d3 25be 5261 7dbf
00000150: c842 43be 8fda c8bd b530 52be c7ea 41c0
00000160: 5a95 063f 096b bf3d 3cea da3f a652 c4bf
00000170: 3d8a 6abd a537 263f 6b10 193f f63e 963f
00000180: be9e 9dbd 9406 ecbf c2eb 14be 9c0c 173f
00000190: c6d9 27be 70b6 193f 3e36 263d 2f67 3dc0
000001a0: 5fb6 093f c6b4 8c3c f585 ddbb 8a33 363f
000001b0: 464a 413f 6f50 273f 92d1 6ec0 ae61 0dbe
000001c0: d09c 7d3d 42b0 053d 7bfa 1bbc 126b 163f
000001d0: 071a 043f 024d b13f 6c07 3fc0 437c 273f
000001e0: e18f 143c b7e4 1bbc 2a2f 1d3c 87b6 b6bd
000001f0: 9cf3 063f c567 4d3f 3e3a 44be ba79 f93c

dist.fc_mean.0.bias f4 [3]
-0.052624974 0.1318692 0.06795706
00000000: 498d 57bd b808 073e 122d 8b3d

dist.fc_mean.0.weight f4 [3, 128]
0.09623126 0.070314355 -0.2652925 -0.07488861 -0.24770659 0.3307237 0.048477218 -0.114985906
0.19329108 0.32453188 0.16142479 0.25256264 0.24282743 -0.39790514 -0.22563374 0.033340044
0.579038 0.45238772 0.03951902 0.020775145 -0.79512525 -0.090532176 0.29382282 0.23706228
0.65980494 -0.6818369 -0.08988286 -0.37376872 -0.3285104 -0.22611041 -0.7127794 -1.1145899
0.10170426 -0.103959456 -0.3989019 0.42995325 -0.25700942 -0.06968464 -0.03515859 0.41106135
0.33971342 0.091101274 0.14279205 0.0368001 0.02424383 -0.31750643 0.03978266 -0.051362064
-0.033511598 0.0039261216 -0.14683525 1.5239363 0.3417643 -0.4726132 0.2837807 -0.033812493
0.044979684 -0.35831943 0.12645663 0.009438679 -0.12689033 0.06573955 -0.06406998 -0.31864998
0.25842696 0.22214927 -0.03449483 -0.10529877 0.09786494 -0.036759004 -0.14357528 -0.26319137
0.43972632 -0.32677346 -0.135186 0.3288501 -0.061904468 0.116604745 0.3772638 1.453032
0.08864935 -0.15666996 -0.032962542 0.068043336 -0.5398949 -0.7237176 0.2488182 -0.005840518
0.08187647 -0.025391255 -0.10605289 0.4247674 0.11580668 0.1478273 -0.010720038 -0.046549194
0.74729335 0.1959934 0.07775198 -0.10045357 0.020800818 0.0070820767 -0.012877179 0.3938708
-0.2657164 0.26742253 0.08701349 -0.027987631 0.02574168 -0.06423128 0.24901752 -0.7803947
0.595522 -0.25132614 0.14156057 -1.2226155 0.17643557 0.019018898 0.1611778 -0.024132717
1.1828398 0.06761875 0.6185092 -0.17932582 -0.26073712 -0.012546814 0.13547406 0.23131059
0.30597752 0.13168557 0.11410184 -0.0057263714 -0.02449972 -0.18604445 0.07730693 0.09370243
-0.097664095 0.21472882 0.049240407 0.29360196 -0.29765376 -0.07534478 0.43864292 0.057273317
-0.56303936 0.22417012 0.093453705 -0.022630997 -0.029569922 0.093015544 0.060045313 0.024845531
-0.471859 -0.5067112 -0.34291515 -0.044729214 -0.50689334 0.07102573 0.09954546 -0.9227832
-0.05800683 0.0796743 -0.35317078 -0.51175267 -0.3752742 0.07834898 0.19314022 -0.33304864
-0.33753034 0.16129644 0.1562114 -0.038409933 -0.025929691 -0.80590534 0.040823102 -0.018417861
0.46303436 -0.12270389 0.06581071 -1.473426 0.019964412 -0.39071926 -0.6121554 0.326691
-0.34889883 -0.14201242 0.2663223 -0.06692987 -0.78020644 -0.01379111 -0.51548654 0.02945389
0.06761377 -0.09267268 -0.11811002 -0.16038962 0.25485924 -0.11526639 0.23545454 0.07490945
-0.04136274 0.4282838 0.23941569 0.21404241 -0.16114272 -0.25714517 0.083722815 -1.3599536
-0.09110313 0.1283461 0.0506458 0.104354225 0.07507353 -0.30325505 -0.28404403 -0.05573415
0.40670803 -0.13712512 0.09115168 -0.3470324 -0.30074406 -0.15908414 0.11673516 -0.023771748
-0.6792155 0.019254295 0.2407456 -0.066606455 0.063852414 -0.21445535 0.1348172 -0.56247026
-0.32860154 -0.21044499 -0.33411878 -1.0724965 0.067510374 0.0607332 -0.062255934 -0.18006682
-0.6432705 -0.0080341045 0.043261904 -0.30019936 0.052299935 0.41547254 -0.22996823 0.047688108
-0.7968213 0.019486193 -0.16499163 -0.07464235 0.26955763 0.028406141 -1.4820879 -0.00011978706
00000000: e514 c53d f900 903d 6bd4 87be 335f 99bd
00000010: cca6 7dbe 9e54 a93e 0c90 463d bb7d ebbd
00000020: 19ee 453e 0b29 a63e 8a4c 253e e44f 813e
00000030: c1a7 783e 39ba cbbe 880c 67be 928f 083d
00000040: d63b 143f 5d9f e73e b2de 213d a330 aa3c
00000050: 548d 4bbf ef68 b9bd f26f 963e 74c0 723e
00000060: fae8 283f dd8c 2ebf 8114 b8bd 9d5e bfbe
00000070: 8432 a8be 7d89 67be b678 36bf e2aa 8ebf
00000080: 534a d03d b2e8 d4bd df3c ccbe d522 dc3e
00000090: bd96 83be d2b6 8ebd 7402 10bd a276 d23e
000000a0: ebee ad3e 4e93 ba3d 1438 123e b4bb 163d
000000b0: ff9a c63c 3490 a2be 24f3 223d 0761 52bd
000000c0: 7543 09bd b2a6 803b fb5b 16be 5810 c33f
000000d0: bbfb ae3e 5bfa f1be b44b 913e f87e 0abd
000000e0: 9e3c 383d a575 b7be d97d 013e b0a4 1a3c
000000f0: 8aef 01be 75a2 863d 1f37 83bd 1726 a3be
00000100: 8a50 843e 197b 633e 734a 0dbd e2a6 d7bd
00000110: 6a6d c83d 9c90 16bd 6605 13be 05c1 86be
00000120: cf23 e13e da4e a7be 336e 0abe 0a5f a83e
00000130: 8a8f 7dbd 78ce ee3d b928 c13e f4fc b93f
00000140: ca8d b53d 176e 20be bb03 07bd 4e5a 8b3d
00000150: 8d36 0abf 8e45 39bf 33ca 7e3e d161 bfbb
00000160: daae a73d 5201 d0bc 4232 d9bd 1d7b d93e
00000170: 0d2c ed3d 0a60 173e 19a3 2fbc 5eaa 3ebd
00000180: 9e4e 3f3f 7eb2 483e 6e3c 9f3d 9aba cdbd
00000190: 7a66 aa3c c410 e83b cefa 52bc 6fa9 c93e
000001a0: fb0b 88be 9beb 883e 2134 b23d 5146 e5bc
000001b0: 37e0 d23c b08b 83bd 73fe 7e3e f2c7 47bf
000001c0: 2174 183f d2ad 80be 41f5 103e aa7e 9cbf
000001d0: 87ab 343e 85cd 9b3c cb0b 253e fab1 c5bc
000001e0: 4b67 973f b37b 8a3d 9e56 1e3f 30a1 37be
000001f0: 567f 85be 2791 4dbc b6b9 0a3e afdc 6c3e
00000200: 16a9 9c3e 95d8 063e 3aae e93d 49a4 bbbb
00000210: a3b3 c8bc 7082 3ebe 1953 9e3d 0fe7 bf3d
00000220: 1d04 c8bd dfe1 5b3e 4fb0 493d ff52 963e
00000230: 1366 98be 5d4e 9abd ce95 e03e 6d97 6a3d
00000240: 5923 10bf da8c 653e a864 bf3d a464 b9bc
00000250: 9f3c f2bc ef7e be3d 13f2 753d db88 cb3c
00000260: 8197 f1be d3b7 01bf 9392 afbe fb35 37bd
00000270: c3c3 01bf f075 913d 7dde cb3d 853b 6cbf
00000280: 9298 6dbd 482c a33d cdd2 b4be 3902 03bf
00000290: f123 c0be 6e75 a03d 8dc6 453e 5a85 aabe
000002a0: c7d0 acbe e52a 253e e2f5 1f3e bc53 1dbd
000002b0: 816a d4bc d04f 4ebf 2036 273d 0ee1 96bc
000002c0: d712 ed3e 2d4c fbbd c4c7 863d 3999 bcbf
000002d0: 688c a33c 5b0c c8be 37b6 1cbf 0b44 a73e
000002e0: dea2 b2be b46b 11be 665b 883e 8712 89bd
000002f0: 9cbb 47bf 1cf4 61bc edf6 03bf 4949 f13c
00000300: 1779 8a3d 2dcb bdbd abe3 f1bd 2d3d 24be
00000310: e97c 823e c910 ecbd ff1a 713e 206a 993d
00000320: fa6b 29bd 0448 db3e 6329 753e ef2d 5b3e
00000330: 9902 25be 88a8 83be de76 ab3d f612 aebf
00000340: 4794 babd 296d 033e f871 4f3d abb7 d53d
00000350: 27c0 993d 3f44 9bbe 386e 91be 7e49 64bd
00000360: 093c d03e 876a 0cbe bbad ba3d 3bae b1be
00000370: 20fb 99be f4e6 22be d812 ef3d f8bc c2bc
00000380: 11e1 2dbf 2fbb 9d3c 0486 763e f768 88bd
00000390: 0ec5 823d 2f9a 5bbe 850d 0a3e 0dfe 0fbf
000003a0: 763e a8be e47e 57be 9e11 abbe 9147 89bf
000003b0: e142 8a3d 60c3 783d 1400 7fbd 7063 38be
000003c0: 60ad 24bf 7aa1 03bc 6533 313d bbb3 99be
000003d0: 7538 563d d1b8 d43e cb7c 6bbe 9b54 433d
000003e0: 7bfc 4bbf 82a1 9f3c 91f3 28be 17de 98bd
000003f0: 7503 8a3e ffb3 e83c 0eb5 bdbf 3036 fbb8
