OpenRDW/Assets/OpenRDW/Resources/SRLNet.onnx (onnx, 167857 bytes, 12 tensors)

39 f4 [1, 3]
0	0xbff4aacb	-1.9114622
1	0xbfa6df3f	-1.3036879
2	0xbf77bbe9	-0.96771103

base.actor.0.bias f4 [128]
0	0x3e9e3da2	0.30906397
1	0xbce9cdec	-0.028540574
2	0x3df9c0db	0.121949874
3	0xbbda0aae	-0.006654105
4	0x3e70e9bf	0.23526667
5	0xbc0e0f56	-0.008670649
6	0xbd74df7d	-0.059783448
7	0xbe97c74e	-0.29644245
8	0x3d0707a5	0.032966275
9	0xbf2f0b2e	-0.68376434
10	0x3e8ee505	0.27909103
11	0xbeaf77e5	-0.3427116
12	0x3ebcee94	0.3690077
13	0xbe3c5a40	-0.18393803
14	0x3e5a1541	0.2129717
15	0x3d41a1b6	0.04727336
16	0xbdf57c5d	-0.11986611
17	0xbdd1e0d2	-0.10247959
18	0x3ea1f9f2	0.31636006
19	0x3f282fc0	0.6569786
20	0x3eb7c164	0.35889733
21	0x3d8ccc5c	0.06874916
22	0xbf377fe4	-0.7167952
23	0xbd955c46	-0.072929904
24	0x00000000	0.0
25	0x3d0bc1ce	0.034120373
26	0xbd92024a	-0.07129343
27	0xbd9016f5	-0.07035629
28	0xbe120e2a	-0.14263216
29	0x3acc934e	0.0015607865
30	0xbc61ca5c	-0.013781156
31	0x3dfc1ff4	0.12310782
32	0xbdc6a96e	-0.09700285
33	0xbd5359bf	-0.05159926
34	0xbceb0a76	-0.028691512
35	0xbe89992a	-0.26874667
36	0xbe0004c2	-0.12501815
37	0xbf1a30cc	-0.6023071
38	0x3ea8155e	0.32828802
39	0x3d07f5b8	0.03319332
40	0xbdaff47e	-0.08591555
41	0xbd4b854f	-0.04968768
42	0xbf10b648	-0.5652814
43	0xbe0e297e	-0.13883016
44	0x00000000	0.0
45	0xbecb2623	-0.39677534
46	0xbdb4613e	-0.0880761
47	0x3e894440	0.26809883
48	0xbd353a1f	-0.04424488
49	0xbca5d901	-0.020245077
50	0xbd0c1568	-0.034200102
51	0xbb97f541	-0.004637391
52	0xbe0e141c	-0.13874859
53	0xbe89401a	-0.26806718
54	0xbcf31007	-0.029670728
55	0xbdf0ce48	-0.11758095
56	0xbc62686b	-0.0138188405
57	0xbdc8d0d2	-0.09805454
58	0x3dcafff4	0.099121004
59	0xbd1fcb3e	-0.039012186
60	0x3c642735	0.013925363
61	0xbdc169f5	-0.09444038
62	0xbda541ab	-0.08069166
63	0xbef223a8	-0.4729283
64	0xbe5bfc63	-0.21482997
65	0x3e2590c9	0.16168512
66	0xbe7d7c1a	-0.24754372
67	0x3eece5dc	0.4626912
68	0x3eaa4124	0.33252823
69	0xbc87e700	-0.016589642
70	0x3e376bf7	0.17912279
71	0xbd76b4c8	-0.060231
72	0x3dda3e86	0.10656457
73	0x3db3e243	0.087833904
74	0xbcb05849	-0.021526473
75	0x3cad3766	0.02114458
76	0x3dbd939f	0.09256672
77	0xbe0a3508	-0.13496792
78	0x3ea028d8	0.3128116
79	0x3d2b8960	0.041879058
80	0x3dacabdf	0.08431219
81	0x3f0b9b0f	0.54533476
82	0xbc267974	-0.010160793
83	0x3ede97fb	0.43475327
84	0xbddd92ce	-0.108190164
85	0x3b0385c5	0.0020068747
86	0x3ecdeade	0.40218252
87	0x3d86b103	0.06576731
88	0xbd1493dd	-0.036273826
89	0xbcc423cb	-0.023942849
90	0xbc18e0dd	-0.009330955
91	0x3ebaf746	0.3651678
92	0x3edbfece	0.42967838
93	0xbc3902cb	-0.01129217
94	0xbeb38480	-0.35062027
95	0xbe396f6f	-0.18108915
96	0xbf03161c	-0.5120561
97	0xbe080dbd	-0.1328649
98	0xba9d8802	-0.0012018683
99	0xbc98566c	-0.018595897
100	0xbebbe670	-0.36699247
101	0xbea9c4b6	-0.3315789
102	0xbe557ef6	-0.20849213
103	0xbc8848a8	-0.016636208
104	0x3ba6dc58	0.005092185
105	0xbd4f2344	-0.05057074
106	0xbe80b6a6	-0.2513935
107	0xbde271cf	-0.110568635
108	0xbb09fcef	-0.0021055301
109	0xbd371dd8	-0.044706196
110	0xbd173f59	-0.036925647
111	0xbd05a552	-0.032628365
112	0x3cf85654	0.030314602
113	0x3ea2687a	0.31720334
114	0xbea018b7	-0.31268856
115	0xbdcee9c8	-0.10103184
116	0xbf2024d8	-0.6255622
117	0x3da263cf	0.07929193
118	0xbc804de6	-0.015662145
119	0x3de8d15d	0.11368058
120	0xbd06ff4f	-0.032958325
121	0x3ed3d50f	0.41373488
122	0xbcff7198	-0.031182095
123	0xbec9a3c3	-0.39382753
124	0xbd34f84e	-0.044182114
125	0x3e897036	0.26843423
126	0xbded542c	-0.1158832
127	0xbd0178d0	-0.031609356

base.actor.0.weight f4 [128, 30]
0	0x3b30280f	0.0026879346
1	0x3c1ab7c9	0.009443232
2	0xbe548ea9	-0.20757546
3	0xbd794558	-0.060857147
4	0x3c947790	0.018123418
5	0xbc7c32d8	-0.0153929815
6	0xbe57881f	-0.2104802
7	0x3e47ff21	0.19530918
8	0x3e1d33a8	0.15351737
9	0xbe897013	-0.26843318
10	0xbc8d8ae9	-0.017278152
11	0x3e039c38	0.12852561
12	0xbd319a02	-0.043359764
13	0x3e21c5ac	0.15798062
14	0xbd0064d5	-0.03134616
15	0xbd69eddc	-0.057111606
16	0x3e77aa1c	0.24185985
17	0x3d298cb7	0.04139396
18	0x3deb7135	0.11496202
19	0x3c2dacfb	0.010600324
20	0x3e9badb0	0.3040595
21	0xbdb40673	-0.087902926
22	0xbdc4e276	-0.096135065
23	0xbd1fda4e	-0.03902655
24	0x3e40a17a	0.18811598
25	0xbe251fd3	-0.16125421
26	0xbcbe522a	-0.023232538
27	0x3de37c15	0.11107651
28	0xbf225646	-0.6341289
29	0xbf0aa492	-0.54157364
30	0x3d709abd	0.05874132
31	0x3daefab7	0.08543914
32	0xbdb46b56	-0.08809535
33	0xbd8b7d32	-0.068109885
34	0xbdaf2030	-0.08551061
35	0xbe28f0b4	-0.16498071
36	0xbe01750d	-0.12642308
37	0x3d11015f	0.0354017
38	0xbdcf297e	-0.10115336
39	0xbe2df214	-0.16986877
40	0xbe339019	-0.17535438
41	0xbd3b7200	-0.045763016
42	0xbd806959	-0.062700935
43	0xbdcc374b	-0.09971484
44	0x3e1fa82b	0.15591495
45	0xbdc311e7	-0.09524899
46	0x3df10881	0.117692
47	0x3d853ddb	0.065059386
48	0xbe1eb7d8	-0.15499818
49	0xbe3967b3	-0.18105964
50	0xbd9e2a02	-0.07722856
51	0xbe4e3e62	-0.20140985
52	0xbd404aef	-0.046946462
53	0x3e282bc4	0.16422945
54	0xbd6f5ea9	-0.058439884
55	0xbc83109d	-0.015999133
56	0xbe991af9	-0.2990339
57	0xbd2f759a	-0.042836763
58	0xbda09c89	-0.07842357
59	0xbe3ad92d	-0.18246908
60	0xbe35fb89	-0.17771734
61	0x3ee492fd	0.44643393
62	0xbeb112ee	-0.34584755
63	0xbec57836	-0.38568276
64	0x3d91d7e0	0.07121253
65	0xbeabb534	-0.33536685
66	0xbe58d651	-0.21175505
67	0x3dfcfa50	0.12352431
68	0xbcb553ea	-0.02213474
69	0xbec4fc86	-0.3847391
70	0xbd4f4918	-0.050606817
71	0xbdcd689d	-0.10029719
72	0xbdf3c361	-0.119025
73	0x3dc2dcd8	0.09514779
74	0xbe6414b3	-0.22273521
75	0xbe719d73	-0.23595218
76	0xbe153f34	-0.14574891
77	0x3e936ae3	0.28792486
78	0xbed86173	-0.42261848
79	0xbd2f4107	-0.042786624
80	0xbe513193	-0.20429067
81	0xbe921ae0	-0.2853613
82	0xbe66c8c9	-0.22537531
83	0x3e835719	0.25652388
84	0xbbbfee04	-0.005857231
85	0xbf0fd134	-0.56178594
86	0x3e388f7d	0.18023486
87	0xbe9ee77a	-0.31035978
88	0xbed98ad3	-0.42488727
89	0x3ee5c153	0.44874057
90	0xbbedbb5c	-0.007255001
91	0xbb94b418	-0.0045380704
92	0xbdc03e91	-0.093869336
93	0xbe5f4541	-0.21803762
94	0xbdd11d45	-0.10210661
95	0xbe236906	-0.15958032
96	0x3c9628f3	0.018330073
97	0x3d98aec4	0.07455209
98	0x3d46c249	0.04852513
99	0xbd80b57e	-0.06284617
100	0xbd954451	-0.07288421
101	0xbd3ca393	-0.046054434
102	0xbd06f01f	-0.03294384
103	0x3e493296	0.19648203
104	0xbd6998b3	-0.05703039
105	0x3e4ef299	0.20209731
106	0xbdd5665e	-0.104199156
107	0xbcbf22a7	-0.023331953
108	0xbd37d925	-0.04488482
109	0x3d38e93c	0.045144305
110	0x3dd74f06	0.105131194
111	0x3d22e3dd	0.03976809
112	0xbe3edbc1	-0.18638517
113	0xbd0ad74c	-0.03389673
114	0xbd4d2c0d	-0.05009084
115	0x3e36963a	0.17830744
116	0xbe5147f2	-0.20437601
117	0xbe384e5e	-0.17998645
118	0xbe07b0d3	-0.13251047
119	0x3da2579e	0.07926868
120	0x3e8c2c84	0.27377713
121	0x3eb60313	0.3554922
122	0xbd6696b1	-0.056296054
123	0x3ede823d	0.4345874
124	0xbd47f782	-0.048820026
125	0xbeb99cc9	-0.3625243
126	0x3e109a58	0.14121377
127	0x3e678caa	0.22612253
128	0xbef0f08c	-0.47058523
129	0x3e3c0424	0.18360955
130	0xbd7fb16a	-0.062425055
131	0xbeec4068	-0.46142888
132	0x3e24be08	0.16088116
133	0xbe76f593	-0.24117117
134	0xbdfd6114	-0.12372032
135	0x3e5ebceb	0.21751754
136	0xbe21f406	-0.15815744
137	0xbc52cfbc	-0.012866911
138	0xbd33c747	-0.043891218
139	0xbee44adc	-0.44588363
140	0xbd4924be	-0.049107306
141	0x3dbdd7e7	0.09269696
142	0xbeb3424c	-0.35011518
143	0xbf24f4e7	-0.6443619
144	0xbee9ce24	-0.45665085
145	0xbe46e468	-0.19423068
146	0xbefa20aa	-0.48853046
147	0xbf723b8c	-0.9462211
148	0xbe172a64	-0.14762264
149	0xbe32ff73	-0.17480259
150	0x3d97a8e9	0.07405264
151	0xbe9b9534	-0.3038727
152	0xbddd23f3	-0.107978724
153	0x3af1b0e1	0.0018439555
154	0xbe79d600	-0.24398041
155	0xbeea55b5	-0.45768514
156	0x3d61cbab	0.055125874
157	0xbcabde5c	-0.020980053
158	0xbee06f27	-0.43834803
159	0x3d242ceb	0.0400819
160	0x3d1d9a97	0.038477506
161	0x3e4244af	0.18971513
162	0xbe23561a	-0.15950814
163	0x3e71b74f	0.23605083
164	0xbe03bcb6	-0.12864956
165	0xbd746b3c	-0.05967258
166	0x3c421b41	0.011847318
167	0xbe3d8923	-0.18509345
168	0xbe1e0073	-0.15429859
169	0xbdc76a04	-0.09737018
170	0xbe3fb735	-0.18722232
171	0xbd15e6f7	-0.03659722
172	0xbda84098	-0.08215445
173	0x3e5d7502	0.21626666
174	0xbe5a924d	-0.21344872
175	0xbe4980f6	-0.19678101
176	0xbcb9c624	-0.022677489
177	0xbe9756ad	-0.29558316
178	0xbd93f406	-0.07224278
179	0xbd0af42b	-0.033924263
180	0x3e0bdc94	0.13658363
181	0xbe614104	-0.21997458
182	0x3eb361f3	0.35035667
183	0x3ec48409	0.38381985
184	0xbd0537dd	-0.03252398
185	0x3c4a01f5	0.012329568
186	0x3e245932	0.1604965
187	0xbb446d4d	-0.0029972375
188	0xbda708dc	-0.08155987
189	0x3e557a2e	0.20847389
190	0x3b8557fe	0.0040693274
191	0xbe399d2c	-0.18126363
192	0x3e48d094	0.19610816
193	0x3da95e2f	0.08269917
194	0xbda07c07	-0.07836156
195	0x3d972fec	0.07382187
196	0x3e37b0ee	0.17938587
197	0x3cf64054	0.03005997
198	0xbc960084	-0.018310793
199	0xbd8ea9bd	-0.06965969
200	0xbe22f033	-0.15911941
201	0x3d912442	0.07086994
202	0x3e285546	0.16438779
203	0xbe910028	-0.28320432
204	0xbe55eae5	-0.20890386
205	0xbd14d13b	-0.03633235
206	0xbe09706a	-0.13421789
207	0xbe6d05fc	-0.23146814
208	0x3e164d89	0.14678015
209	0xbe51735e	-0.20454165
210	0xbeb29214	-0.34877074
211	0xbe1ebcef	-0.1550176
212	0x3e88565e	0.26628393
213	0xbed6c483	-0.41946802
214	0xbebc200d	-0.36743203
215	0xbe5ca64f	-0.21547817
216	0xbec1415e	-0.37745184
217	0xbe8b71be	-0.27235216
218	0x3b4ce3f8	0.003126381
219	0xbeb04ffd	-0.34436026
220	0xbd724e48	-0.059156686
221	0xbe2ad169	-0.16681446
222	0xbe9b9981	-0.30390552
223	0xbce4806b	-0.027893266
224	0xbea61e02	-0.3244477
225	0xbe85031b	-0.25978932
226	0xbe156be8	-0.14591944
227	0xbdb9c9ea	-0.09071715
228	0xbbfc96f0	-0.007708423
229	0xbd1221ef	-0.035676893
230	0xbe187568	-0.14888537
231	0xbd2081b0	-0.03918618
232	0xbe07eff1	-0.13275124
233	0x3ca2ae34	0.019858457
234	0x3dc5aff2	0.096526995
235	0x3e37e234	0.17957383
236	0x3e82276f	0.2542071
237	0xbeb153cb	-0.3463424
238	0x3e1b0c9a	0.15141526
239	0x3f030e48	0.51193666
240	0xbddbe73b	-0.10737463
241	0xbe50fefd	-0.2040977
242	0xb9c1c300	-0.00036957115
243	0x3c932bea	0.017965276
244	0xbeeb6976	-0.45978898
245	0xbe4297d1	-0.19003226
246	0xbd8229e4	-0.06355646
247	0xbdfd6100	-0.12372017
248	0xbe7678bc	-0.24069494
249	0xbe52e4e2	-0.20595124
250	0x3c83ac3c	0.016073339
251	0xbd4d3000	-0.050094604
252	0xbe9a5cdc	-0.3014897
253	0xbd7730fd	-0.060349453
254	0x3e8a5f59	0.2702587
255	0x3dfe7750	0.12425101

base.actor.2.bias f4 [128]
0	0xbe38892d	-0.18021078
1	0xbde44eed	-0.111478664
2	0xbd4760f9	-0.048676465
3	0xbdd46948	-0.10371643
4	0x3e45f4b5	0.1933163
5	0xbcc4e10c	-0.024033092
6	0xbd62771a	-0.055289365
7	0xbe01c368	-0.12672198
8	0x3e81c066	0.253421
9	0xbe3da46f	-0.18519758
10	0x3de1f477	0.11032956
11	0xbe7ccfbf	-0.24688624
12	0xbdbca674	-0.09211436
13	0xbda12772	-0.07868852
14	0x3d9f2568	0.077708066
15	0xba7e5629	-0.000970217
16	0x3ead9e00	0.33909607
17	0xbe060ab8	-0.13090026
18	0x3e28094a	0.16409793
19	0x3d6b8724	0.057501927
20	0xbe9fa9f0	-0.3118434
21	0x3dd825ef	0.1055411
22	0xbdbb2fb8	-0.09139961
23	0xbe1237bd	-0.14279075
24	0xbe80306e	-0.2503695
25	0xbe093720	-0.13399935
26	0xbdab0508	-0.08350569
27	0xbe193532	-0.14961699
28	0xbd956dc3	-0.07296326
29	0xbe04b9c3	-0.12961487
30	0xbe727b8d	-0.23679943
31	0xbed8d016	-0.42346257
32	0xbde48ed3	-0.11160054
33	0xbcd84c2c	-0.02640351
34	0xbde84b0f	-0.11342441
35	0xbd4b56ef	-0.049643453
36	0xbce2ac4c	-0.027670048
37	0xbe6d3228	-0.23163664
38	0xbeb3aba5	-0.35091892
39	0x3daf6cc1	0.08565665
40	0x3d09ee13	0.03367431
41	0xbeb96cb6	-0.36215752
42	0xbdba0e5f	-0.09084772
43	0xbd6814a9	-0.056660328
44	0x3b67041c	0.0035250252
45	0xbe1adc13	-0.15123014
46	0xbe855621	-0.26042274
47	0x3e9812e8	0.29701924
48	0xbe926363	-0.2859145
49	0xbd184b89	-0.03718141
50	0xbd228137	-0.03967401
51	0x3e03b573	0.12862186
52	0xbd1f2b68	-0.038859755
53	0x3e1e023e	0.15430543
54	0x3e58089a	0.21097031
55	0xbd3ba2d8	-0.045809597
56	0xbe03b25d	-0.12861009
57	0xbd1c3642	-0.03813768
58	0x3ed91bcd	0.42404023
59	0xbbe00cc6	-0.00683746
60	0x3e505957	0.2034658
61	0xbe6d94bf	-0.23201273
62	0xbe24cce8	-0.1609379
63	0x3dc69dc1	0.09698058
64	0xbe2bd2fb	-0.16779701
65	0x3e1e1f93	0.15441732
66	0x3c0290cb	0.007969092
67	0xbe592613	-0.2120593
68	0xbb32c555	-0.0027278264
69	0xbe255a93	-0.16147833
70	0xbcc39034	-0.023872472
71	0x3bc58b4d	0.006028569
72	0x3ef38f8b	0.47570452
73	0xbdbf9c2f	-0.093559615
74	0x3c444201	0.011978627
75	0xbd90737b	-0.07053276
76	0xbdf99cdb	-0.12188121
77	0x3dcd07f6	0.10011284
78	0x3e756ebf	0.23968028
79	0x3dabd9d7	0.08391159
80	0x3da7b6d4	0.081891686
81	0xbdcdaadb	-0.10042354
82	0xbdfa9cc7	-0.12236934
83	0x3dceb67f	0.10093402
84	0xbe0e3548	-0.13887513
85	0x3dfddf90	0.12396157
86	0xbd4d8082	-0.050171383
87	0xbde2b455	-0.11069552
88	0xbe1b18ad	-0.15146132
89	0x3c8510ae	0.016243305
90	0xbedbcea4	-0.42931092
91	0x3c034971	0.008013115
92	0x3e2ff704	0.17184073
93	0x3ec475d6	0.38371152
94	0xbe545c4f	-0.20738338
95	0x3c7c5d0b	0.015403043
96	0x3aa04f0d	0.001223059
97	0xbcc98005	-0.024597177
98	0x3e4e5305	0.20148857
99	0xbd7a4042	-0.061096437
100	0xbcb4a209	-0.02204992
101	0xbddf3c06	-0.109001204
102	0xbed70f43	-0.4200383
103	0x3e42f016	0.19036898
104	0xbe2b86e3	-0.16750674
105	0xbd43c0c9	-0.047791276
106	0x39b8b3cf	0.00035229183
107	0x3e15d87e	0.14633366
108	0xbe9434fd	-0.28946677
109	0xbdbdea21	-0.09273172
110	0xbe13f469	-0.14448704
111	0xbdf5f2dd	-0.12009213
112	0xbd5ff0ef	-0.05467313
113	0xbe829478	-0.25503898
114	0x3c4869c2	0.012232246
115	0xbea26b5e	-0.3172254
116	0x3d1bcd00	0.0380373
117	0x3dcefb71	0.101065524
118	0x3e297556	0.16548666
119	0x3c07a8ee	0.008280022
120	0xbe0b621e	-0.13611647
121	0x3e27f8cc	0.16403502
122	0xbdcd9e8b	-0.10040005
123	0xbe03bdf7	-0.12865435
124	0xbdbaee14	-0.09127441
125	0x3d35f79d	0.044425596
126	0x3d8f2608	0.06989676
127	0x3e3f8093	0.18701391

base.actor.2.weight f4 [128, 128]
0	0xbe03f005	-0.12884529
1	0xbd465ca2	-0.048428185
2	0xbe022009	-0.12707533
3	0x3e1963ee	0.14979526
4	0xbe85989e	-0.26093
5	0xbd961c9b	-0.07329675
6	0xbca7a4f0	-0.02046439
7	0x3e9b32f6	0.30312318
8	0x3e1c433e	0.15260026
9	0xbd104664	-0.03522338
10	0xbdc87793	-0.09788432
11	0xbe9769fc	-0.29573047
12	0xbea36cdf	-0.31919
13	0xbe16b586	-0.14717683
14	0x3d9cd8f7	0.0765857
15	0x3c281896	0.010259768
16	0x3bd65dab	0.006541928
17	0x3d9c0203	0.07617571
18	0xbe4e0d23	-0.20122199
19	0xbddf353a	-0.10898824
20	0x3e33f922	0.17575505
21	0xbd8e6347	-0.069525294
22	0x3c61f123	0.013790402
23	0xbcbf9a3b	-0.023388973
24	0x3d1b89df	0.03797328
25	0xbc424e46	-0.011859482
26	0xbd429a87	-0.04751065
27	0xbe5209f5	-0.20511611
28	0x3d8ca4de	0.068673834
29	0xbd9b9bb8	-0.0759806
30	0x3cee8924	0.029118128
31	0xbe1a8918	-0.1509136
32	0xbebbbb63	-0.36666402
33	0xbd8530d1	-0.065034516
34	0x3d176dfe	0.03697013
35	0xbe216a48	-0.157632
36	0xbdbf133a	-0.09329839
37	0xbdd05124	-0.10171726
38	0x3def968c	0.116986364
39	0xbe128087	-0.14306842
40	0x3e82d0f6	0.2555005
41	0xbdfb8e27	-0.12282973
42	0x3e1c03c6	0.15235814
43	0xbbcf1951	-0.0063201566
44	0xbde8528d	-0.1134387
45	0xbe001475	-0.12507804
46	0xbe67c679	-0.22634305
47	0xbf102a98	-0.5631499
48	0x3d4f6cce	0.050640874
49	0x3cbfcbfa	0.023412693
50	0x3d4b77e0	0.04967487
51	0xbdd9477a	-0.10609336
52	0xbe6e068c	-0.23244685
53	0x3e2044ba	0.15651217
54	0x3d03466a	0.032049574
55	0x3e5f18d5	0.21786816
56	0x3cb0bca8	0.021574333
57	0xbf08760d	-0.5330513
58	0x3e999801	0.29998782
59	0x3e60a368	0.21937335
60	0xbe8e271e	-0.2776422
61	0x3e414b2d	0.18876334
62	0xbe7b9b09	-0.2457086
63	0xbdc7192d	-0.09721599
64	0xbe11638f	-0.14198135
65	0xbe1de45a	-0.1541914
66	0xbdf088b6	-0.117448255
67	0x3dd9005a	0.1059577
68	0xbdd79400	-0.10526276
69	0xbe109813	-0.14120512
70	0x3d026fa2	0.031844743
71	0xbe572bda	-0.21012822
72	0xbd114e97	-0.03547534
73	0xbe0460da	-0.12927571
74	0xbdce0faf	-0.10061585
75	0xbe35a3c1	-0.17738248
76	0xbdf0bd7a	-0.1175489
77	0xbe98f4b1	-0.29874185
78	0xbc22a9d0	-0.009928182
79	0x3d8e898e	0.0695983
80	0x3df4b816	0.11949174
81	0xbe8f6646	-0.28007716
82	0xbd413191	-0.04716641
83	0xbe521ea2	-0.20519498
84	0xbe6fc1d9	-0.23413791
85	0xbdb50eef	-0.08840739
86	0x3d52206a	0.051300444
87	0xbe352bd8	-0.17692506
88	0xbdb5e7a7	-0.08882075
89	0x3db49742	0.08817913
90	0xbd822ada	-0.063558295
91	0xbeacbda5	-0.33738437
92	0x3dee6c66	0.11641769
93	0x3cbd9c58	0.02314584
94	0x3e4da388	0.20081913
95	0xbd628242	-0.055300005
96	0xbe417c85	-0.18895157
97	0xbcac0dbd	-0.021002645
98	0xbc7e05b1	-0.015504287
99	0xbccfe252	-0.025376473
100	0xbe7fee5f	-0.24993275
101	0xbdd75672	-0.10514535
102	0x3e59a073	0.21252613
103	0x3dba9762	0.09110905
104	0xbe198824	-0.1499334
105	0xbdc6cc2f	-0.09706914
106	0xbd391017	-0.04518136
107	0xbdc00f94	-0.09377971
108	0x3ce25740	0.027629495
109	0xbd069b43	-0.032862913
110	0xbed23bc4	-0.41061223
111	0x39bf2c77	0.00036463488
112	0x3db7a3cf	0.08966791
113	0x3e455e2b	0.19274203
114	0x3e400835	0.1875313
115	0xbe0eb675	-0.1393679
116	0xbe0aab6d	-0.13541956
117	0x3d5e7f5d	0.05432068
118	0xbe403ca8	-0.18773139
119	0xbe8c16a7	-0.27361032
120	0xbdc2520d	-0.09488306
121	0x3db76931	0.089556105
122	0x3d57876b	0.05261938
123	0xbde613a0	-0.11234212
124	0xbd6bda2e	-0.05758112
125	0xbd976b49	-0.0739351
126	0xbd83778f	-0.06419288
127	0xbf01dba1	-0.5072575
128	0x3c145ef8	0.009055845
129	0x3e186d66	0.14885482
130	0xbe2f2981	-0.17105676
131	0xbb094927	-0.0020948143
132	0xbe9ffd1e	-0.312478
133	0xbe4e7a9c	-0.2016396
134	0x3e261f7d	0.1622295
135	0xbc482033	-0.012214708
136	0xbd919727	-0.07108908
137	0xbe4cbc14	-0.19993621
138	0x3d49da6b	0.049280565
139	0x3d2c8b7b	0.042125206
140	0x3d839b54	0.06426111
141	0x3d32b704	0.04363157
142	0x3e5ccae1	0.21561767
143	0x3eb45c21	0.3522654
144	0xbe01b793	-0.12667684
145	0x3d8d4c77	0.0689935
146	0xbe886c03	-0.26644906
147	0x3b889140	0.004167706
148	0x3e6c3c01	0.23069765
149	0xbd8b8683	-0.068127654
150	0x3e034a43	0.12821297
151	0xbe7356bc	-0.23763555
152	0xbe0be46e	-0.13661358
153	0xbe0089c9	-0.12552561
154	0xbe256628	-0.16152251
155	0x3ed46d16	0.41489476
156	0x3d09cb27	0.033641007
157	0xbd30f0eb	-0.043198507
158	0x3eb1f339	0.34755877
159	0xbe48b573	-0.19600467
160	0xbe3cd10d	-0.18439122
161	0x3e090f45	0.13384731
162	0x3d1a29fb	0.037637692
163	0x3d821d50	0.06353247
164	0x3e319a52	0.17344025
165	0xbde45002	-0.11148073
166	0xbd7be380	-0.061496258
167	0xbdccd691	-0.10001863
168	0xbe73843b	-0.2378091
169	0x3d84fa48	0.0649305
170	0x3ec8a232	0.39186245
171	0x3d6191b7	0.055070605
172	0x3d45576a	0.048179068
173	0x3e1da25b	0.15393965
174	0xbda1d2ee	-0.0790156
175	0xbd107c82	-0.03527499
176	0x3d1d9dd0	0.03848058
177	0x3d7e76fc	0.06212519
178	0x3e89e0a1	0.2692919
179	0x3dad8c15	0.08473984
180	0xbecb96d3	-0.39763507
181	0xbd3ddc0d	-0.046352435
182	0x3de1c86f	0.11024558
183	0x3d4f8ec3	0.050673258
184	0xbdbf760c	-0.093486875
185	0x3bfb59d0	0.0076706186
186	0xbe6cfa16	-0.23142275
187	0x3e9f3dd5	0.31101862
188	0x3c086b8e	0.008326424
189	0xbdd91299	-0.1059925
190	0xbdaa0d95	-0.08303372
191	0xbf0293a2	-0.5100652
192	0xbe13abb3	-0.14420967
193	0x3cf5cd9b	0.030005267
194	0xbd8e7cab	-0.06957372
195	0xbe70f2f2	-0.23530176
196	0xbe91120f	-0.2833409
197	0x3dd97094	0.10617176
198	0xbed9ded3	-0.42552814
199	0xbd87ab12	-0.06624426
200	0xbe007aae	-0.12546799
201	0x3dda6fb2	0.106658354
202	0xbdea394e	-0.11436711
203	0xbecbf96e	-0.39838737
204	0x3e6921ae	0.22766754
205	0x3daf4e22	0.085598245
206	0xbcf3012b	-0.029663643
207	0xbd698970	-0.057015836
208	0xbe8722ce	-0.2639374
209	0x3dc17abf	0.0944724
210	0x3c2533bd	0.010083136
211	0xbda563a9	-0.08075649
212	0x3eb61bbc	0.35568035
213	0xbca9a8db	-0.0207104
214	0xbea202cc	-0.3164276
215	0x3c1b3028	0.009471931
216	0x3e6ac725	0.2292753
217	0x3e3309ff	0.17484282
218	0xbeb2df30	-0.34935904
219	0x3dd8f8a9	0.10594303
220	0xbba1ed45	-0.004941615
221	0x3c92a51e	0.017901
222	0xbc47d4f7	-0.012196771
223	0xbe61b80d	-0.22042866
224	0x3e335992	0.17514637
225	0x3c04c923	0.008104595
226	0xbd01d32a	-0.031695522
227	0x3e45d855	0.19320805
228	0x3d89bbd3	0.06725278
229	0x3e8fa866	0.28058165
230	0xbee766cc	-0.45195615
231	0x3e183d24	0.14867073
232	0xbea4a62a	-0.32158023
233	0xbc0aad64	-0.008464191
234	0x3e5be5fb	0.2147445
235	0xbf019aee	-0.5062703
236	0xbe2e2745	-0.17007168
237	0xbe1fd657	-0.15609108
238	0xbe05e7d1	-0.13076712
239	0xbe013368	-0.12617266
240	0x3e37f7ea	0.17965665
241	0xbd923e41	-0.0714078
242	0xbe2d62c6	-0.1693221
243	0x3e9d1e39	0.3068712
244	0x3e32a8a7	0.17447148
245	0xbe338ea6	-0.17534885
246	0xbd1d088f	-0.03833824
247	0x3de343bf	0.11096906
248	0xbe61a07d	-0.22033878
249	0xbe3e8097	-0.1860374
250	0xbe6c1b83	-0.2305737
251	0x3ea21ac8	0.31661057
252	0xbde271c3	-0.110568546
253	0xbd9483cc	-0.07251701
254	0xbd936a40	-0.07198
255	0xbb4efb2f	-0.0031582823

base.critic.0.bias f4 [128]
0	0x3d8222b0	0.06354272
1	0x3f9b51a6	1.2134292
2	0xbd827ad1	-0.063710816
3	0xbd7278c0	-0.059197187
4	0x3f3db2bd	0.7410086
5	0x3f38d342	0.72197354
6	0x3efd683e	0.49493593
7	0xbcfd776d	-0.030940736
8	0xbe65447b	-0.22389404
9	0xbd28bcd3	-0.0411957
10	0xbdaa39cb	-0.083118044
11	0x3cd02427	0.025407864
12	0xbde5978e	-0.112105474
13	0x3fda6c79	1.7064353
14	0x3ef532cb	0.47890314
15	0x3fad70eb	1.3550085
16	0x3f9cf7e2	1.2263148
17	0x3f401e49	0.7504621
18	0xbbfcd2e8	-0.0077155717
19	0xbeebfc6f	-0.4609103
20	0x3f48d4d3	0.78449744
21	0x3f193f9f	0.59862703
22	0xbcce2a83	-0.025166756
23	0x00000000	0.0
24	0xbfa0ddec	-1.2567725
25	0xbd0398dc	-0.0321282
26	0xbfac869e	-1.3478582
27	0x3eac3d46	0.33640498
28	0x3fdf0ec8	1.7426386
29	0x00000000	0.0
30	0xbd882c33	-0.06649055
31	0x3faf7342	1.3707049
32	0x3fa486a7	1.2853593
33	0xbcac7bda	-0.02105515
34	0x3f0308fb	0.5118558
35	0x00000000	0.0
36	0x3e6542de	0.22388789
37	0x3f55402b	0.8330104
38	0x3f5e2abe	0.8678397
39	0x3f5037e7	0.813353
40	0xbd835348	-0.06412369
41	0xbd367186	-0.044541858
42	0xbd7f1f60	-0.06228578
43	0x00000000	0.0
44	0xbf017fa8	-0.5058541
45	0xbc562557	-0.013070426
46	0xbd57bc51	-0.052669827
47	0x3f564e2c	0.8371303
48	0x3f98b67a	1.1930687
49	0x3dd3432d	0.10315547
50	0xbd1cfed7	-0.03832897
51	0x3fa7c50b	1.3107008
52	0xbda06387	-0.07831483
53	0xbd223044	-0.03959681
54	0x3fa9d7f0	1.3269024
55	0x3ec53526	0.38517112
56	0x3f5836da	0.84458697
57	0xbe558add	-0.20853753
58	0x3f7990e1	0.9748669
59	0x3fa03ce9	1.2518588
60	0xbda7bc38	-0.08190197
61	0x3fba1b28	1.4539537
62	0xbfa9f0a4	-1.3276563
63	0xbdaf2fe7	-0.085540585
64	0xbeca84a7	-0.3955433
65	0x3fa3f03d	1.280769
66	0x3e2b0603	0.16701512
67	0xbceef686	-0.029170286
68	0xbd955bd6	-0.07292907
69	0xbd495715	-0.049155314
70	0x3f89ea6a	1.0774662
71	0xbd042b07	-0.032267597
72	0xbd523586	-0.051320575
73	0x3f9a7dab	1.2069601
74	0x3f7b28c9	0.9810911
75	0x3fae47c3	1.361565
76	0xbd784f95	-0.06062277
77	0xbcc4ac89	-0.024008052
78	0xbf3d2cc7	-0.7389645
79	0x3fbab76d	1.4587227
80	0x3f44e0fc	0.769058
81	0xbd9966ca	-0.074903086
82	0xbef9bcb1	-0.48776773
83	0x3f4e4769	0.80577713
84	0xbfb1adcb	-1.3881162
85	0x3e962016	0.29321355
86	0x3fb01c92	1.3758719
87	0xbc0f4f6e	-0.008746965
88	0x3d7c3fb9	0.06158421
89	0x3fbeca69	1.4905521
90	0x3fa853a7	1.3150529
91	0x3f8da288	1.1065226
92	0x3f23ba75	0.63956386
93	0x3fa632a9	1.298421
94	0x3d01ef2d	0.031722236
95	0x3f79a1c2	0.9751245
96	0xbd38d0a7	-0.04512086
97	0xbd53f7ff	-0.05175018
98	0x3fa1cdca	1.2640927
99	0x3fb64e14	1.4242578
100	0xbd8d273f	-0.06892251
101	0xbd496f77	-0.049178567
102	0x3fd08154	1.6289468
103	0xbf6f6ddf	-0.93527025
104	0xbc877142	-0.016533498
105	0xbc3e45f6	-0.01161336
106	0xbd4a2914	-0.04935558
107	0x3d1aa031	0.037750427
108	0xbe35ce2b	-0.17754428
109	0xbf0ba9ea	-0.54556143
110	0xbd8254ce	-0.063638315
111	0x3fe7d88d	1.8112961
112	0xbd9011f4	-0.07034674
113	0xbca9c5c2	-0.020724181
114	0xbe6ddda5	-0.23229082
115	0xbf0afb49	-0.5428968
116	0xbdb56dcb	-0.08858832
117	0xbcb68c5c	-0.022283725
118	0xbe840747	-0.25786802
119	0xbd08a598	-0.033361048
120	0x3d70f26c	0.05882494
121	0x00000000	0.0
122	0xbd311f93	-0.043243002
123	0xbd663f75	-0.05621286
124	0xbc318a25	-0.010836159
125	0x3e2e4420	0.17018175
126	0xbf9ef502	-1.241852
127	0xbf1ecf63	-0.62035197

base.critic.0.weight f4 [128, 30]
0	0xbe7c5a97	-0.24643932
1	0x3e817003	0.2528077
2	0xbefa04a7	-0.48831674
3	0xbf12630c	-0.57182384
4	0x3e445f1c	0.19176906
5	0xbf495733	-0.7864868
6	0xbf19c1bb	-0.60061234
7	0x3e9126c1	0.2834988
8	0xbf4018e0	-0.75037956
9	0xbf0e2449	-0.55524117
10	0x3e059e00	0.13048553
11	0xbf1cefeb	-0.61303586
12	0xbf3b0395	-0.7305234
13	0x3e6118d3	0.21982126
14	0xbf305fe8	-0.6889634
15	0xbe996f9d	-0.29967967
16	0x3e63f16c	0.22260064
17	0xbf16c19b	-0.5888917
18	0xbdbbd318	-0.09171122
19	0x3deabc29	0.1146167
20	0xbeb6b6a3	-0.35686216
21	0x3e0c8636	0.13723072
22	0x3e632b44	0.22184473
23	0xbecac7af	-0.39605471
24	0x3d84305c	0.06454536
25	0x3f334bfb	0.7003781
26	0xc0181d55	-2.3767903
27	0xbf802fc6	-1.0014579
28	0x3f5c0549	0.85945565
29	0xbe0d6451	-0.13807799
30	0x3df7c740	0.12098551
31	0x3e60d405	0.21955879
32	0xbe004279	-0.12525357
33	0xbc045af5	-0.0080783265
34	0xbd813e33	-0.06310692
35	0x3d340654	0.043951347
36	0x3dd2ede2	0.10299279
37	0x3da9ffda	0.08300753
38	0xbe3787bc	-0.17922872
39	0x3adf0288	0.0017014304
40	0xbd9e743d	-0.077370144
41	0x3df903d3	0.121589325
42	0x3e374d9b	0.17900698
43	0x3dd93cb2	0.1060728
44	0x3a5b5e8b	0.0008368275
45	0x3e380de2	0.17974046
46	0x3e22c2f9	0.15894689
47	0x3d9fccae	0.078027114
48	0x3e91cd8c	0.28477132
49	0xbda80607	-0.082042746
50	0x3d4982bf	0.049196955
51	0x3d842578	0.06452459
52	0xbdc05449	-0.09391076
53	0xbe8975c9	-0.26847675
54	0xbeb5208d	-0.35376397
55	0xbf21effb	-0.63256806
56	0xbf103f09	-0.56346184
57	0xbf8d2e7f	-1.1029814
58	0xbea29399	-0.31753233
59	0xbcc4ea92	-0.024037633
60	0xbe49498a	-0.19656959
61	0x3cb56431	0.022142502
62	0x3acac4db	0.0015470044
63	0xbdd033ef	-0.101661555
64	0x3d77dd4b	0.060513776
65	0x3d524b22	0.051341183
66	0x3d998108	0.07495314
67	0xbe3896e1	-0.18026306
68	0xbdc30e8f	-0.09524261
69	0xbdf62695	-0.12019078
70	0x3e3b05f4	0.1826399
71	0xbe42a85a	-0.19009534
72	0x3d95de1d	0.07317755
73	0x3d6090d9	0.054825637
74	0xbdb2d801	-0.08732606
75	0xbd9789bf	-0.0739932
76	0x3c2bcd62	0.010485979
77	0x3aef202c	0.0018243841
78	0x3df67f80	0.120360374
79	0xbeb4df0c	-0.3532642
80	0x3d611401	0.054950718
81	0xbe174dc6	-0.14775762
82	0x3e027837	0.12741171
83	0x3ceda714	0.029010333
84	0xbe821035	-0.2540299
85	0xbdf276fb	-0.118391
86	0xbd29d651	-0.041464154
87	0xbcbfe720	-0.023425639
88	0xbdba663f	-0.09101533
89	0x3dd081c0	0.10180998
90	0xbe4782a3	-0.19483428
91	0x3d9ad99c	0.07561037
92	0xbdf50ca9	-0.11965305
93	0xbd4d54d7	-0.050129738
94	0xbc16796d	-0.009184224
95	0x3de8114f	0.11331426
96	0xbdc89128	-0.09793311
97	0xbd119a52	-0.035547562
98	0x3e3f91d2	0.1870797
99	0x3b5b7d39	0.0033491387
100	0xbe23cecf	-0.1599686
101	0xbe8bcb5b	-0.27303585
102	0xbe977d10	-0.29587603
103	0x3b0a371c	0.0021089977
104	0xbe457dac	-0.19286221
105	0x3d48c887	0.049019363
106	0xbe52d979	-0.20590772
107	0x3dd72f53	0.10507073
108	0x3dbd4e4d	0.0924345
109	0x3ce707ee	0.028202023
110	0xbe45f8fd	-0.19333263
111	0x3d47a08f	0.048737105
112	0x3d6ef3f8	0.058338135
113	0x3e08cc98	0.13359296
114	0x3bfbbc3f	0.007682353
115	0x3e14e30a	0.14539734
116	0x3c02117c	0.007938739
117	0xbdf38c44	-0.11891988
118	0xbe6b9289	-0.23005117
119	0xbea431df	-0.320693
120	0xbe1fa2d6	-0.1558946
121	0xbd58fe57	-0.052976932
122	0xbd3c373a	-0.045951106
123	0x3e186a5b	0.14884321
124	0x3d467230	0.04844874
125	0x3dfab56b	0.12241634
126	0xbdb1b126	-0.086763665
127	0xbdcf233c	-0.10114142
128	0x3e098af2	0.1343191
129	0xbeb3c273	-0.3510929
130	0xbd505f9d	-0.050872434
131	0x3e64d8ed	0.22348376
132	0xbe10cbe9	-0.14140286
133	0x3d3fa695	0.046789724
134	0x3f03c648	0.5147443
135	0xbc4e10ef	-0.0125772795
136	0xbe2ada2f	-0.16684793
137	0x3d1cbaa9	0.03826395
138	0xbe2a96bd	-0.16659065
139	0xbd9a6017	-0.07537859
140	0x3d81ce9e	0.06338237
141	0xbca80654	-0.02051083
142	0x3de1bc82	0.11022283
143	0xbe28adce	-0.16472551
144	0x3e4a60db	0.1976351
145	0x3eea3ac5	0.45747963
146	0xbe1c06fa	-0.15237036
147	0x3e828f3d	0.25499907
148	0x3f359924	0.709368
149	0xbff8a62a	-1.9425709
150	0xbdd41589	-0.1035567
151	0x3f0fa429	0.56109864
152	0x3e28adaa	0.16472498
153	0xbe0eb745	-0.139371
154	0x3edf0a04	0.4356233
155	0x3ded5c3b	0.11589857
156	0xbd93f448	-0.07224327
157	0x3e7928da	0.2433199
158	0x3e2912e1	0.16511108
159	0xbd792bed	-0.060832907
160	0x3d4f049c	0.050541505
161	0x3e452952	0.19254044
162	0x3e85ceb3	0.2613426
163	0xbf364c44	-0.7121012
164	0x3e2c50ee	0.16827747
165	0x3deb76f0	0.11497295
166	0xbf846c3c	-1.034553
167	0x3e975894	0.29559767
168	0x3ca6320d	0.020287538
169	0xbfc28254	-1.5196023
170	0x3edd6beb	0.43246397
171	0xbe1a1685	-0.15047653
172	0xc005fdd6	-2.093618
173	0x3f033108	0.5124669
174	0xbf466bda	-0.7750832
175	0xbfdb822a	-1.7149098
176	0x3f52f6f9	0.824081
177	0xbecd4dda	-0.4009846
178	0x3e86f516	0.2635886
179	0xbf798c89	-0.97480065
180	0xbed77cee	-0.420875
181	0xbef7098b	-0.48249468
182	0x3d7fc8ad	0.06244724
183	0xbdffd032	-0.12490882
184	0xbebee593	-0.37284526
185	0x3e1fa0c8	0.15588677
186	0xbea8db7b	-0.3297995
187	0xbef7eefa	-0.48424512
188	0x3de6adb1	0.11263598
189	0xbf12f235	-0.5740083
190	0xbefe9e7c	-0.4973029
191	0x3c29483c	0.010332163
192	0xbf373206	-0.71560705
193	0xbdd5eb30	-0.10445249
194	0xbdc6d78b	-0.0970908
195	0xbfaf2655	-1.3683573
196	0xbe8283c8	-0.25491166
197	0x3da2a1eb	0.0794104
198	0xbfa71636	-1.3053653
199	0xbd8ce2d3	-0.06879201
200	0xbe259ce6	-0.16173133
201	0xbf8c2878	-1.094985
202	0xbc261d38	-0.010138802
203	0x3d9940f8	0.07483095
204	0xbf1702c7	-0.5898861
205	0xbd9020a3	-0.07037475
206	0xbe0bdabd	-0.13657661
207	0xbeb87392	-0.36025673
208	0x3d9967ef	0.07490527
209	0x3ebc6b47	0.36800596
210	0xbcff4872	-0.031162474
211	0xbe296583	-0.1654263
212	0xbc3d9705	-0.01157165
213	0x3dcc53a9	0.099768944
214	0xbd869215	-0.06570832
215	0x3d9efa7c	0.0776262
216	0xbdadb83d	-0.08482406
217	0xbe15a81f	-0.14614914
218	0x3b57edea	0.0032948204
219	0xbe26ce9b	-0.16289751
220	0x3c929b60	0.017896354
221	0xbcfd768d	-0.030940318
222	0xbda997b9	-0.08280892
223	0x3d9f6ea8	0.07784778
224	0xbdc0a829	-0.09407074
225	0x3da56bdc	0.08077213
226	0xbd15efaf	-0.036605533
227	0xbe32d2b6	-0.17463192
228	0xbe960482	-0.29300314
229	0xbd5097c8	-0.050926
230	0xbca47898	-0.020077035
231	0xbe8fc151	-0.28077176
232	0xbdd5c2b5	-0.10437528
233	0x3d911e08	0.07085806
234	0x3b046ecf	0.0020207649
235	0x3c97df67	0.018539144
236	0x3c64bb50	0.013960674
237	0x3d4d3144	0.05009581
238	0xbcbb0dba	-0.022833694
239	0xbe1b8134	-0.15186006
240	0x3dbd0952	0.09230293
241	0xbd092d7c	-0.033490643
242	0xbd6233ab	-0.055225056
243	0x3d741c75	0.05959745
244	0x3cd4b5fb	0.025965681
245	0x3dbd0d57	0.0923106
246	0xbcc3c9e8	-0.023899987
247	0xbdd10aa8	-0.10207111
248	0x3e2610ba	0.16217318
249	0x3ebfe71b	0.37481007
250	0x3d899a68	0.06718904
251	0x3df91415	0.121620335
252	0xbd9ddb7d	-0.0770788
253	0xb98b86e3	-0.00026612644
254	0xbd99b84e	-0.075058565
255	0x3e4d4c00	0.20048523

base.critic.2.bias f4 [128]
0	0xbd61ab97	-0.05509528
1	0xbfc01fee	-1.5009744
2	0x3fc7a0a6	1.5595901
3	0xbd7e2648	-0.062048227
4	0xbd88f63f	-0.06687593
5	0x3fa34562	1.2755549
6	0xbce9dcff	-0.028547762
7	0xbfa6e22b	-1.3037771
8	0xbf737180	-0.9509506
9	0x3fc0b22e	1.5054376
10	0x3fd19b10	1.6375446
11	0xbccd0631	-0.025027366
12	0xbd3c0448	-0.04590252
13	0x3f9963ed	1.198362
14	0x3fcf2128	1.6181993
15	0xbd46027d	-0.048342217
16	0xbdbd15f2	-0.09232701
17	0xbf93df2d	-1.1552483
18	0xbd83a54c	-0.06428012
19	0xbfb781ed	-1.4336525
20	0x3fc91669	1.5709964
21	0x3fd0c840	1.6311111
22	0x3fc1ff83	1.5156101
23	0x3faa3a11	1.329897
24	0x3fd20724	1.6408429
25	0x3f9cf231	1.2261411
26	0xbe2d5758	-0.1692785
27	0x3e849147	0.25892088
28	0x3fcdd07b	1.6079248
29	0x3cef9750	0.029246956
30	0x3fd07cd4	1.6288095
31	0xbd508785	-0.05091049
32	0x3fd037cd	1.6267029
33	0xbb0fc86c	-0.002193953
34	0xbd80fd7b	-0.062983476
35	0xbfb47d6d	-1.4100777
36	0xbc4d3149	-0.0125239575
37	0xbce955c8	-0.028483286
38	0x3fd05631	1.6276304
39	0xbd488555	-0.04895528
40	0xbf95e1b8	-1.1709509
41	0xbb480673	-0.0030521422
42	0xbca2a5d8	-0.019854471
43	0x3d5971cd	0.053087045
44	0x3fce0742	1.6095965
45	0x3bbf47b0	0.0058374032
46	0xbfbc78bb	-1.4724344
47	0x3bd8b473	0.006613308
48	0x39fd4562	0.00048307615
49	0x3fd18fb2	1.6371977
50	0xbce29f7b	-0.027663937
51	0x3f5f1cab	0.8715312
52	0xbee5e2bc	-0.44899547
53	0xbcd54d01	-0.026037695
54	0x3fd31455	1.649058
55	0x3fd1bdf0	1.6386089
56	0x3fd28252	1.6446021
57	0xbf752e72	-0.95773995
58	0xbcaf62dd	-0.021409446
59	0xbd7ba0e6	-0.06143274
60	0xbb9ff9a5	-0.004882055
61	0x3f821ea4	1.0165601
62	0xbcc699a8	-0.02424319
63	0x3fd0cdbf	1.6312789
64	0x3fcf9de6	1.6220062
65	0x3fd1c6dc	1.6388812
66	0xbd63b782	-0.05559493
67	0x3fce6a05	1.6126105
68	0x3fc2e61f	1.5226477
69	0xbd6ec4f5	-0.0582933
70	0xbbe8e061	-0.007106826
71	0xbee68d9c	-0.45029914
72	0x3fc5135d	1.5396534
73	0xbfc19b00	-1.5125427
74	0xbc5bb938	-0.013410859
75	0x3f35d077	0.7102122
76	0x3fd0a24b	1.6299528
77	0x3fd20441	1.6407548
78	0xbd0353f7	-0.032062497
79	0xbca062a4	-0.019578286
80	0xbd080e5b	-0.033216815
81	0xbfc8d0ff	-1.568878
82	0xbd24c1c7	-0.040223863
83	0xbd2593ce	-0.04042416
84	0xbd84b8b5	-0.064805426
85	0xbd57d258	-0.052690834
86	0xbcfad606	-0.030619632
87	0xbf722c9b	-0.9459931
88	0x3fcff291	1.62459
89	0xba1fcb6d	-0.00060956815
90	0x3fb75240	1.4321976
91	0xbd66aed1	-0.05631906
92	0xbf97f322	-1.1871073
93	0x3fd14474	1.6349015
94	0x3fd11fa8	1.6337786
95	0x3f675841	0.9036904
96	0xbd92ca01	-0.071674354
97	0xbf991b0a	-1.1961377
98	0xbc82525e	-0.015908416
99	0x3d157266	0.036486052
100	0xbde5c11f	-0.112184756
101	0x3fd04e46	1.6273887
102	0xbcbbb852	-0.02291504
103	0xbd70f025	-0.05882277
104	0x3f91b395	1.1382929
105	0xbc3eb62e	-0.011640115
106	0xbcde3e25	-0.027129242
107	0x3fac0dc5	1.3441702
108	0x3f8e0d1a	1.1097748
109	0x3fd077f3	1.6286606
110	0xbd45c7d4	-0.048286274
111	0xbc32e902	-0.010919811
112	0xbe35275d	-0.17690797
113	0xbb59a952	-0.0033212495
114	0xbda3960a	-0.07987602
115	0x3fd1290e	1.6340654
116	0x3fcf1a5e	1.6179922
117	0x3fc70c15	1.5550562
118	0xbd391708	-0.04518798
119	0x3fc59a8d	1.543779
120	0xbcb9a61e	-0.022662219
121	0xbd585a25	-0.052820344
122	0xbcee9900	-0.02912569
123	0xbd39125b	-0.04518352
124	0x3fce575d	1.6120411
125	0x3fd2edba	1.6478798
126	0xbcf66a3f	-0.030079959
127	0x3f1cd6c2	0.61265194

base.critic.2.weight f4 [128, 128]
0	0x3d74ceb5	0.059767444
1	0xbd48f6f3	-0.049063634
2	0xbe46d6f2	-0.19417933
3	0xbdc54a05	-0.09633259
4	0xbe141d9f	-0.14464425
5	0xbd0e2743	-0.03470541
6	0xbbb70305	-0.0055850768
7	0x3df0df64	0.117613584
8	0x3d889125	0.06668309
9	0x3d037fa2	0.032104142
10	0xbe378cec	-0.17924851
11	0x3dee2ea6	0.11629991
12	0xbcd4781f	-0.025936184
13	0x3e7d1673	0.24715595
14	0x3e867ee3	0.26268682
15	0xbdfea72f	-0.124342315
16	0xbcd49a9b	-0.025952628
17	0x3dc40dee	0.095729694
18	0xbe099cf9	-0.13438787
19	0xbe51ec79	-0.20500363
20	0x3d781ad8	0.060572475
21	0xbe0f032d	-0.13966055
22	0xbc690dc0	-0.01422447
23	0x3e9441bb	0.28956398
24	0x3d3c8b50	0.046031296
25	0xbe32c0d0	-0.17456365
26	0x3de4b4ad	0.11167274
27	0xbe4a728c	-0.19770259
28	0x3c55b18b	0.013042818
29	0x3e12dc57	0.14341865
30	0xbd8cf4be	-0.06882618
31	0xbd87f785	-0.066390075
32	0x3db0bd90	0.08629906
33	0xbdded2bd	-0.10880039
34	0xbcb7ba63	-0.022427743
35	0x3d5c8702	0.05383969
36	0x3d56a002	0.05239869
37	0xbd073e11	-0.033018176
38	0x3e12e137	0.14343725
39	0x3cca3b37	0.024686439
40	0x3dac749a	0.084206775
41	0x3e5088b2	0.20364645
42	0x3ca46a74	0.020070292
43	0xbd86b91b	-0.06578275
44	0x3c8e78f9	0.017391669
45	0xbde8e90a	-0.11372574
46	0xbcbbf966	-0.02294607
47	0x3e267b15	0.1625789
48	0x3e1cd2a1	0.15314724
49	0xbe2c4027	-0.16821347
50	0x3cc2c3bb	0.023774972
51	0xbd50ade3	-0.05094708
52	0x3e65bcfe	0.22435376
53	0x3db81263	0.08987882
54	0xbc5e40b1	-0.013565228
55	0x3dfb8f77	0.12283223
56	0x3dd13c30	0.10216558
57	0xbdf5160a	-0.11967094
58	0x3d3b9199	0.04579315
59	0xbdd980f3	-0.10620298
60	0xbdb9c607	-0.09070974
61	0x3e0f08d9	0.13968219
62	0x39c07c7c	0.00036713842
63	0x3dd02f5d	0.10165284
64	0xbdf4b524	-0.11948612
65	0xbe294e3c	-0.1653375
66	0xbd8bb239	-0.06821103
67	0x3df2a445	0.11847738
68	0x3e205689	0.1565801
69	0x3d3c1251	0.045915905
70	0xbe31e222	-0.17371419
71	0x3ce522e2	0.027970735
72	0xbccb372d	-0.024806583
73	0xbd8c7d9b	-0.06859895
74	0x3e09868a	0.13430229
75	0xbe3955d1	-0.18099143
76	0x3c02de28	0.0079875365
77	0xbe30fd1a	-0.1728405
78	0xbd85c372	-0.06531419
79	0x3dd73063	0.10507276
80	0xbe0a0786	-0.13479432
81	0xbe8ce904	-0.27521527
82	0x3e1f6823	0.15567069
83	0x3da52582	0.08063795
84	0x3daec3a3	0.085334085
85	0xbdd91b7f	-0.106009476
86	0xbd0f9cac	-0.035061523
87	0xbddab76a	-0.10679515
88	0x3d860f41	0.06545878
89	0x3e08aa90	0.13346314
90	0xbd926bc6	-0.071494624
91	0x3d64df23	0.055876862
92	0x3da293b1	0.07938326
93	0xbdf279c7	-0.118396334
94	0xbe19b90d	-0.15011998
95	0xbe611bf8	-0.21983325
96	0xbd39e454	-0.045383766
97	0x3d7c9724	0.061667576
98	0xbd1f269e	-0.038855188
99	0xbdd1a01b	-0.10235616
100	0x3dcc8eda	0.09988184
101	0x3ce41e60	0.027846515
102	0xbc906a2d	-0.017628754
103	0x3d899ec6	0.06719737
104	0xbe80f7a6	-0.2518894
105	0xbdaad834	-0.08342019
106	0xbb80734a	-0.0039199935
107	0xbe75695e	-0.23965976
108	0xbe29c256	-0.1657804
109	0xbe10c517	-0.14137684
110	0x3dab2b66	0.08357887
111	0x3e3c3c91	0.18382479
112	0xbe985804	-0.2975465
113	0x3deb54be	0.11490773
114	0xbe245045	-0.16046245
115	0xbc9b194c	-0.01893296
116	0x3e6458f6	0.22299561
117	0xbdc17223	-0.09445598
118	0xbd195363	-0.03743304
119	0x3dfda566	0.12385063
120	0xbe94d3cc	-0.29067838
121	0x3dac8fec	0.084258884
122	0x3e23a14a	0.15979496
123	0x3c475c79	0.012168043
124	0x3cac336e	0.021020617
125	0xbd21b57c	-0.039479718
126	0xbe428d2c	-0.18999165
127	0xbd0140f9	-0.031556103
128	0xbcc01f59	-0.023452448
129	0xc00a9796	-2.165502
130	0x3e42f409	0.19038405
131	0xbc65cb01	-0.014025451
132	0xbf4398ff	-0.7640533
133	0xbee49d05	-0.44651046
134	0x3e9a6b16	0.30159825
135	0x3e074e5f	0.1321349
136	0x3ef36cbb	0.47543892
137	0xbcb4ac96	-0.022054952
138	0x3e333607	0.17501079
139	0x3fd0bf7f	1.630844
140	0xbc8e663a	-0.01738273
141	0xbfcba69f	-1.5910224
142	0x3f9ca1ae	1.2236841
143	0x3eb7de35	0.35911718
144	0x3e4a9cae	0.19786331
145	0x3eceada5	0.40366855
146	0xbb02f69a	-0.0019983412
147	0x3f212c3a	0.6295811
148	0x3e6e8290	0.23291993
149	0x3e1ccd61	0.15312721
150	0x3d27cafe	0.040965073
151	0xbe0d345f	-0.13789509
152	0x3f3756d5	0.7161687
153	0xbcf4af1c	-0.029868655
154	0x3e94f898	0.29095912
155	0x3e983e5a	0.2973507
156	0xbfb7c441	-1.4356767
157	0x3e23d660	0.15999746
158	0xbe3d7559	-0.18501796
159	0xbf996c62	-1.1986201
160	0xbfec8717	-1.8478726
161	0x3cfa5285	0.030556927
162	0xbf8f73d1	-1.1207219
163	0xbd06a15a	-0.03286872
164	0x3eb1da25	0.34736744
165	0x3f333438	0.70001554
166	0x3cc92014	0.024551429
167	0x3e8409bd	0.2578868
168	0xba9b0d86	-0.0011829592
169	0xbd976bde	-0.07393621
170	0xbde54858	-0.11195439
171	0x3d2d3481	0.0422864
172	0xbe78ed3f	-0.24309252
173	0xbdc01f39	-0.09380955
174	0xbbbb49d9	-0.0057155904
175	0x3f4a6a21	0.7906819
176	0x3d9bd608	0.076091826
177	0x3eb2c8b5	0.34918752
178	0x3d3ba297	0.045809355
179	0xbe806a43	-0.2508107
180	0x3e16b70e	0.14718267
181	0x3da809ee	0.08205019
182	0xbfe17699	-1.7614318
183	0xbdd219f0	-0.102588534
184	0x3f529a71	0.8226691
185	0x3f9cae78	1.2240744
186	0x3eb698fb	0.3566359
187	0x3e19f3c9	0.15034403
188	0x3f304909	0.6886144
189	0xbf095627	-0.53647083
190	0x3f1426ce	0.5787171
191	0xbeb87fba	-0.36034948
192	0x3f51c731	0.81944567
193	0xbe197123	-0.14984564
194	0x3f1a0691	0.6016627
195	0xbe0ace66	-0.13555297
196	0x3d91d605	0.07120899
197	0x3dd7429e	0.10510753
198	0x3d1b2820	0.037880063
199	0x3ee80dea	0.45323116
200	0xbd99b038	-0.07504314
201	0xbe1a7b3f	-0.15086077
202	0xbdadb668	-0.08482057
203	0xbe6a73ce	-0.22895738
204	0x3e122ff0	0.14276099
205	0x3dae681e	0.085159525
206	0xbd05a988	-0.03263238
207	0xbe49fbff	-0.19725035
208	0x3fc67ee2	1.5507472
209	0x3e4729c7	0.1944953
210	0x3fa31c46	1.2743003
211	0xbea6c1e8	-0.32569814
212	0xbdf5d533	-0.12003555
213	0x3ed9a4d9	0.4250858
214	0x3e37f77c	0.17965502
215	0xbcc55b6f	-0.02409145
216	0x3c2ae841	0.01043135
217	0xc02883b1	-2.6330378
218	0xbf74fa1c	-0.95694137
219	0x3e828e42	0.2549916
220	0x3d29ffe4	0.041503802
221	0x3dfe0240	0.12402773
222	0x3fb43326	1.4078109
223	0xbe5df7ac	-0.2167651
224	0x3d3414eb	0.04396526
225	0x3e8a3cd7	0.26999542
226	0xbe7e3fe2	-0.24829057
227	0xbcf98a34	-0.030461408
228	0xbde5ad7a	-0.11214729
229	0xbb02c601	-0.0019954445
230	0xbfbc79ff	-1.472473
231	0x3f127d09	0.5722204
232	0xbe415984	-0.18881804
233	0x3d9fde95	0.07806126
234	0xbdc148e6	-0.094377324
235	0x3c0c67b1	0.008569644
236	0x3ec731f0	0.38905287
237	0x3fa2e99b	1.2727541
238	0xbdcaa63f	-0.0989499
239	0xbfed0c69	-1.8519412
240	0xbda33d04	-0.07970622
241	0x3d09e509	0.03366569
242	0x3d677d3c	0.056515917
243	0x3f41ee4b	0.7575423
244	0xbc60404d	-0.0136872055
245	0x3e655db3	0.22399025
246	0xbee7a5c9	-0.45243672
247	0xbe078365	-0.13233717
248	0x3ee6a047	0.45044157
249	0x3e7cad06	0.24675378
250	0xbdba44f8	-0.09095186
251	0xbe0a72fc	-0.13520426
252	0xbe742d36	-0.23845372
253	0x3ff172dc	1.8863177
254	0x3f8657de	1.0495565
255	0x3e8262dc	0.2546605

base.critic_linear.weight f4 [1, 128]
0	0x3c09345b	0.008374299
1	0xc0327786	-2.7885451
2	0x3f590ec1	0.8478814
3	0x3cecf12e	0.028923597
4	0xbd9b447c	-0.07581422
5	0x3f6d8987	0.92787975
6	0x3d329a12	0.043603964
7	0xc0441483	-3.063752
8	0xc0586e05	-3.381715
9	0x3f59bd3a	0.8505436
10	0x3f512817	0.817018
11	0x3db80123	0.08984592
12	0xbc8521c2	-0.016251449
13	0x4079c7bb	3.9028156
14	0x3f45f52b	0.7732722
15	0xbdfed29d	-0.12442515
16	0xbcffc567	-0.031222058
17	0xbfffd017	-1.9985379
18	0xbc12d41a	-0.008961702
19	0xc03712a3	-2.8605125
20	0x3f33266a	0.6998049
21	0x3f3d1f90	0.73876286
22	0x3f88d6b5	1.0690523
23	0x40125c15	2.2868702
24	0x3f599061	0.8498593
25	0x3ff8384a	1.9392178
26	0x3f8977e9	1.0739719
27	0x40da2d14	6.8180027
28	0x3f694867	0.911261
29	0xc021e65a	-2.5296845
30	0x3f5a725f	0.85330766
31	0xbe2ab4ed	-0.1667058
32	0x3f3fcbc7	0.74920315
33	0xbe1ae5a8	-0.1512667
34	0xbb69d735	-0.0035681252
35	0xc08f53f5	-4.4789987
36	0xbdbb6446	-0.09149985
37	0xbd8a0fe0	-0.06741309
38	0x3f3c4da1	0.7355595
39	0xbe5c1024	-0.21490532
40	0xc028f944	-2.640214
41	0xbda532be	-0.08066319
42	0xbd2537db	-0.04033647
43	0x3d4f5f24	0.050627843
44	0x3f2e06de	0.6797923
45	0x3d03ec77	0.032207932
46	0xc04550b8	-3.0830517
47	0x3d87d968	0.06633264
48	0x3d801fe4	0.06256083
49	0x3f4dd696	0.8040556
50	0xbdd2461d	-0.10267279
51	0x40aae1a6	5.340045
52	0xbfd3b041	-1.6538163
53	0xbe5018df	-0.20321988
54	0x3f832b7c	1.0247645
55	0x3f545c39	0.8295322
56	0x3f49e721	0.788683
57	0xbff0edbe	-1.8822553
58	0xbdb33a32	-0.08751334
59	0xbe84c103	-0.25928506
60	0x3e3ac057	0.18237434
61	0x3fefc88c	1.8733077
62	0xbd8c0e63	-0.068386815
63	0x3f37a7f0	0.7174063
64	0x3f34cd2b	0.7062556
65	0x3f568b87	0.8380665
66	0xbe172c1b	-0.14762919
67	0x3f476dfb	0.7790219
68	0x3f818709	1.0119334
69	0xbd0e9deb	-0.03481857
70	0xbd0da383	-0.034579765
71	0xc00edce9	-2.2322333
72	0x3f320e9b	0.69553536
73	0xc0399f59	-2.9003508
74	0x3da5bf12	0.080930844
75	0x408b8cd2	4.36094
76	0x3f3a988d	0.72889024
77	0x3f6b8063	0.9199278
78	0xbe05e1ce	-0.13074419
79	0x3e26213b	0.16223614
80	0xbdc07e34	-0.09399071
81	0xc0435998	-3.0523434
82	0xbe42896c	-0.18997735
83	0xbd9de11e	-0.07708953
84	0xbe225d65	-0.1585594
85	0xbd8669dc	-0.0656316
86	0xbe4e6abb	-0.20157902
87	0xc0326d89	-2.7879355
88	0x3f4d7139	0.8025089
89	0x3de0748e	0.10959731
90	0x40375c25	2.864999
91	0xbde5211b	-0.11187955
92	0xc03307aa	-2.7973428
93	0x3f5136c8	0.81724215
94	0x3f4bbd6c	0.7958591
95	0x408cfd1a	4.405896
96	0xbe382711	-0.17983653
97	0xc0709e8c	-3.759677
98	0xbddf8623	-0.109142564
99	0x3d3a48dc	0.04547964
100	0xbf462da8	-0.77413416
101	0x3f40ea5b	0.753576
102	0x3c92c0ae	0.017914142
103	0xbc54fda4	-0.012999926
104	0x3fb69330	1.4263668
105	0x3cc50804	0.024051674
106	0xbc04a970	-0.008097038
107	0x401b7efe	2.429626
108	0x4084eb00	4.1536865
109	0x3f52fa7b	0.8241345
110	0xbc91e269	-0.017808156
111	0xbe2e42ec	-0.17017716
112	0x40cd91de	6.424056
113	0x3d04264e	0.032263093
114	0x3dad64f6	0.084665224
115	0x3f46b529	0.7762018
116	0x3f322b58	0.6959739
117	0x3f5a0e2b	0.8517787
118	0xbd82c475	-0.063851275
119	0x3f8da24b	1.1065153
120	0x3d5f7e8b	0.05456404
121	0xbcce37fc	-0.02517318
122	0x3cf18391	0.029481681
123	0xbda1b3de	-0.07895635
124	0x3f3974df	0.72443956
125	0x3f7df989	0.99208885
126	0xbe40a91a	-0.18814507
127	0x3fd14cb6	1.6351535

dist.fc_mean.0.bias f4 [3]
0	0xbe100b2e	-0.14066765
1	0x3e6b2e11	0.22966792
2	0x3ea6a6fd	0.32549277
