OpenRDW/Assets/OpenRDW/Resources/SRLNet_40.onnx (onnx, 167857 bytes, 12 tensors)

39 f4 [1, 3]
000000 8f 06 b5 bd 56 d1 43 be 71 46 5e be
       -0.088391416 -0.19122824 -0.21706559

base.actor.0.bias f4 [128]
000000 c5 1d 62 3e fc fa 23 3f 60 01 9f be be 3f ab 3e
       0.22081669 0.64054847 -0.31055737 0.3344707
000010 fb 51 8c 3e ba f5 54 3e 07 59 8f be 1f e0 25 be
       0.27406296 0.20796862 -0.2799761 -0.16198777
000020 4d 8a 94 be 8f 96 4b bf 41 64 eb be ef 3e ac bc
       -0.29011765 -0.7952661 -0.45974925 -0.021026103
000030 81 9b 46 be ff 53 17 bf 9d 3e 37 be db 9d 58 bc
       -0.19395258 -0.5911254 -0.17894979 -0.013221229
000040 8a 6e fd be c5 b8 8d bd ee 6d 28 bf 4b de 92 3b
       -0.49498397 -0.069200076 -0.6579274 0.004482066
000050 97 23 7d be 5e a2 10 be 56 26 b1 bd f0 e0 f2 3c
       -0.24720608 -0.14124438 -0.0864989 0.029648274
000060 00 00 00 00 01 a1 21 be c1 6b b5 3d 48 cd 43 3d
       0.0 -0.15784074 0.08858443 0.047803193
000070 24 90 02 3e 70 22 a0 3e b2 80 5e 3e 8b 47 f3 bc
       0.12750298 0.31276274 0.21728781 -0.0296972
000080 38 01 11 bc cf e5 9f be 45 cc 6b 3e 14 3c 2a be
       -0.008850388 -0.31230018 0.23027141 -0.1662448
000090 42 fe 6a 3e fd 45 15 bf 48 ff a9 bd dd 2c 2f be
       0.22948554 -0.5830992 -0.08300644 -0.17106958
0000a0 a8 97 bb bd 8c ad 97 3d 83 c9 ec be 3f bb a4 be
       -0.091597855 0.07406148 -0.4624749 -0.32174107
0000b0 00 00 00 00 d0 8e 0e bf 9e 6b 4d 3f b6 ab c6 3e
       0.0 -0.55686665 0.80242336 0.3880288
0000c0 c2 77 84 bb 57 a1 5b bd 0f f3 db 3e a3 8c 1d 3d
       -0.0040425966 -0.053620663 0.42958876 0.0384642
0000d0 c2 15 a0 be 51 98 5f bf 9e 50 3b bd a0 af 02 bf
       -0.312666 -0.8734179 -0.04573118 -0.5104923
0000e0 7d 14 79 be 24 53 f1 bd d9 f2 5e 3e 86 b3 a5 3d
       -0.24324222 -0.11783436 0.21772327 0.08090882
0000f0 90 8f 8e 3c ef 9f 81 bc 3c a3 fa 3d 48 8e 2a 3e
       0.01740244 -0.015823333 0.12238166 0.16655838
000100 20 d5 b7 be 79 cf 9a 3e 9f ad 4e 3d 61 bc 75 3e
       -0.3590479 0.30236414 0.050458547 0.23997642
000110 f4 1c 5a be ec be 73 bd df 84 34 bb bd e0 20 3e
       -0.21300107 -0.05950825 -0.0027545018 0.15710731
000120 c5 f4 0e 3e 0b bf fa 3a 31 62 15 3f 49 c1 3f bf
       0.1396056 0.0019130422 0.58352953 -0.74904305
000130 de d2 2b 3f 08 e2 6c be ae e5 8d 3d 61 1c 62 bf
       0.6711863 -0.23133099 0.069285735 -0.8832455
000140 fc 48 e3 3e 79 34 56 3f c5 43 bd bc ed 5c f3 bc
       0.4439162 0.83673817 -0.023103604 -0.029707396
000150 83 39 32 3e 11 02 06 bc 87 f0 c6 3c ad ce 15 bf
       0.17404751 -0.008179204 0.024284614 -0.5851849
000160 fc 62 9b be ed 37 d1 bd 44 84 b3 be 8a 0d 36 3d
       -0.30348957 -0.10215745 -0.35061848 0.044446506
000170 a1 56 fc bd e8 d5 b5 bb 2b dd 12 bf 5a 66 90 3e
       -0.12321211 -0.0055491813 -0.57368726 0.28203088
000180 49 e5 39 be ed db 41 3f ce fc 99 3d 89 eb a0 3e
       -0.18153872 0.75726205 0.07518922 0.314297
000190 fb 1c 78 3e 37 c5 be 3e 49 d7 ce be 5b 94 c6 3d
       0.24229805 0.37259838 -0.40398625 0.09696265
0001a0 25 8d a4 3e 1b ca 80 3d 57 5b 09 bf 2e 0e ba be
       0.32138935 0.062885486 -0.53655 -0.36338943
0001b0 78 af 9a bc 9b 84 a7 3e 0c e3 17 3e db 9f 89 be
       -0.018882498 0.32718357 0.14832705 -0.26879773
0001c0 69 d1 8a 3e 40 c7 e1 bc fa e3 8a bd a0 76 05 bf
       0.27112892 -0.02756083 -0.06781764 -0.5213413
0001d0 79 91 07 3e bc 68 3d 3f 2a c3 ac 3e 2c c1 34 bd
       0.13239087 0.73987937 0.33742648 -0.044129536
0001e0 9c e5 a2 3e 9e 3c c5 bc 9a 21 36 be d5 ec 2d be
       0.31815803 -0.024076756 -0.17786255 -0.16984876
0001f0 16 83 b9 be 8a 8b 11 3f 8d a1 28 bd 99 1e b0 3e
       -0.36232823 0.56853545 -0.04116969 0.34398344

base.actor.0.weight f4 [128, 30]
000000 87 d2 1e 3e e4 c5 f5 3c 53 7b 57 bf 15 01 c5 3d
       0.15509997 0.030001588 -0.8417255 0.09619347
000010 d6 83 77 3d 7e 09 23 bf 19 03 85 bd dd 9d 7c 3e
       0.060428463 -0.6368636 -0.064947315 0.24669595
000020 83 1b 85 be e0 a0 01 be 2b 4a 81 3c dc e0 a6 be
       -0.25997552 -0.12659025 0.015782436 -0.3259343
000030 7e 32 a0 3d c9 39 27 3e 20 8b a2 be 70 b3 89 3c
       0.078221306 0.16330637 -0.3174677 0.016809195
000040 fb d2 6b 3e df 6a 4d be a6 20 12 3e 95 10 98 bb
       0.23029701 -0.200603 0.14270267 -0.0046406486
000050 0a 84 92 3d 48 9c 05 be 82 bf 1e bd 7e b0 38 be
       0.07154091 -0.13047898 -0.038756855 -0.18036076
000060 5b b5 aa 3d 49 ac 90 3d 5b 9c 3e 3d 3f a1 b4 bd
       0.08335372 0.07064111 0.04653583 -0.08819818
000070 c5 fa 41 bd 52 69 60 be b0 37 78 3c 16 3d 2f bc
       -0.047358293 -0.21915177 0.015149996 -0.010695716
000080 82 92 0c 3e 72 79 a4 bd 1c 5a 3a be 01 24 48 bd
       0.13727763 -0.08030976 -0.18198436 -0.04886246
000090 a6 15 d8 bd 9b 1b 86 bd 26 ee f7 bc 8b cc f4 bd
       -0.10551004 -0.06548234 -0.030264925 -0.11953076
0000a0 70 fa 91 be e0 ad 08 3d 46 e2 55 3c 1d 2b 66 be
       -0.2851138 0.033368945 0.013054436 -0.22477384
0000b0 d0 99 8e 3e 45 1e 13 39 14 b4 97 bc df cb 40 3e
       0.27851725 0.00014030289 -0.018518485 0.1882777
0000c0 c6 d7 01 bd 64 c5 ac be 92 df ea 3d 47 88 72 bd
       -0.03169992 -0.33744347 0.11468424 -0.059211995
0000d0 90 fe 54 be e3 07 ca 3e 13 5d ce 3d 9d 53 2a be
       -0.20800233 0.39459142 0.10076346 -0.16633458
0000e0 9b 34 33 be e6 78 d3 3d 4f 76 53 be 15 f9 7e bd
       -0.17500536 0.10325794 -0.206506 -0.062249262
0000f0 1d 39 41 3d 13 db 36 b8 e4 a9 95 be 5a 47 02 be
       0.047173608 -4.359621e-05 -0.2923118 -0.12722531
000100 02 11 b2 be 79 fe 9e be 9a fd 96 3d ce f0 86 be
       -0.347786 -0.31053522 0.073725894 -0.26355594
000110 e0 3a 53 bd 34 23 cf bd f3 77 c9 be 66 ac 4d bd
       -0.05156982 -0.10114136 -0.39349326 -0.05021324
000120 87 4c ff 3d c0 8b 4a be 6d d7 0c be 5d b2 25 bd
       0.12465768 -0.19779873 -0.13754053 -0.040453304
000130 7a 62 bb be 02 bd 84 3e ce d1 7f be d4 d1 33 be
       -0.3659857 0.25925452 -0.24982378 -0.17560512
000140 f3 cb 29 be 20 fd 09 be c0 f4 74 be 3d f7 b8 3e
       -0.16581707 -0.13475466 -0.2392149 0.36126128
000150 04 df 4b 3d ca 63 e0 be 4b b8 d0 3e 6c 88 a6 be
       0.04977323 -0.43826133 0.40765604 -0.32525957
000160 ac 4d 65 be 2e 83 10 3f 05 bb 22 bc e2 24 d7 3c
       -0.2239291 0.56450164 -0.009932284 0.026262704
000170 e9 b7 0d bc be 8f 7d be bf 6a 95 bd 24 36 28 3c
       -0.008649805 -0.24761865 -0.07295751 0.010266814
000180 b1 c4 33 bd bd 44 d4 3d 86 1e 7c 3e 44 ca 1b be
       -0.04388875 0.10364673 0.24621019 -0.15213877
000190 bb 0d 38 bd 75 2a d6 bd 65 08 1b be 9f 44 63 3e
       -0.04493497 -0.10457317 -0.15139921 0.22194146
0001a0 c3 e0 40 be cb 41 53 3d a7 c7 a4 bd ff 41 b2 be
       -0.1883574 0.051576417 -0.08045893 -0.34815976
0001b0 1c 3a 72 be be 6f 87 3d b7 aa d0 be 9c 98 4f be
       -0.2365498 0.0661311 -0.40755245 -0.2027306
0001c0 d2 c8 29 be d0 8a ef be 33 3a b7 be 86 d8 4b 3e
       -0.16580513 -0.46785593 -0.3578659 0.19906816
0001d0 01 88 5b bf 10 09 12 bf 2a e9 e3 bd fa bf 1c 3e
       -0.857544 -0.5704508 -0.11128457 0.15307608
0001e0 fe 72 76 bd b3 78 a1 3e 14 c1 26 3e 3a ca db 3d
       -0.06016826 0.315374 0.16284591 0.10731931
0001f0 98 42 44 bd d2 13 56 be 5c 68 3a be 24 51 8a 3e
       -0.04791507 -0.20905998 -0.18203872 0.2701503
000200 d1 d2 f5 be 03 04 ee bd df 34 27 3d 53 ed 2b bf
       -0.48012403 -0.11621859 0.040821906 -0.67159003
000210 1b de 07 be 16 96 c9 bd e7 5b 9b be c5 8c 91 bd
       -0.1326832 -0.0984308 -0.30343553 -0.07106928
000220 7b 80 8c 3c 08 01 63 be 6e dd 93 be 20 ec 68 be
       0.017151108 -0.22168362 -0.28879875 -0.22746325
000230 66 2d 02 be 3b 7a 5b bd e1 6d d4 bd b0 4e be be
       -0.1271263 -0.053583365 -0.1037252 -0.3716941
000240 a2 8d d9 be 21 b2 7d 3d 43 fc bb bd 74 ed 1f bf
       -0.4249087 0.061937455 -0.091789745 -0.624717
000250 0a ce 06 3e 35 a5 ae bd dc 2d e0 3c 39 80 10 be
       0.13164535 -0.085276045 0.027365617 -0.14111413
000260 5f 43 8e be b8 85 34 bd fd ae b3 bd f2 a7 10 bf
       -0.27785775 -0.044072837 -0.08773611 -0.56506264
000270 39 66 4d 3c 26 8c 08 3e cb e5 13 bf 15 ed 3a 3b
       0.012536579 0.13334712 -0.5777251 0.002852266
000280 ea 3d 3f 3e 53 6c 3e be cd 49 54 be 49 ae bf 3e
       0.18675962 -0.1859601 -0.20731278 0.37437657
000290 f7 13 a0 be be 68 e1 bd a3 fa 23 3e 25 4b 08 bf
       -0.31265232 -0.11006306 0.16013579 -0.5323966
0002a0 1b c4 59 be 8a 70 7b 3d be 56 f6 be d5 1b d7 bd
       -0.21266215 0.061386622 -0.48113054 -0.105033554
0002b0 3a f7 9b 3d 74 8d d1 3d 42 fc 96 be 2b 09 f6 bc
       0.07615514 0.10232058 -0.29489332 -0.030033669
0002c0 20 9d 56 3e aa 92 c4 be 63 2c d3 3d 63 67 09 bd
       0.20958376 -0.38393146 0.103112005 -0.033545863
0002d0 fe 4e 9f bd 7e a6 35 be b0 71 57 3e de 1d 39 3e
       -0.077787384 -0.17739293 0.21039462 0.180778
0002e0 b0 6a 3e bc 2c 04 d8 3c 3a 45 f4 bc 17 fe 90 bb
       -0.011622116 0.026369177 -0.029818166 -0.004424821
0002f0 ed 0a 0d be bd ed 3f 3d 48 32 25 bc c7 a7 ae bd
       -0.13773699 0.046857584 -0.010082789 -0.08528095
000300 c2 1f 9c 3d 01 f0 89 3d 00 a8 b0 bd 7a 53 fa ba
       0.07623245 0.0673523 -0.086257935 -0.0019098364
000310 c9 18 21 3e 9f f6 9c 3d fc 67 57 bd bf 07 b1 bd
       0.15732111 0.07664227 -0.0525894 -0.086440556
000320 5c 25 09 be 37 6c a7 3d 59 35 1e 3e 9e 25 4e be
       -0.13393158 0.08174937 0.15450038 -0.20131537
000330 3b 90 22 be b3 9b 97 bd 8f e6 a7 bd 2e 87 15 be
       -0.15875332 -0.07402744 -0.081982724 -0.14602348
000340 ab a8 67 3d dd ae 31 be b3 40 0e be b2 04 de bb
       0.05655734 -0.17351861 -0.13891868 -0.006775462
000350 88 7d 9b 3e 03 96 76 be 5d ce 64 be 94 d7 86 be
       0.3036921 -0.24080662 -0.22344346 -0.26336348
000360 4a 69 71 be eb 36 08 be 29 54 d3 bd 50 49 81 be
       -0.23575321 -0.133022 -0.10318787 -0.25251245
000370 11 c4 a1 3d 38 70 63 be b8 3a 57 be 66 ef dd 3d
       0.07898725 -0.22210777 -0.21018493 0.10836677
000380 e2 12 c3 be 69 26 3b be 54 a2 84 bc 03 21 fe bd
       -0.38100344 -0.18276371 -0.016190685 -0.1240864
000390 5f fd fb 3b 72 fa 90 3d dc 62 b8 be e1 95 84 bd
       0.0076901163 0.07079019 -0.36012924 -0.064739
0003a0 97 6c b3 bd ac 9f 80 bd b5 b2 59 3d 18 fd f8 3d
       -0.08760946 -0.06280455 0.053148944 0.12157649
0003b0 34 e5 20 bc 57 b8 86 be b3 aa 1b bd 45 40 c5 3d
       -0.009820271 -0.26312515 -0.03800459 0.09631399
0003c0 98 c0 9e bc c4 0f e8 bd a5 c5 ad 3c 83 63 bc 3d
       -0.019378945 -0.11331132 0.021212408 0.09198668
0003d0 a3 95 be be ae e1 13 be f4 b2 e9 3b 83 e6 32 bd
       -0.3722354 -0.14441559 0.0071319286 -0.043676864
0003e0 bd 1e 75 be a7 78 ea bd 88 89 9d 3d 77 c1 b0 bc
       -0.23937507 -0.11448794 0.07692248 -0.021576626
0003f0 8f ed 5a be 29 55 97 bc 69 09 8c 3e 48 8b 36 3e
       -0.21379684 -0.018473225 0.2735093 0.17826569

base.actor.2.bias f4 [128]
000000 14 89 1a be f8 14 be be a5 77 23 bf 0b b1 22 3e
       -0.15091354 -0.37125373 -0.6385444 0.15887849
000010 6f 70 d5 3b 63 87 d4 be d1 c5 c1 bc 98 c8 c2 3d
       0.0065136473 -0.41509542 -0.023653897 0.095109165
000020 7a b3 97 bd 1c cd 61 be fd 45 f8 bd 30 ce 57 3e
       -0.07407279 -0.220509 -0.12122724 0.21074748
000030 bb 29 9a be d3 56 52 be ca 5e db bd fe e6 9b bd
       -0.30109963 -0.20540933 -0.10711439 -0.07612418
000040 96 e5 7f be 0f 2d 95 3c 7a 7f ae 3d 31 2b ab bd
       -0.24989924 0.018209962 0.08520408 -0.083578475
000050 cc 00 65 be 5d fe 82 be a3 02 1d bd 0b 35 cb bd
       -0.22363585 -0.2558469 -0.038332593 -0.099222265
000060 fd 18 4f be cb da 07 bf c2 21 c2 be 5e 82 b4 bd
       -0.20224376 -0.53068227 -0.3791638 -0.08813928
000070 9c 9f 65 bd 6f 28 b4 3c 47 99 af bd 39 88 be bd
       -0.05606042 0.021991936 -0.08574157 -0.09303326
000080 0a 61 4f bd 42 4a 3a 3e 22 f8 93 be 21 c1 c5 be
       -0.050629653 0.1819239 -0.28900248 -0.38623908
000090 3d 82 87 be 03 f9 00 bd d9 29 59 bd 74 16 b5 be
       -0.2646655 -0.031487476 -0.053018425 -0.35368693
0000a0 b7 09 c9 be c7 26 2c be 49 39 14 3e 85 76 85 bd
       -0.39265224 -0.16811667 0.14474978 -0.065167464
0000b0 ed f3 0d 3e 7c c0 47 be 5c da 81 bd 97 c1 0a be
       0.13862582 -0.1950702 -0.06340477 -0.13550411
0000c0 ea 04 61 bd c5 fc bd bd aa 14 db be 88 77 cf be
       -0.054936327 -0.092767276 -0.42789203 -0.40520883
0000d0 a3 5f 8d be 5a 3c d0 be 58 ce f9 3d f5 83 48 bc
       -0.27612028 -0.40671045 0.1219756 -0.012238492
0000e0 ad 60 c6 be 6d 19 a9 bd 07 42 ae bd 14 2f 00 bd
       -0.38745633 -0.08256803 -0.085086875 -0.031294897
0000f0 ca 33 bf be c4 ee 6e be ee e0 59 be dd 0f 0b 3d
       -0.373442 -0.2333327 -0.2127721 0.033950675
000100 ed 8a 6e be 23 68 b7 bb c6 84 e9 be 2a 7c fc be
       -0.23295183 -0.005597131 -0.4560911 -0.4931348
000110 bd f5 99 bd 5c 9c 6f be 9b 60 c4 bd 40 f9 a5 be
       -0.07517574 -0.2339949 -0.095887385 -0.32416725
000120 c2 d9 d3 bd 59 9a 1b be 69 67 ef bd db 3c 87 be
       -0.103442684 -0.15195598 -0.11689646 -0.26413617
000130 d6 cd 86 be 64 24 29 be e7 71 f5 bd 09 c6 b8 be
       -0.26328915 -0.16517788 -0.11984616 -0.3608859
000140 6b 9b 83 3d da 29 16 3e ab 00 90 3d 7a 16 36 be
       0.06426128 0.14664403 0.070313774 -0.17782012
000150 d5 09 d8 be b8 03 00 be c2 d6 b1 bc cd 9f 1d be
       -0.42195 -0.12501419 -0.02170885 -0.1539299
000160 04 c3 04 be dc f7 34 3c cc db 64 bc a5 4b 60 be
       -0.12965018 0.011045422 -0.013968419 -0.21903856
000170 65 bd 59 be 42 10 13 be 40 56 c3 bd dc b5 07 be
       -0.21263655 -0.1436167 -0.09537935 -0.13252968
000180 10 a1 be be c5 f5 bc bd f5 bd 93 3d 1c 3f 89 3e
       -0.37232256 -0.09226564 0.07213966 0.2680596
000190 60 db 03 bd c9 52 29 bf a3 a1 da bd ee 47 e0 be
       -0.032191634 -0.66141945 -0.10675361 -0.43804878
0001a0 d1 a7 c8 be 66 b4 ce be 5a 3a db be 6c c7 54 be
       -0.39190534 -0.40372008 -0.42817956 -0.20779198
0001b0 18 f9 3a 3c 9d 7d 0c 3e 37 5d 92 be fd da e4 bc
       0.011411928 0.13719793 -0.28586742 -0.027936453
0001c0 a2 62 bd be dd b1 a6 be 36 0c 82 3d 9c 4a 84 be
       -0.36989313 -0.32557574 0.06349985 -0.25838172
0001d0 70 07 7d 3e fb 88 a2 bd 17 44 00 3e e6 7e 1e be
       0.24709868 -0.07936283 0.12525974 -0.15478095
0001e0 59 78 9f be fb 9b f0 3d ac 78 84 be 97 de a9 bc
       -0.31146505 0.11748501 -0.25873315 -0.020736022
0001f0 e1 50 10 bd 84 10 74 3c b3 c2 58 be 40 34 87 3e
       -0.035233382 0.014896516 -0.21168022 0.2640705

base.actor.2.weight f4 [128, 128]
000000 39 d7 1e be a4 43 24 be ae d7 be 3b cb 50 37 3e
       -0.15511788 -0.16041428 0.005824051 0.17901914
000010 e6 3e b7 3d 05 64 ac 3d 00 73 27 bd b1 d9 5f 3e
       0.08947544 0.08417515 -0.040881157 0.21860386
000020 8a df 24 3e 5f d9 71 bc f3 76 7d be c0 ae 72 be
       0.16100898 -0.014761298 -0.24752407 -0.23699474
000030 fb 28 74 bd 58 d9 9e be 8f a5 45 3e e6 f2 ad 3d
       -0.059609395 -0.31025195 0.19301437 0.08493595
000040 5f 60 be bd b8 c9 c2 3d c8 93 00 be d3 7d 9b bd
       -0.09295725 0.09511131 -0.12556374 -0.075923584
000050 ae ba 2b 3e 2b 02 32 be 8b bd 16 3e 33 2b 74 bd
       0.16770431 -0.1738364 0.14720742 -0.05961151
000060 df 89 1b 3d 5a df f6 3d 1d 34 33 3b 2e 6e e0 be
       0.03797328 0.1205432 0.0027344294 -0.4383406
000070 e7 82 94 3e 03 9b 23 3e 93 20 de 3b 7b 2c b2 bc
       0.2900612 0.15977101 0.0067787855 -0.021749726
000080 fa 60 bc be 0a 39 7f 3d 3a 90 ae bd f2 c5 93 bc
       -0.36792737 0.062310256 -0.08523603 -0.018038724
000090 d2 5e b7 3d fd d8 74 be c4 af 89 ba d4 14 85 be
       0.089536324 -0.239109 -0.0010504653 -0.25992453
0000a0 a1 f4 88 3e a5 ad 72 3c 4c fd 8f be 33 17 47 3e
       0.26749137 0.014811908 -0.28122938 0.19442444
0000b0 8d 52 e8 bd 0d b3 23 3d aa 70 9b be 53 e6 b0 3c
       -0.1134387 0.039965678 -0.30359393 0.021594202
0000c0 67 f4 56 3d 21 43 14 bd 43 88 9f 3d db 40 12 be
       0.052479174 -0.03619683 0.07789662 -0.14282553
0000d0 01 e7 ac be e2 60 2b 3c 6a 46 03 3d 6b de 32 3e
       -0.33769992 0.01046011 0.032049574 0.17467658
0000e0 61 79 f7 bc 09 bc c5 be 43 02 0d be 25 b5 16 3e
       -0.030209245 -0.38620022 -0.13770394 0.14717539
0000f0 58 a6 b1 be 12 56 b2 3e 6a f9 df 3b 1e 28 9e be
       -0.34697223 0.3483129 0.0068351524 -0.30889982
000100 d7 07 08 3c 24 bb 84 be 86 0a d0 be 7f 59 56 3d
       0.00830265 -0.25924027 -0.4063303 0.052331444
000110 a1 24 8d be 69 73 81 3d 77 a0 8e 3d d3 d6 4f be
       -0.27567008 0.06320841 0.069642 -0.20296793
000120 ff c1 2a 3e ef b4 a7 3d 4a c4 a9 be ba dc ae be
       0.16675566 0.08188807 -0.3315757 -0.34152776
000130 d9 4d 7f 3e 70 41 a2 be e3 52 c1 3d 22 32 f4 3d
       0.2493204 -0.3169055 0.094396375 0.119236246
000140 cd 39 16 be e3 37 d6 bd d3 4b 12 bd 90 c6 06 be
       -0.14670487 -0.10459878 -0.035716843 -0.13161683
000150 de f1 7a 3d a2 f0 3a be 22 5c d3 3d 0f 11 cd bd
       0.06126582 -0.18255857 0.10320307 -0.10013019
000160 bc 2e 25 be 2e 44 8a be e7 a7 80 ba c9 bc 96 bd
       -0.16131109 -0.27005142 -0.0009815664 -0.07360227
000170 ff 74 c5 3d 2b 6e 8a 3c 2e 13 13 3e 20 bb 37 3e
       0.09641456 0.016898235 0.14362785 0.17942476
000180 72 46 94 be 80 0d b3 be 03 3a bb bd f8 97 85 3d
       -0.28959996 -0.34971237 -0.09141924 0.06523126
000190 69 d2 62 be 93 73 d8 3d 86 89 90 3d 5c bd c1 3d
       -0.22150578 0.10568919 0.070574805 0.094599456
0001a0 21 db 9f 3d 66 db b5 be b4 8a ee bd 2a 82 f3 bb
       0.078054674 -0.3551895 -0.11647549 -0.0074312882
0001b0 40 57 e2 3c 7f d2 73 be c6 4b 70 be df ad 3d bc
       0.027629495 -0.23810767 -0.23466405 -0.011577099
0001c0 0c 28 ed 3d 81 90 c0 3d 69 ab cc bd 8a 39 f6 bd
       0.11579904 0.09402562 -0.099936314 -0.120226935
0001d0 ce 23 44 bc 47 39 8e 3d 62 55 4e be cb b3 a0 be
       -0.011971427 0.069445185 -0.20149758 -0.3138717
0001e0 5d 88 d4 3d 18 65 34 3d b8 be 66 3e d8 49 08 3d
       0.10377572 0.044041723 0.22533691 0.033273548
0001f0 44 a0 0c be 64 18 6d 3e 03 c3 31 be 3e a1 15 be
       -0.13733011 0.23153836 -0.17359547 -0.1461229
000200 fe 84 51 3e ae 09 29 bc 32 3f 95 bd a1 3c 57 3e
       0.20460889 -0.010317249 -0.07287444 0.21019222
000210 e0 94 3a bd 54 74 94 bd df 06 28 3d d1 b9 68 3e
       -0.045552135 -0.0724875 0.041022178 0.22727133
000220 4c 79 87 3d 84 b7 a2 bd 5b 6e 26 be df 73 a0 bd
       0.066149324 -0.07945159 -0.16253035 -0.07834601
000230 ba 88 5e 3d 72 e6 f4 bd 19 b0 d2 bd a7 22 98 3e
       0.05432961 -0.119580165 -0.10287494 0.29713938
000240 a0 1d 77 be c1 81 09 3e cd a9 99 be 92 c6 0e 3e
       -0.24132395 0.13428403 -0.3001236 0.13942936
000250 9d f6 24 be 81 2a 37 3d 6f b2 6a be 4b 6b 84 3e
       -0.161097 0.04471827 -0.2291963 0.25863108
000260 6e e4 0b be 1c b2 28 3c de cc 4d be ed 3d 8c 3e
       -0.13661358 0.010296371 -0.20097682 0.27390996
000270 4b 58 a2 bb be 2e 91 be d9 76 44 3e d7 5d 64 be
       -0.004954373 -0.28355974 0.19185962 -0.22301422
000280 2c ec df be 00 56 76 be 01 11 29 bd 1e 95 b7 3e
       -0.43734872 -0.24056244 -0.04127598 0.35855955
000290 09 01 db 3c 30 eb 63 be bd 29 ff bd 2e 11 b7 3d
       0.026733892 -0.22257686 -0.12459133 0.08938824
0002a0 29 81 41 3c 76 28 80 3e a2 e2 a5 3e c8 a1 37 be
       0.011810579 0.2503087 0.3239947 -0.17932808
0002b0 6a 57 45 3d f8 ca 22 3e 7b 4a 86 be 44 37 c3 3c
       0.048179068 0.15897739 -0.262287 0.023830064
0002c0 89 8c 8b 3d 85 17 73 3d 01 68 b0 3d db 09 d5 3d
       0.06813914 0.0593486 0.08613587 0.104022704
0002d0 f0 1a 85 be 74 3d 64 be 04 a1 ed 3d 5f 6c 3a be
       -0.25997114 -0.22289068 0.11602977 -0.18205403
0002e0 1e 0e 35 be 44 5e c3 bd ef d1 78 be 9c 93 5b bd
       -0.17681167 -0.09539464 -0.24298833 -0.05360757
0002f0 f2 23 06 3f 74 a9 0e 3c ff f1 a7 be 46 69 90 be
       0.523986 0.008707393 -0.32801816 -0.28205317
000300 84 c3 07 be 9a 7b 0a 3e 04 45 4c 3d fa 70 21 be
       -0.13258177 0.13523713 0.049870506 -0.15765753
000310 e4 21 7e 3d 3e 6e c4 be 02 fc 0f bd 1e 9b bc 3d
       0.06204404 -0.38365358 -0.035152443 0.09209274
000320 8a 67 aa 3d a6 f8 e3 3d 4c 3a 56 3e 77 85 64 be
       0.0832053 0.1113141 0.20920676 -0.22316538
000330 b4 3d 38 3e 73 aa fd 3d 0e af 97 bd b8 3c 26 be
       0.17992288 0.12386026 -0.07406436 -0.162341
000340 12 9d 80 be 6e e8 a2 be 9c 0c 8d bb 8c c6 b5 3d
       -0.25119835 -0.31817955 -0.0043044817 0.088757604
000350 28 18 c2 bd f8 33 d7 3d 70 7f d3 bd cb 11 76 3e
       -0.09477264 0.10507959 -0.10327041 0.24030225
000360 10 54 53 3e cd ab 82 3e 4e b1 c1 be e8 3e 3f 3c
       0.20637536 0.255217 -0.37830585 0.011672713
000370 34 aa 6e 3e 1e a5 92 3c 94 8c a5 be 5f 00 3c bd
       0.23307115 0.017901 -0.32333815 -0.04589879
000380 52 39 0b 3d a1 99 29 3e 22 ae 22 bc 6b 5d 96 be
       0.03399021 0.16562511 -0.009929212 -0.29368147
000390 51 36 48 be 30 a8 03 3e bf 7a bf be 3a 83 06 3e
       -0.1955197 0.12857127 -0.37398335 0.13135996
0003a0 c2 f6 ba be 29 19 99 be f3 bc 2e 3e 11 3d cc be
       -0.36516386 -0.29902008 0.17064266 -0.3989034
0003b0 45 27 2e be 9a e9 a9 be 9a 98 a7 be e8 d0 bc bc
       -0.17007168 -0.33186036 -0.32733613 -0.023048833
0003c0 e1 0e 07 bd c8 e3 a6 be 70 b8 e0 bd 55 9c 28 be
       -0.032973174 -0.32595658 -0.10972679 -0.16465886
0003d0 ba 0e 87 3e b2 16 c7 bd 5f b0 b8 bb f0 fb 5e 3e
       0.26378423 -0.09721126 -0.0056362594 0.21775794
0003e0 8a 43 43 be 42 a4 06 be 33 69 59 3e da d7 f8 bd
       -0.19068733 -0.13148597 0.21231537 -0.121505454
0003f0 33 25 60 bd 8a a4 08 3e be 82 2c bc 4d 14 24 3e
       -0.054722976 0.13344017 -0.010529218 0.16023369

base.critic.0.bias f4 [128]
000000 3d 14 93 bd 30 40 b2 3f b2 d2 5d bd 4c f9 9f bd
       -0.071815945 1.3925838 -0.054156013 -0.078112215
000010 c4 5f bf bd de 2c 95 3f 64 03 a3 bd eb b8 db bc
       -0.09344438 1.1654317 -0.07959631 -0.026821574
000020 43 1f 8a 3f 04 47 18 3f 85 c7 cc bc cb 19 75 bd
       1.079079 0.5948336 -0.024997482 -0.05983905
000030 1c a1 03 be 6c 8f a5 3f 7e 41 6c 3e c7 79 a5 3f
       -0.12854427 1.2934394 0.23071858 1.2927788
000040 bd 7a a0 3f 0c 88 88 3f 79 7b f0 bc 29 e1 68 bd
       1.2537457 1.0666518 -0.029355751 -0.056855354
000050 cd c2 43 3e 2f 56 fa 3d e7 3d ca 3b 04 71 c6 ba
       0.1911728 0.122234695 0.00617193 -0.0015139882
000060 17 e7 c3 3e e7 7d 47 3e 47 4e 12 3f f6 59 09 bd
       0.38262245 0.19481622 0.5715069 -0.03353306
000070 ad b1 30 3f 00 00 00 00 24 e3 a6 bc 98 1f b2 3f
       0.6902111 0.0 -0.020371981 1.3915892
000080 e6 d0 a5 3f 91 db 05 3f d2 2f 85 3e 31 ae 5e bc
       1.2954376 0.52288157 0.26013047 -0.013591335
000090 47 f2 8d 3f b7 a2 0d 3f c1 af 17 3f 0c 3f 01 be
       1.1089562 0.5532641 0.59252554 -0.12621707
0000a0 cf dc 03 3c 6e 60 9e 3f f5 db 06 3e 00 00 00 00
       0.00804825 1.2373178 0.13169844 0.0
0000b0 ef 49 75 3f 5d 38 f5 3e 33 73 ec 3e 10 f8 17 bd
       0.9581594 0.47894564 0.4618164 -0.037101805
0000c0 55 71 9e 3f be 17 ec 3e d4 18 c9 3e 22 d6 b6 bd
       1.2378336 0.46111864 0.39276755 -0.08927561
0000d0 cc ff 9d bd 50 0b d7 3d d9 8e 1f bc 8e 69 37 3f
       -0.07714805 0.105002046 -0.009738647 0.7164544
0000e0 61 0e 4b bf ba ab 50 3d 34 5b 50 3f b6 d5 f6 bd
       -0.79318815 0.05094502 0.81389165 -0.12052481
0000f0 c7 ed ef 3e df b5 98 3f 0e 6d b7 bd cd e4 da be
       0.46861097 1.1930503 -0.089563474 -0.42752686
000100 59 85 a6 3e f8 a6 3a 3f 09 c7 5a bd c7 c0 20 bd
       0.3252361 0.72911024 -0.05341247 -0.039246347
000110 62 06 90 bd 6f f6 c9 be 64 73 a1 3f 72 2d 8e bc
       -0.070324674 -0.39445826 1.261334 -0.017355654
000120 bd 02 77 bc 46 88 92 3f 43 10 66 3f 2d a1 a1 3f
       -0.015076336 1.1447837 0.89868563 1.2627312
000130 86 25 5e bd 65 f8 57 bf ac e0 49 bf 2c 05 a7 3f
       -0.054235004 -0.84363395 -0.7885845 1.3048453
000140 20 44 01 bf de 92 80 bd 6b 55 d9 bd 84 36 bc 3e
       -0.50494576 -0.06278013 -0.10611995 0.36760342
000150 1e 0f 3c 3f b0 88 9e 3f 13 99 a5 3f 9e 3e 59 bf
       0.73460567 1.2385464 1.293734 -0.8486117
000160 4e c3 a2 3f cf 86 ae 3f 5b 01 76 3f c0 55 9f 3f
       1.2715852 1.363489 0.9609582 1.2448044
000170 b8 66 f5 3d 6b df 7c 3f ae 08 03 3e 1c bc 11 3e
       0.11982483 0.9877841 0.1279628 0.14231914
000180 23 54 56 bd fe 9a 5b bf 09 bb 97 3f f1 63 a8 3f
       -0.052326333 -0.85783374 1.1853954 1.31555
000190 4a ef 51 3f 7c 1a 08 3e 5c d1 a8 3e fd e2 68 3f
       0.8200575 0.13291353 0.3297223 0.90971357
0001a0 01 e2 f4 bd 68 9a cb bc 46 42 1f bd a9 12 02 bd
       -0.11957169 -0.0248539 -0.038881563 -0.031756077
0001b0 50 7f d2 3e 71 21 4b be 9c 12 a8 bd 21 bc 52 3c
       0.41112757 -0.19836976 -0.082066745 0.012862236
0001c0 10 dd af bb aa d8 af 3e 2b d6 f0 3e f0 98 f9 bc
       -0.005366929 0.3434499 0.47038397 -0.030468434
0001d0 a9 94 02 3c ef d6 1b 3f 4d b0 c5 3e 4b 5c 9e bd
       0.007970014 0.6087484 0.3861107 -0.07732447
0001e0 bc d8 06 3f 00 00 00 00 36 5f 87 bd 3f ee a5 bd
       0.5267446 0.0 -0.06609957 -0.081020825
0001f0 df 0a ee 3e 1b 1d 99 bd bb 2f 01 3f e2 ba a2 3f
       0.4649267 -0.074762546 0.50463456 1.2713282

base.critic.0.weight f4 [128, 30]
000000 ed ee 0a 3e 85 94 d9 3d a0 e5 67 bd 57 04 1f be
       0.13567705 0.10624031 -0.05661547 -0.15529
000010 bc 45 0e 3d 68 96 1a be 12 3c 1b be 59 22 db 3d
       0.034734473 -0.15096438 -0.15159634 0.10699911
000020 25 48 c0 bc df 49 b3 bd 9d 51 92 bd 2a bc f7 3c
       -0.023471901 -0.08754324 -0.07144473 0.03024109
000030 df ea 83 be ff 86 a8 bc 42 da 38 bd ed a7 9b 3d
       -0.2576513 -0.020572184 -0.045130022 0.07600389
000040 d1 55 a9 bd d6 12 02 3e 69 ad b3 3d be 93 74 be
       -0.08268321 0.12702498 0.0877331 -0.23884484
000050 0f 65 9d bd f8 7e 19 bc f8 0f 45 be df 53 49 be
       -0.07685291 -0.009368651 -0.19244373 -0.196609
000060 14 92 02 bd a6 b6 3b 3e d7 73 bd be 67 f8 f8 3d
       -0.031877592 0.18331394 -0.3700244 0.12156754
000070 ac 68 1a bc d0 59 f7 3d 00 77 5f 3e 74 ce 62 3e
       -0.00942437 0.12077677 0.21822739 0.22149068
000080 ee a2 08 3d e0 eb f4 3d 2b 99 f8 bd 1d 8b 56 3e
       0.033358507 0.11959052 -0.121385895 0.20951505
000090 6c 6c 55 3e 7b 98 1c bd 5a 6c ab bd 6d 4c 2c 3d
       0.20842141 -0.038231354 -0.08370276 0.042065073
0000a0 a9 c8 84 be 0c f3 0d 3e 01 31 43 3e 59 8a f7 bd
       -0.25934342 0.13862246 0.19061662 -0.120869346
0000b0 67 94 29 be 7e 9a 15 3e e8 3e 0f be 5a 7f 6d 3c
       -0.16560517 0.14609715 -0.1398884 0.014495695
0000c0 d4 05 55 3e 82 c0 bf be 86 cb 65 3d ce d2 93 3d
       0.20803005 -0.3745156 0.0561023 0.07217942
0000d0 61 4d 65 be 09 47 65 3b a2 f8 0c 3e 87 6a ef be
       -0.22392799 0.0034984967 0.13766721 -0.4676096
0000e0 bf 18 46 be 5f 6b 37 3e 8a fc 86 be 6f e1 7e bc
       -0.19345377 0.17912053 -0.26364547 -0.015556677
0000f0 95 f1 45 be f8 16 cb 3c be 33 97 bc 72 e2 cc bd
       -0.19330437 0.024791226 -0.01845729 -0.100041285
000100 4e 1b 84 3d e9 db ec 3c ea 8f 96 3d 34 1c 33 be
       0.064505205 0.028913455 0.07351668 -0.17491227
000110 21 4b d6 bd b5 64 ff bd c5 85 41 3e 36 5e 28 be
       -0.104635485 -0.1247038 0.18898685 -0.16442189
000120 9a a5 84 3d d3 85 82 3d d8 af 81 bd f7 24 b6 bd
       0.064768985 0.06373181 -0.06332368 -0.08893769
000130 64 c1 b9 3c 11 b6 4f bc 18 f9 ca 3d e7 09 ad be
       0.022675224 -0.012677685 0.09910792 -0.33796617
000140 0d d4 d6 3c 74 e8 34 be a6 e9 16 3e d7 69 0a bc
       0.02622416 -0.17666799 0.14737567 -0.008448086
000150 e2 2f 97 be 23 f8 dd bd 68 c3 8a bd 8a c9 a8 bd
       -0.2952872 -0.10838344 -0.06775552 -0.082415655
000160 1b b8 ad bd 42 08 be 3d 41 5d 47 be 9b f4 25 3d
       -0.08482381 0.09278919 -0.19469167 0.040516477
000170 90 0d cc bd 3a 0e 52 bd 33 a3 2b bd f7 b3 ed 3d
       -0.09963524 -0.0512831 -0.041903686 0.11606591
000180 16 11 ce bd d1 b0 86 bd 93 59 40 3e b0 f0 b1 b9
       -0.10061853 -0.06576694 0.1878417 -0.00033939397
000190 61 1c 41 be 7a 36 83 be 08 d9 98 be 98 fb dd bc
       -0.18858482 -0.256275 -0.29853082 -0.027097508
0001a0 07 08 31 be 97 6f 49 3d cd dc 71 be d0 7e 01 3e
       -0.17288218 0.049178686 -0.23619385 0.12646031
0001b0 32 69 c6 3d 8c de 65 bb 4c a6 25 be 7f f5 62 3d
       0.09688033 -0.0035075275 -0.16176718 0.055409905
0001c0 19 80 cc 3c 06 ec e1 3d f2 43 de 3c 97 5c e3 3d
       0.024963425 0.11031346 0.027132008 0.111016445
0001d0 51 91 33 3c be 2e dc bd e2 9a 89 be f2 1c 9a be
       0.010959939 -0.10751103 -0.2687598 -0.3010021
0001e0 ea f5 56 be 80 44 b4 bd 19 f4 20 be 5b 31 0c 3e
       -0.20992246 -0.08802128 -0.15718116 0.13690703
0001f0 28 64 83 3c 0b 37 87 3d 07 66 ce bd 74 06 02 be
       0.01603897 0.066022955 -0.10078054 -0.12697774
000200 ce 5b 43 3c e7 fe a5 be 0d d7 92 bc 7c be e5 3d
       0.011923743 -0.32421038 -0.01792481 0.11217973
000210 21 21 2b bd a2 a3 89 3d d2 f1 6c 3e b9 a4 9b 3d
       -0.04177964 0.067206636 0.23139122 0.07599778
000220 82 6d 3d be c0 ec 1a be 07 21 36 be 5b 46 c7 bd
       -0.18498805 -0.15129375 -0.17786036 -0.09730216
000230 fb 0e 32 be de 0c 13 be 31 af 53 bd d1 13 37 be
       -0.17388527 -0.14360377 -0.051680747 -0.17878653
000240 02 59 01 be 2c 52 d5 bd 32 a9 a4 bc b7 42 66 bc
       -0.1263161 -0.10416064 -0.02010021 -0.014053992
000250 c1 41 a8 bd 5a c0 28 be cd 3e 0f 3e fc 87 8f 3e
       -0.082156666 -0.16479626 0.139888 0.28033435
000260 14 de a1 3e 99 59 7e bc e8 9d 90 3e 11 e2 62 3e
       0.31614745 -0.015524291 0.28245473 0.2215655
000270 45 c8 9e bd de b0 83 3e 05 47 d9 3d a4 5c 5b be
       -0.07753042 0.25720876 0.10609249 -0.21422058
000280 e6 27 2d 3e fa 3d a6 3d 0f 6e 0f bd 3a da 25 be
       0.16909751 0.0811729 -0.03501707 -0.16196528
000290 b0 81 03 bd 3b 32 93 be 38 b6 b9 bd ea a1 08 3e
       -0.0321061 -0.2874926 -0.090679586 0.13343015
0002a0 36 74 a1 be 42 c8 cd 3c 65 37 79 3e d4 c1 35 be
       -0.31533974 0.025119904 0.24337538 -0.17749721
0002b0 4b 26 de bd 53 b0 02 3e 58 75 d8 be 06 65 82 be
       -0.108471476 0.12762575 -0.42277026 -0.254677
0002c0 aa cd 57 be 83 97 60 bf df 60 08 bf 51 6b f9 bf
       -0.21074548 -0.8773119 -0.53272814 -1.9485875
0002d0 63 99 7f be 18 c3 88 bd a5 23 5e bd 47 cd c0 3d
       -0.24960856 -0.06677836 -0.054233212 0.094141535
0002e0 d1 75 86 3c d3 fc af 3d 9e 03 6e bd 19 22 e9 bd
       0.016413601 0.08593144 -0.05810892 -0.11383457
0002f0 39 40 76 3d b2 ea dd bd f6 32 0e be 44 fc 1a bd
       0.06011984 -0.1083578 -0.13886628 -0.037838235
000300 6c f9 e1 bc a6 53 24 3e 0b 5c 35 be e8 eb d1 be
       -0.027584754 0.16047534 -0.17710893 -0.41000295
000310 43 97 dd bd 99 74 2d bb fb 05 85 bd c7 43 ae bd
       -0.108198665 -0.0026467203 -0.06495281 -0.08509021
000320 77 03 04 be 33 52 92 3d 3a b3 4b bd d7 39 d6 3d
       -0.12891947 0.071445845 -0.04973147 0.10460251
000330 6b 0c 83 bd c6 a3 c1 3c 69 dc d3 bd e0 2a 93 3d
       -0.06398853 0.023637664 -0.10344774 0.07185912
000340 e6 47 bc 3d 38 c4 d0 3d 88 0e 11 bd 03 62 2b be
       0.09193401 0.10193676 -0.03541425 -0.16736607
000350 05 b9 06 bc e4 09 c2 3d 43 75 8c bd 12 5f a6 3d
       -0.008222823 0.09474543 -0.068583034 0.08123602
000360 a6 64 ba bd 51 25 19 be bd 29 03 3c f8 2e 2e be
       -0.091012284 -0.14955641 0.008005557 -0.17010105
000370 2c 9d 67 3c 5e b2 18 bd 18 b1 ba bd 1a 09 97 3d
       0.014136594 -0.03727948 -0.09115809 0.07374783
000380 ee d8 f5 bd 9b a8 91 3d 76 45 27 bd 9f 3e 4e be
       -0.12004267 0.07112237 -0.040837727 -0.20141076
000390 f2 af 9b be 2f 30 61 bd 95 86 3f bd 63 f5 96 be
       -0.30407673 -0.054977592 -0.046759207 -0.2948409
0003a0 4b d5 dd bd 27 2b ab 3d c7 01 8d bc 71 c7 65 3c
       -0.10831698 0.0835784 -0.017212762 0.014024601
0003b0 76 2a 36 3d a9 74 c0 3c 6a ed e7 bc d4 f1 f0 bd
       0.044474088 0.023493128 -0.02831145 -0.11764875
0003c0 be c5 4b be 2d a9 0d 3e 71 b5 5c bd 4e 3b 54 be
       -0.19899651 0.13834067 -0.053883974 -0.20725748
0003d0 51 07 81 3d 83 9f 91 3e e8 e2 91 be a7 52 06 be
       0.063002236 0.2844201 -0.28493428 -0.13117467
0003e0 25 a4 85 3e e0 bc 16 3e a8 16 9c 3d 87 b7 0f 3e
       0.26101795 0.14720488 0.07621509 0.14034854
0003f0 8b 33 77 be a6 e6 00 bd f5 5c 05 3d b4 ff 95 3d
       -0.24140756 -0.031469963 0.032559354 0.07324162

base.critic.2.bias f4 [128]
000000 47 7f 55 bd 06 f9 b1 be 06 9e ad 3f e6 40 1a be
       -0.052123334 -0.34760302 1.356385 -0.1506382
000010 8b f1 61 bd dc 9c 9d 3f 2f 78 df bc 3c f4 ca bd
       -0.055161994 1.2313495 -0.027278988 -0.09909865
000020 ac fb 68 bd 80 f7 b0 3f 90 21 8f 3f c1 bd 26 bd
       -0.056880638 1.3825531 1.1182117 -0.040708307
000030 a2 5b 67 be 22 80 b0 3f fb 93 b0 3f 3d cc 9a bd
       -0.22593549 1.3789103 1.379516 -0.075584866
000040 b0 b1 34 bd 14 30 cf be ca bb aa bd 4c f3 fd bc
       -0.04411477 -0.40466368 -0.08336599 -0.030999802
000050 81 1d af 3f fe ea b0 3f 10 6c 97 3f 30 62 ae 3f
       1.3680879 1.3821714 1.1829853 1.3623714
000060 d9 74 b1 3f 67 48 85 3f ca 31 9e 3f 47 92 04 bd
       1.3863784 1.041272 1.2358944 -0.032366063
000070 9c 9b b0 3f e3 32 09 be e1 3b b2 3f 18 0e 37 bd
       1.3797488 -0.13398318 1.3924524 -0.044691175
000080 ac a1 b0 3f a9 2b 49 be 34 2d 56 bd a9 2b 99 bf
       1.3799338 -0.19645561 -0.052289203 -1.1966449
000090 2c ed 9b bc d1 0b 06 bd 84 b5 b2 3f d3 29 33 bf
       -0.01903399 -0.032726113 1.3961644 -0.69985694
0000a0 75 f8 8a bf da 4c 37 bf d4 11 b6 bc ab 03 93 3f
       -1.0857073 -0.7160164 -0.022225298 1.1485494
0000b0 b0 d8 af 3f 2f f4 bb bc 64 28 87 bd b0 e1 99 3f
       1.3738003 -0.022943584 -0.06599501 1.2021999
0000c0 ee f1 a1 3f 6f 2b b1 3f 2b a6 11 bd 15 d7 ba bc
       1.2651956 1.384138 -0.03555886 -0.022807637
0000d0 49 2e ee be d5 aa 1e bf 54 9a a5 3f ce a4 b1 3f
       -0.46519688 -0.6197942 1.2937722 1.3878419
0000e0 9a 22 a5 3f 8f b1 0d bf 12 5e 30 bc d5 dd bd be
       1.2901185 -0.5534906 -0.010764616 -0.37083307
0000f0 78 c9 a2 3c 4c ad 92 3f 1d c8 8e bd 25 c8 b1 3f
       0.019871458 1.1459136 -0.06971762 1.3889204
000100 11 ab b0 3f 6c df b0 3f f5 63 d1 bd 79 67 af 3f
       1.3802205 1.3818183 -0.102241434 1.3703452
000110 4f 22 af 3f fb 75 34 bd 05 5c 3c bd 7a af 31 bd
       1.3682345 -0.044057827 -0.045986194 -0.043380238
000120 0f 88 ab 3f 08 ce dc bd ea a6 b1 3f c6 fe 6b b9
       1.3400897 -0.10781485 1.3879063 -0.00022506257
000130 7d 08 b2 3f 3f 5f b1 3f e9 98 3e be de f8 ba bc
       1.390884 1.3857192 -0.18613018 -0.022823747
000140 fe 1f 0d be 94 e9 9d bf 5d f3 5d bc c2 cd 05 bf
       -0.13781735 -1.2336907 -0.013546792 -0.52267087
000150 53 8a b8 bd 76 ca 97 be 0c c2 92 bc 05 d8 2f be
       -0.09010758 -0.29646653 -0.017914794 -0.17172249
000160 1b ba b0 3f 09 ea 04 bd 8b fc ae 3f 76 7f 6d be
       1.3806795 -0.032449756 1.367082 -0.23193154
000170 ca d8 96 bd 7b 26 b1 3f 5d c9 b0 3f bc 3d 7b be
       -0.07365568 1.3839868 1.3811451 -0.24535269
000180 3f 45 5e bc 05 54 06 be e5 e2 c2 bc b8 9b 89 3f
       -0.013566314 -0.13117988 -0.023789832 1.0750647
000190 52 ca 95 bd cb 20 b1 3f af b6 f6 3c 02 3e e6 bc
       -0.0731398 1.3838133 0.030116407 -0.02810574
0001a0 7c 14 af 3f 00 00 00 00 c9 02 9b 3f 8e 86 ae 3f
       1.3678126 0.0 1.2110225 1.3634813
0001b0 8b 0c 98 3f ce 53 b0 3f 51 6a df bd 04 40 ff bc
       1.1878828 1.3775575 -0.1090895 -0.031158455
0001c0 50 f8 48 3a 62 e2 6c 3f 63 e4 42 bd 60 5b b1 3f
       0.0007666396 0.9253293 -0.047581088 1.385601
0001d0 ac 2a b1 3f e6 26 fc 3c b6 ae 24 bd 54 ae ae 3f
       1.3841147 0.030780267 -0.04020568 1.3646951
0001e0 0b 19 af bc 7c 0b 36 bd 1b 55 94 bc af 79 7a be
       -0.021374246 -0.044444546 -0.018106988 -0.24460481
0001f0 cf bc b3 3f 48 65 b1 3f 5d 7b 71 bd 2b f7 1d bb
       1.4041995 1.3859034 -0.05895554 -0.0024103622

base.critic.2.weight f4 [128, 128]
000000 96 ac 5a 3d 88 f5 3c bd 92 57 4c be 7e 67 b9 bd
       0.053387247 -0.046132594 -0.1995528 -0.09052943
000010 8d ce ff bd 63 cd 83 bd fc 3b ac 3c 64 df f0 3d
       -0.12490568 -0.06435659 0.021024697 0.117613584
000020 c1 75 95 3c 0b 5c d3 3c 18 4e 46 be 0a 61 0b 3e
       0.018244626 0.025800725 -0.19365728 0.13611236
000030 c3 2c e2 ba 03 51 64 3e 37 27 84 3e 36 46 03 be
       -0.0017255772 0.22296529 0.2581117 -0.12819752
000040 6a 6a 44 bd 40 f2 b5 3d f9 9c 09 be d3 e9 58 be
       -0.047953047 0.08884096 -0.13438787 -0.21182947
000050 d7 93 4e 3d 7e 8e 07 be 92 d5 4f bc bb 41 94 3e
       0.05043396 -0.1323795 -0.0126851965 0.28956398
000060 33 f9 b0 3d 73 53 23 be 4b ee 09 3e 80 18 42 be
       0.08641281 -0.15949802 0.13469808 -0.18954659
000070 95 51 eb bc 57 dc 12 3e d1 69 75 bd f2 d1 96 bd
       -0.028725425 0.14341865 -0.059915368 -0.07364263
000080 b6 e0 95 3d dc a7 e6 bd d7 eb 1f bd 02 87 5c 3d
       0.07318251 -0.112624854 -0.039043274 0.05383969
000090 40 94 23 3d 59 c8 ad bc c6 9a f9 3d 2e 99 02 bc
       0.039936304 -0.021213697 0.12187724 -0.007971091
0000a0 eb b9 ac 3d 88 88 28 3e 10 ba 9d 3c 1b b9 86 bd
       0.084338985 0.16458333 0.01925376 -0.06578275
0000b0 11 90 d0 bb 2b 8d 0d be c2 90 49 bc 8b 6f 2c 3e
       -0.0063648303 -0.13823383 -0.012302579 0.16839425
0000c0 ad cb 08 3e df a3 3c be 11 d8 4a 3c b2 85 0e bc
       0.13358946 -0.18421887 0.012380616 -0.008698868
0000d0 65 2a 5f 3e 63 12 b8 3d 73 9b 8c bd 6e 4f 99 3d
       0.21793516 0.08987882 -0.06865587 0.07485853
0000e0 63 cd d5 3d 37 bf ee bd 57 74 0f 3d b0 61 c6 bd
       0.10439565 -0.11657565 0.03502306 -0.09686601
0000f0 4c 72 bb bd 99 49 0b 3e 65 c3 a9 3c 53 c1 af 3d
       -0.0915266 0.13602294 0.020723054 0.085817955
000100 42 7e 0a be 90 ab 2f be 50 37 91 bd 45 a4 f2 3d
       -0.13524726 -0.1715529 -0.07090628 0.11847738
000110 33 ca 22 3e 83 c7 69 3d 4a 96 57 be 77 52 d9 3c
       0.15897445 0.057075035 -0.21053424 0.02652858
000120 9e 23 bf bc 35 7d 90 bd 06 65 f4 3d 7c 07 38 be
       -0.023332413 -0.07055131 0.11933331 -0.17971605
000130 3c 99 69 3c 81 9a 33 be 4a f3 4c bd 6b b3 ac 3d
       0.014257725 -0.17539407 -0.050036706 0.08432659
000140 23 96 15 be 94 96 91 be 9d fc e0 3d d6 11 d6 3d
       -0.14608054 -0.28435194 0.10985682 0.10452621
000150 fb a1 9f 3d 0d 2d 05 be 42 fd 07 bd 42 09 ff bd
       0.07794567 -0.13005467 -0.03320051 -0.12452938
000160 fb 8c 22 3d bf 57 1f 3e bf 95 94 bd 5f f7 39 3d
       0.03968523 0.15560816 -0.07255124 0.045401927
000170 2f 47 a4 3d 8c 0c c5 bd f7 a1 1c be a3 70 70 be
       0.0802139 -0.09621534 -0.1529616 -0.23480467
000180 46 3f 4f bd 91 8d 76 3d d6 78 37 bd 15 46 01 be
       -0.05059745 0.060193602 -0.044792973 -0.1262439
000190 94 54 8f 3d 9d 89 05 3d e5 83 bc bc 9d 31 52 3d
       0.06998554 0.03260194 -0.023012111 0.051316846
0001a0 6b e5 7a be c9 74 c0 bd 77 ae 68 3b 17 74 71 be
       -0.24501579 -0.09397275 0.003550438 -0.23579441
0001b0 ac f8 12 be 4e 21 11 be 26 7c c4 3d 2b c0 0f 3e
       -0.14352673 -0.14172861 0.09593992 0.1403815
0001c0 78 f4 94 be 19 45 d1 3d 29 64 3a be d1 78 60 bc
       -0.29092765 0.102182575 -0.1820227 -0.01370068
0001d0 c2 06 66 3e d6 e9 b6 bd 03 bf 77 bd 66 a5 fd 3d
       0.22463515 -0.089313194 -0.060484897 0.12385063
0001e0 38 4b 92 be ec 8f ac 3d 4e b8 2d 3e 49 db 42 3c
       -0.28573012 0.084258884 0.16964838 0.011893102
0001f0 6e 33 ac 3c a1 bd 01 bd e5 ad 3a be 9a f8 37 bd
       0.021020617 -0.031674985 -0.18230398 -0.04491482
000200 d9 e2 fd 3c 3b c5 16 be 9f b7 94 3e aa 4f 91 bc
       0.030991958 -0.14723675 0.29046342 -0.017738182
000210 e0 f0 c0 3b b9 42 27 bf 0a 43 8a 3d ca be 13 3e
       0.0058880895 -0.65336186 0.06751068 0.14428249
000220 bf c4 93 bb 09 ad 8d be 64 ef e7 3d 0a c5 4d 3d
       -0.004509538 -0.27671078 0.11324957 0.05023674
000230 69 74 13 bd 40 0b 88 bf 05 9d aa bd 2b ee d2 3e
       -0.03599969 -1.0628433 -0.0833073 0.41197333
000240 f8 70 81 3e 70 e1 a2 3d 9a f6 02 bb 9a 0c 33 3c
       0.252815 0.07953155 -0.0019983412 0.010928297
000250 22 d0 2f 3d a5 3a 37 be 82 b3 3b 3d 5f 34 0d be
       0.0429231 -0.17893465 0.04582549 -0.13789509
000260 02 8c a3 be 46 c6 56 be 74 40 d0 3e 14 98 d4 bb
       -0.31942755 -0.20974073 0.40674174 -0.0064878557
000270 90 a8 fd be 60 d6 23 3e 45 03 3d be 19 71 e8 bf
       -0.49542665 0.15999746 -0.18458278 -1.8159515
000280 ce bb c3 be 2d 41 c4 3e 9b 64 3f be 5a a1 06 bd
       -0.3822922 0.38330975 -0.18690722 -0.03286872
000290 68 7f 9e 3e 44 06 92 3e f3 78 d0 bd 60 c8 9c 3d
       0.30956578 0.28520405 -0.10179319 0.07655406
0002a0 be 8f bc bd de 14 a3 be b3 6d 21 3e 81 34 2d 3d
       -0.09207104 -0.31851858 0.15764503 0.0422864
0002b0 66 a0 8d be 25 f8 4d bf 43 76 c8 3d cf 9b 53 3e
       -0.27661437 -0.80456764 0.09788182 0.20664905
0002c0 ef 94 a7 bd 7a 19 06 3f 8f 1b fe bd b0 5b 1c bc
       -0.08182704 0.52382624 -0.124076 -0.009543344
0002d0 19 f5 7e 3e 2c 9b 8c bc d5 50 0b 3d 06 1f 34 be
       0.24898185 -0.017163835 0.034012634 -0.1758996
0002e0 08 f4 33 3f 31 73 ce bd a4 a0 30 3e 4f 51 97 3c
       0.7029424 -0.10080565 0.1724878 0.018471388
0002f0 07 0f 19 3e 7f 14 54 be 00 25 77 3d f2 bd 41 3e
       0.14947139 -0.20710944 0.06033802 0.18920115
000300 af 1a 94 be 99 c1 07 bf 05 3f a1 3e 66 ce 0a be
       -0.28926608 -0.5302978 0.31493393 -0.13555297
000310 78 ee b1 3d db 9f d6 3e d7 55 a9 bc 6e 9d 60 bc
       0.086880624 0.41918835 -0.020670814 -0.013709409
000320 7b c2 ad bd 18 f6 82 be 7a 3d e3 be 28 b5 82 3d
       -0.0848436 -0.2557838 -0.4438284 0.06382209
000330 2d 19 22 3e be bb 47 3f 01 e0 de 3d 42 9e 10 3d
       0.15829916 0.78020847 0.10882569 0.035307176
000340 0d 97 f0 3e 25 46 3a 3e e8 7e 2c 3e 2c 3e 0f 3e
       0.46990243 0.1819082 0.16845286 0.1398856
000350 4c 4a 8b bd f1 67 84 3d 9e 99 39 3e 87 11 62 3f
       -0.068012804 0.06465138 0.18125007 0.88307995
000360 25 9c bd 3d 75 a6 0c bf 18 2c 73 3d 52 6b 69 3e
       0.09258298 -0.54941493 0.059368223 0.22794846
000370 aa 77 18 bd d3 da e1 bd 2e 57 05 3d 7d a2 14 be
       -0.037223496 -0.110280655 0.032553844 -0.1451511
000380 70 d7 9f 3d 32 ab 86 3f ed 2a 40 be 5b f9 23 3e
       0.07804763 1.0520995 -0.18766375 0.1601309
000390 9e 62 4e be ed 3d 46 3e e1 e3 10 be 85 60 9a be
       -0.20154807 0.1935956 -0.14149429 -0.30151764
0003a0 56 c9 69 be bf a8 85 3d e8 5c a7 bd 8a 3a 03 be
       -0.2283071 0.065263264 -0.08172017 -0.128153
0003b0 f0 62 39 3e 7a 6b 2c 3e 40 a3 10 be 9c df ae 3d
       0.18104148 0.16837874 -0.14124775 0.08538744
0003c0 ea aa 9a bd d3 0b d6 be 56 e5 b8 3d 30 e7 b6 3d
       -0.075521305 -0.41805896 0.09028117 0.08930814
0003d0 70 89 1d bf f2 25 b0 be 9a 9b af 3e 26 23 10 be
       -0.6153784 -0.3440395 0.34298402 -0.14075908
0003e0 4d d5 87 bc 06 ad 7c 3e 19 c2 a0 bd 79 01 04 be
       -0.016581202 0.24675378 -0.07849521 -0.12891187
0003f0 4f 85 bb be 62 68 ae bb 39 6c 08 bd ef 00 9c bf
       -0.36625144 -0.005322502 -0.033306334 -1.2187785

base.critic_linear.weight f4 [1, 128]
000000 ac f8 c8 3b 31 73 99 bf a1 e4 32 3f b3 9d 99 3f
       0.0061331596 -1.1988279 0.6988011 1.2001251
000010 1a 11 aa bd b7 ae 4c 3f 28 59 82 3c 88 61 5c be
       -0.08304043 0.79954094 0.015911654 -0.2152158
000020 64 c1 99 bd e8 f9 3f 3f f8 41 2f 3f 9f a1 98 3d
       -0.075075895 0.749907 0.68460035 0.07452702
000030 20 61 36 bf 78 36 24 3f c6 e1 3a 3f e1 bb bf be
       -0.7124195 0.6414561 0.7300075 -0.37448028
000040 f3 5c 10 3c 9e 3e 8a bf cd 02 90 3d 6e 8b e7 3b
       0.008811223 -1.0800359 0.07031784 0.007066182
000050 a9 99 2e 3f 29 fd 35 3f 68 bd 97 3f 3a 61 4d 3f
       0.68203217 0.71089417 1.1854677 0.8022648
000060 23 d6 55 3f 7a bd 43 3f 70 19 51 3f 25 81 16 be
       0.8352987 0.76460993 0.8167944 -0.14697702
000070 5e 32 48 3f 74 de bd bf 03 0d 3e 3f de c4 dd bd
       0.78201854 -1.4833512 0.74238604 -0.10828565
000080 6b 41 3e 3f 3b 91 a6 bf bb 43 93 ba 30 0e 57 c0
       0.7431857 -1.3013071 -0.0011235395 -3.360241
000090 39 e9 95 bd 10 54 ce bd 76 a9 36 3f 3e 43 79 c0
       -0.07319874 -0.100746274 0.71352327 -3.8947291
0000a0 43 e1 25 c0 a6 18 4a c0 8e 68 a7 bf d6 05 21 3f
       -2.591874 -3.1577544 -1.3078783 0.6289953
0000b0 a5 a6 22 3f 01 57 b0 bb df 4c 68 bd 78 c1 89 3f
       0.6353553 -0.0053814654 -0.056713935 1.0762167
0000c0 dc a9 56 3f 27 e8 44 3f dc 7a d2 bd 41 80 a1 3c
       0.83852935 0.76916736 -0.1027734 0.019714477
0000d0 7f 58 09 c0 cc ce e0 bf 65 43 9b 3f f8 fd 4d 3f
       -2.1460264 -1.7563109 1.2129942 0.8046565
0000e0 5a 15 3d 3f 03 72 09 c0 b8 b1 0c be 5c 37 18 c0
       0.73860705 -2.1475837 -0.1373967 -2.3783789
0000f0 40 ac 3f 3e 73 76 7f 3f 80 6a 9b bd f1 d5 34 3f
       0.18718052 0.99790114 -0.07588673 0.7063895
000100 30 7a 32 3f 10 a3 46 3f b5 61 16 bf 4d 44 34 3f
       0.69717693 0.77592564 -0.5874284 0.7041672
000110 37 c3 41 3f 22 5d 96 ba 01 99 bf 3b fb 2a ff bc
       0.756885 -0.0011471848 0.005847097 -0.031148424
000120 ba 76 29 3f 94 88 46 3b 88 e0 46 3f b3 bc 0f 3c
       0.6619679 0.003029381 0.7768636 0.008773017
000130 75 df 36 3f 0d 4d 6d 3f a4 7e 82 bf 3d 58 c9 3e
       0.7143472 0.92695695 -1.0194898 0.39325133
000140 44 1c 4a bf ba d1 5c c0 6d e8 46 be 7f 00 d5 bf
       -0.7894938 -3.4503007 -0.19424601 -1.6640776
000150 c9 d4 33 bf 69 1a 95 bf 64 bb 6a be b2 7b ba be
       -0.7024656 -1.1648685 -0.22923046 -0.36422497
000160 24 8f 46 3f e4 b0 dc 3d ab fe 3c 3f d9 0d af bf
       0.77562165 0.10775927 0.7382609 -1.3676101
000170 06 6b 39 bd e2 26 4a 3f 93 b4 45 3f 97 c0 b4 bf
       -0.04526808 0.7896558 0.7722866 -1.4121274
000180 5c b3 01 be 28 22 58 bd 4e 16 cd bd a1 6c 3c 3f
       -0.12666076 -0.05276695 -0.1001402 0.73603255
000190 ea 1a 43 be 88 b0 3d 3f 9c 61 d9 3c 7b a4 98 bd
       -0.19053236 0.7409749 0.026535802 -0.07453247
0001a0 b3 7a 28 3f 0f 1a 3f 3b ed 41 83 3f 68 63 4f 3f
       0.65812224 0.002915982 1.0254494 0.81011057
0001b0 4a 99 94 3f 86 c3 48 3f 05 e5 f2 3d 95 49 32 be
       1.160928 0.78423345 0.11860088 -0.17410882
0001c0 9b 88 ce 3d bb 84 aa 3f 64 03 c7 bc 04 12 38 3f
       0.10084649 1.3321756 -0.024293609 0.7190249
0001d0 c3 a1 2a 3f e7 ef 29 3d 93 8b 5e bd a3 b8 38 3f
       0.6665308 0.041488554 -0.054332327 0.72156733
0001e0 8d 67 fa 3d 34 b3 1d bd f8 7c 6b 3e 84 d9 c8 bf
       0.12226782 -0.03850098 0.2299689 -1.569138
0001f0 bf 05 33 3f 16 c8 6f 3f b1 b3 3a be dc 74 14 3d
       0.6993064 0.9366468 -0.1823261 0.03624426

dist.fc_mean.0.bias f4 [3]
000000 63 57 1c bd b9 ab c6 3d 7f 63 15 3e
       -0.038169276 0.09700722 0.14588736
